gpcdx_rca/outputs/swat/model_best.pt (torch, 649634 bytes, 26 tensors)

A_ref_mean f4 [51, 51]
0.0 0.0 0.0 0.0 0.0 0.0 0.0 0.0
0.0 0.0 0.0 0.0 0.0 0.0 0.0 0.0
0.0 0.0 0.0 0.0 0.0 0.0 0.0 0.0
0.0 0.0 0.0 0.0 0.0 0.0 0.0 0.0
0.0 0.0 0.0 0.0 0.0 0.0 0.0 0.0
0.0 0.0 0.0 0.0 0.0 0.0 0.0 0.0
0.0 0.0 0.0 0.0 0.0 0.0 0.0 0.0
0.0 0.0 0.0 0.0 0.0 0.0 0.0 0.0
0.0 0.0 0.0 0.0 0.0 0.0 0.0 0.0
0.0 0.0 0.0 0.0 0.0 0.0 0.0 0.0
0.0 0.0 0.0 0.0 0.0 0.0 0.0 0.0
0.0 0.0 0.0 0.0 0.0 0.0 0.0 0.0
0.0 0.0 0.0 0.0 0.0 0.0 0.0 0.0
0.0 0.0 0.0 0.0 0.0 0.0 0.0 0.0
0.0 0.0 0.0 0.0 0.0 0.0 0.0 0.0
0.0 0.0 0.0 0.0 0.0 0.0 0.0 0.0
0.0 0.0 0.0 0.0 0.0 0.0 0.0 0.0
0.0 0.0 0.0 0.0 0.0 0.0 0.0 0.0
0.0 0.0 0.0 0.0 0.0 0.0 0.0 0.0
0.0 0.0 0.0 0.0 0.0 0.0 0.0 0.0
0.0 0.0 0.0 0.0 0.0 0.0 0.0 0.0
0.0 0.0 0.0 0.0 0.0 0.0 0.0 0.0
0.0 0.0 0.0 0.0 0.0 0.0 0.0 0.0
0.0 0.0 0.0 0.0 0.0 0.0 0.0 0.0
0.0 0.0 0.0 0.0 0.0 0.0 0.0 0.0
0.0 0.0 0.0 0.0 0.0 0.0 0.0 0.0
0.0 0.0 0.0 0.0 0.0 0.0 0.0 0.0
0.0 0.0 0.0 0.0 0.0 0.0 0.0 0.0
0.0 0.0 0.0 0.0 0.0 0.0 0.0 0.0
0.0 0.0 0.0 0.0 0.0 0.0 0.0 0.0
0.0 0.0 0.0 0.0 0.0 0.0 0.0 0.0
0.0 0.0 0.0 0.0 0.0 0.0 0.0 0.0
00000000: 0000 0000 0000 0000 0000 0000 0000 0000
00000010: 0000 0000 0000 0000 0000 0000 0000 0000
00000020: 0000 0000 0000 0000 0000 0000 0000 0000
00000030: 0000 0000 0000 0000 0000 0000 0000 0000
00000040: 0000 0000 0000 0000 0000 0000 0000 0000
00000050: 0000 0000 0000 0000 0000 0000 0000 0000
00000060: 0000 0000 0000 0000 0000 0000 0000 0000
00000070: 0000 0000 0000 0000 0000 0000 0000 0000
00000080: 0000 0000 0000 0000 0000 0000 0000 0000
00000090: 0000 0000 0000 0000 0000 0000 0000 0000
000000a0: 0000 0000 0000 0000 0000 0000 0000 0000
000000b0: 0000 0000 0000 0000 0000 0000 0000 0000
000000c0: 0000 0000 0000 0000 0000 0000 0000 0000
000000d0: 0000 0000 0000 0000 0000 0000 0000 0000
000000e0: 0000 0000 0000 0000 0000 0000 0000 0000
000000f0: 0000 0000 0000 0000 0000 0000 0000 0000
00000100: 0000 0000 0000 0000 0000 0000 0000 0000
00000110: 0000 0000 0000 0000 0000 0000 0000 0000
00000120: 0000 0000 0000 0000 0000 0000 0000 0000
00000130: 0000 0000 0000 0000 0000 0000 0000 0000
00000140: 0000 0000 0000 0000 0000 0000 0000 0000
00000150: 0000 0000 0000 0000 0000 0000 0000 0000
00000160: 0000 0000 0000 0000 0000 0000 0000 0000
00000170: 0000 0000 0000 0000 0000 0000 0000 0000
00000180: 0000 0000 0000 0000 0000 0000 0000 0000
00000190: 0000 0000 0000 0000 0000 0000 0000 0000
000001a0: 0000 0000 0000 0000 0000 0000 0000 0000
000001b0: 0000 0000 0000 0000 0000 0000 0000 0000
000001c0: 0000 0000 0000 0000 0000 0000 0000 0000
000001d0: 0000 0000 0000 0000 0000 0000 0000 0000
000001e0: 0000 0000 0000 0000 0000 0000 0000 0000
000001f0: 0000 0000 0000 0000 0000 0000 0000 0000
00000200: 0000 0000 0000 0000 0000 0000 0000 0000
00000210: 0000 0000 0000 0000 0000 0000 0000 0000
00000220: 0000 0000 0000 0000 0000 0000 0000 0000
00000230: 0000 0000 0000 0000 0000 0000 0000 0000
00000240: 0000 0000 0000 0000 0000 0000 0000 0000
00000250: 0000 0000 0000 0000 0000 0000 0000 0000
00000260: 0000 0000 0000 0000 0000 0000 0000 0000
00000270: 0000 0000 0000 0000 0000 0000 0000 0000
00000280: 0000 0000 0000 0000 0000 0000 0000 0000
00000290: 0000 0000 0000 0000 0000 0000 0000 0000
000002a0: 0000 0000 0000 0000 0000 0000 0000 0000
000002b0: 0000 0000 0000 0000 0000 0000 0000 0000
000002c0: 0000 0000 0000 0000 0000 0000 0000 0000
000002d0: 0000 0000 0000 0000 0000 0000 0000 0000
000002e0: 0000 0000 0000 0000 0000 0000 0000 0000
000002f0: 0000 0000 0000 0000 0000 0000 0000 0000
00000300: 0000 0000 0000 0000 0000 0000 0000 0000
00000310: 0000 0000 0000 0000 0000 0000 0000 0000
00000320: 0000 0000 0000 0000 0000 0000 0000 0000
00000330: 0000 0000 0000 0000 0000 0000 0000 0000
00000340: 0000 0000 0000 0000 0000 0000 0000 0000
00000350: 0000 0000 0000 0000 0000 0000 0000 0000
00000360: 0000 0000 0000 0000 0000 0000 0000 0000
00000370: 0000 0000 0000 0000 0000 0000 0000 0000
00000380: 0000 0000 0000 0000 0000 0000 0000 0000
00000390: 0000 0000 0000 0000 0000 0000 0000 0000
000003a0: 0000 0000 0000 0000 0000 0000 0000 0000
000003b0: 0000 0000 0000 0000 0000 0000 0000 0000
000003c0: 0000 0000 0000 0000 0000 0000 0000 0000
000003d0: 0000 0000 0000 0000 0000 0000 0000 0000
000003e0: 0000 0000 0000 0000 0000 0000 0000 0000
000003f0: 0000 0000 0000 0000 0000 0000 0000 0000

A_ref_var f4 [51, 51]
1.0 1.0 1.0 1.0 1.0 1.0 1.0 1.0
1.0 1.0 1.0 1.0 1.0 1.0 1.0 1.0
1.0 1.0 1.0 1.0 1.0 1.0 1.0 1.0
1.0 1.0 1.0 1.0 1.0 1.0 1.0 1.0
1.0 1.0 1.0 1.0 1.0 1.0 1.0 1.0
1.0 1.0 1.0 1.0 1.0 1.0 1.0 1.0
1.0 1.0 1.0 1.0 1.0 1.0 1.0 1.0
1.0 1.0 1.0 1.0 1.0 1.0 1.0 1.0
1.0 1.0 1.0 1.0 1.0 1.0 1.0 1.0
1.0 1.0 1.0 1.0 1.0 1.0 1.0 1.0
1.0 1.0 1.0 1.0 1.0 1.0 1.0 1.0
1.0 1.0 1.0 1.0 1.0 1.0 1.0 1.0
1.0 1.0 1.0 1.0 1.0 1.0 1.0 1.0
1.0 1.0 1.0 1.0 1.0 1.0 1.0 1.0
1.0 1.0 1.0 1.0 1.0 1.0 1.0 1.0
1.0 1.0 1.0 1.0 1.0 1.0 1.0 1.0
1.0 1.0 1.0 1.0 1.0 1.0 1.0 1.0
1.0 1.0 1.0 1.0 1.0 1.0 1.0 1.0
1.0 1.0 1.0 1.0 1.0 1.0 1.0 1.0
1.0 1.0 1.0 1.0 1.0 1.0 1.0 1.0
1.0 1.0 1.0 1.0 1.0 1.0 1.0 1.0
1.0 1.0 1.0 1.0 1.0 1.0 1.0 1.0
1.0 1.0 1.0 1.0 1.0 1.0 1.0 1.0
1.0 1.0 1.0 1.0 1.0 1.0 1.0 1.0
1.0 1.0 1.0 1.0 1.0 1.0 1.0 1.0
1.0 1.0 1.0 1.0 1.0 1.0 1.0 1.0
1.0 1.0 1.0 1.0 1.0 1.0 1.0 1.0
1.0 1.0 1.0 1.0 1.0 1.0 1.0 1.0
1.0 1.0 1.0 1.0 1.0 1.0 1.0 1.0
1.0 1.0 1.0 1.0 1.0 1.0 1.0 1.0
1.0 1.0 1.0 1.0 1.0 1.0 1.0 1.0
1.0 1.0 1.0 1.0 1.0 1.0 1.0 1.0
00000000: 0000 803f 0000 803f 0000 803f 0000 803f
00000010: 0000 803f 0000 803f 0000 803f 0000 803f
00000020: 0000 803f 0000 803f 0000 803f 0000 803f
00000030: 0000 803f 0000 803f 0000 803f 0000 803f
00000040: 0000 803f 0000 803f 0000 803f 0000 803f
00000050: 0000 803f 0000 803f 0000 803f 0000 803f
00000060: 0000 803f 0000 803f 0000 803f 0000 803f
00000070: 0000 803f 0000 803f 0000 803f 0000 803f
00000080: 0000 803f 0000 803f 0000 803f 0000 803f
00000090: 0000 803f 0000 803f 0000 803f 0000 803f
000000a0: 0000 803f 0000 803f 0000 803f 0000 803f
000000b0: 0000 803f 0000 803f 0000 803f 0000 803f
000000c0: 0000 803f 0000 803f 0000 803f 0000 803f
000000d0: 0000 803f 0000 803f 0000 803f 0000 803f
000000e0: 0000 803f 0000 803f 0000 803f 0000 803f
000000f0: 0000 803f 0000 803f 0000 803f 0000 803f
00000100: 0000 803f 0000 803f 0000 803f 0000 803f
00000110: 0000 803f 0000 803f 0000 803f 0000 803f
00000120: 0000 803f 0000 803f 0000 803f 0000 803f
00000130: 0000 803f 0000 803f 0000 803f 0000 803f
00000140: 0000 803f 0000 803f 0000 803f 0000 803f
00000150: 0000 803f 0000 803f 0000 803f 0000 803f
00000160: 0000 803f 0000 803f 0000 803f 0000 803f
00000170: 0000 803f 0000 803f 0000 803f 0000 803f
00000180: 0000 803f 0000 803f 0000 803f 0000 803f
00000190: 0000 803f 0000 803f 0000 803f 0000 803f
000001a0: 0000 803f 0000 803f 0000 803f 0000 803f
000001b0: 0000 803f 0000 803f 0000 803f 0000 803f
000001c0: 0000 803f 0000 803f 0000 803f 0000 803f
000001d0: 0000 803f 0000 803f 0000 803f 0000 803f
000001e0: 0000 803f 0000 803f 0000 803f 0000 803f
000001f0: 0000 803f 0000 803f 0000 803f 0000 803f
00000200: 0000 803f 0000 803f 0000 803f 0000 803f
00000210: 0000 803f 0000 803f 0000 803f 0000 803f
00000220: 0000 803f 0000 803f 0000 803f 0000 803f
00000230: 0000 803f 0000 803f 0000 803f 0000 803f
00000240: 0000 803f 0000 803f 0000 803f 0000 803f
00000250: 0000 803f 0000 803f 0000 803f 0000 803f
00000260: 0000 803f 0000 803f 0000 803f 0000 803f
00000270: 0000 803f 0000 803f 0000 803f 0000 803f
00000280: 0000 803f 0000 803f 0000 803f 0000 803f
00000290: 0000 803f 0000 803f 0000 803f 0000 803f
000002a0: 0000 803f 0000 803f 0000 803f 0000 803f
000002b0: 0000 803f 0000 803f 0000 803f 0000 803f
000002c0: 0000 803f 0000 803f 0000 803f 0000 803f
000002d0: 0000 803f 0000 803f 0000 803f 0000 803f
000002e0: 0000 803f 0000 803f 0000 803f 0000 803f
000002f0: 0000 803f 0000 803f 0000 803f 0000 803f
00000300: 0000 803f 0000 803f 0000 803f 0000 803f
00000310: 0000 803f 0000 803f 0000 803f 0000 803f
00000320: 0000 803f 0000 803f 0000 803f 0000 803f
00000330: 0000 803f 0000 803f 0000 803f 0000 803f
00000340: 0000 803f 0000 803f 0000 803f 0000 803f
00000350: 0000 803f 0000 803f 0000 803f 0000 803f
00000360: 0000 803f 0000 803f 0000 803f 0000 803f
00000370: 0000 803f 0000 803f 0000 803f 0000 803f
00000380: 0000 803f 0000 803f 0000 803f 0000 803f
00000390: 0000 803f 0000 803f 0000 803f 0000 803f
000003a0: 0000 803f 0000 803f 0000 803f 0000 803f
000003b0: 0000 803f 0000 803f 0000 803f 0000 803f
000003c0: 0000 803f 0000 803f 0000 803f 0000 803f
000003d0: 0000 803f 0000 803f 0000 803f 0000 803f
000003e0: 0000 803f 0000 803f 0000 803f 0000 803f
000003f0: 0000 803f 0000 803f 0000 803f 0000 803f

basis.mlp.0.weight f4 [32, 1]
0.84959334 0.9634134 -0.38124666 1.019999 -0.32331884 0.2902421 -0.6189987 0.7116921
1.0193019 -0.8554078 0.99418 0.20953825 0.8271235 0.3364962 0.5674093 -0.24333039
0.8764501 0.31929296 -0.56539625 0.44640303 -0.61931354 -0.22484638 -0.5124688 0.77508897
-0.92227215 -0.5894806 -0.4084564 -0.7714421 0.2315445 -1.1290884 1.0412918 -0.96770555
00000000: f37e 593f 43a2 763f c332 c3be 548f 823f
00000010: 0c8a a5be 9d9a 943e b376 1ebf 7431 363f
00000020: 7c78 823f 01fc 5abf 9582 7e3f 3291 563e
00000030: 5ebe 533f 3b49 ac3e bc41 113f 9a2b 79be
00000040: 095f 603f 5e7a a33e cfbd 10bf f08e e43e
00000050: 558b 1ebf 213e 66be 2831 03bf 3b6c 463f
00000060: 071a 6cbf 33e8 16bf 3221 d1be 3b7d 45bf
00000070: 001a 6d3e f885 90bf 0d49 853f 8dbb 77bf

basis.mlp.0.bias f4 [32]
0.7626545 0.16967796 -0.20193468 0.6184553 0.24503873 0.6637854 0.18527408 -0.2829499
0.26184672 -0.20213242 0.41820085 0.84445155 0.5781056 -0.25974187 0.56253636 0.26441187
0.50767 -0.49105787 -0.8891763 -0.25053078 -0.585458 0.8930458 0.37596872 0.41336203
0.3907293 0.072430275 0.8550826 -0.5173843 0.04772195 -0.57122236 0.3001356 -0.29643494
00000000: 533d 433f 0fc0 2d3e f7c7 4ebe 1653 1e3f
00000010: 6feb 7a3e d7ed 293f 7db8 3d3e cfde 90be
00000020: c610 863e cdfb 4ebe 6c1e d63e fa2d 583f
00000030: bbfe 133f e3fc 84be 6202 103f fe60 873e
00000040: a9f6 013f f06b fbbe 0fa1 63bf 9245 80be
00000050: 93e0 15bf a69e 643f f97e c03e 30a4 d33e
00000060: ac0d c83e 5356 943d b1e6 5a3f 4c73 04bf
00000070: 1778 433d a13b 12bf 60ab 993e 52c6 97be

basis.mlp.2.weight f4 [1, 32]
-0.06153323 -0.094175026 0.14708829 -0.06971818 0.09518842 -0.0024319082 0.10053464 -0.13431004
-0.08709323 0.11242971 -0.076438 0.0068237004 -0.06718226 -0.18895559 -0.057713814 0.09304275
-0.07030871 -0.19230635 0.1057311 -0.17068125 0.12801364 0.07069741 0.09359059 -0.07160185
0.09595792 0.10726047 0.080537565 0.13504438 -0.08329988 0.13002317 -0.084542684 0.11546277
00000000: 450a 7cbd d6de c0bd 509e 163e 68c8 8ebd
00000010: 25f2 c23d a660 1fbb 1be5 cd3d 9288 09be
00000020: ef5d b2bd 8c41 e63d 878b 9cbd 5999 df3b
00000030: da96 89bd 937d 41be 5265 6cbd 338d be3d
00000040: 03fe 8fbd f5eb 44be 8c89 d83d 11c7 2ebe
00000050: 0216 033e cec9 903d 6cac bf3d fea3 92bd
00000060: 9685 c43d 61ab db3d e1f0 a43d 1349 0a3e
00000070: 2199 aabd cb24 053e b724 adbd bf77 ec3d

inference_net.gru.weight_ih_l0 f4 [384, 255]
-0.030177321 -0.032448832 -0.08674916 -0.051369984 0.021221217 -0.01690207 -0.0691829 -0.002719921
-0.064952545 -0.07936226 -0.049436796 -0.078770645 -0.056390725 0.08843853 0.016439617 0.03774515
-0.07148539 -0.04742618 -0.019109871 0.023652822 -0.07777479 -0.038084157 -0.052915324 0.00024494695
-0.032889586 -0.0035011934 -0.057203 -0.057936303 -0.04881371 -0.02749323 -0.070284076 0.073555596
-0.018130925 0.07546596 0.026951477 -0.07733943 0.058629002 -0.026915679 -0.036551274 -0.07612268
-0.07709458 0.036021683 -0.008895195 0.044391483 -0.06298072 0.07651926 -0.053445682 -0.004670721
0.02855637 0.055074323 0.071356826 0.08051818 -0.07008508 0.022244453 -0.038018122 -0.00968602
-0.0661578 0.08050929 -0.06487267 0.047239263 0.042074073 0.0395715 -0.03727934 0.09023814
0.029018296 0.011370282 -0.07789265 0.03710441 -0.013260073 -0.040492848 0.090405196 0.033566173
-0.035843816 -0.032567933 0.007391177 0.04935263 -0.022586212 -0.05043217 -0.03026796 -0.06603271
0.0375193 0.074363224 -0.07704077 0.026606426 0.0516611 0.022187294 -0.025483727 0.05256622
0.05323344 0.039783478 -0.019050742 -0.027107611 0.005611726 -0.019583387 -0.030430356 0.052085772
0.08459883 -0.0099341795 -0.020332964 -0.00013373214 -0.001682705 0.026349986 0.030510562 -0.07458453
-0.028705455 0.07207062 0.040566877 0.0114383595 -0.0483732 -0.051835172 -0.07828212 -0.019264728
0.039220378 0.06623234 0.058452547 -0.07907608 -0.056852225 -0.017159916 0.08422799 0.011382557
-0.018970797 0.042865217 -0.027129205 -0.05043284 0.07125818 -0.036301788 -0.013830931 -0.08404335
0.06303785 0.07084251 0.031925503 -0.06193594 -0.08754783 -0.07210709 0.0655729 0.039841946
0.07194723 0.043820333 0.01984471 -0.003324239 -0.068206206 -0.077067316 -0.08431693 0.03426108
-0.045593172 -0.017788382 -0.050867956 -0.01610644 -0.062210802 -0.05775433 0.0305701 -0.025017977
0.055816673 -0.027105039 -0.063588135 -0.015595145 -0.04284602 -0.02704167 -0.084145315 0.049452476
-0.061536368 0.044425547 0.040109236 0.06314752 -0.067798465 0.0648194 -0.040535048 0.034048874
0.08425757 -0.011214874 -0.010105723 -0.029809047 -0.08328039 0.032909684 -0.09735456 0.0559729
0.067230195 0.08468737 -0.019744113 -0.07153057 0.019084437 0.048240606 -0.08832349 -0.020197803
-0.053026684 -0.012638738 -0.048420098 -0.041127384 -0.033058003 -0.08908278 0.0703248 0.07181419
-0.016340403 -0.012398862 -0.03858421 -0.07778384 -0.08439433 0.032230586 -0.051447764 -0.058950655
-0.003277869 -0.02589214 -0.025021845 0.0063354555 -0.015328769 -0.025774054 -0.038497142 -0.06745067
0.07775222 -0.03165641 0.024671722 -0.029417107 0.0084331855 0.083655246 0.041973203 -0.07659731
0.03508158 0.083902 0.0232535 0.05925773 0.0918331 -0.008901561 0.022918714 -0.056838367
-0.01364853 0.07209407 0.05126485 -0.04986135 -0.06514514 -0.053768814 -0.08320131 -0.06417147
-0.017939948 0.06361537 0.018697241 -0.06790912 -0.0720563 0.042470597 -0.06707902 -0.012036003
0.042400423 -0.040907193 -0.009637857 -0.0076937173 -0.020911211 -0.055674467 -0.07980672 -0.07293746
-0.04903245 0.08394642 -0.04269287 -0.059355248 0.021424823 0.02436074 0.048428837 0.085965425
00000000: 6e36 f7bc 11e9 04bd 8ba9 b1bd 5569 52bd
00000010: 1ed8 ad3c 3676 8abc c4af 8dbd b440 32bb
00000020: d705 85bd ae88 a2bd 3d7e 4abd 8152 a1bd
00000030: f6f9 66bd 431f b53d 60ac 863c a99a 1a3d
00000040: ef66 92bd f441 42bd 4e8c 9cbc 90c3 c13c
00000050: 6448 9fbd 22fe 1bbd bdbd 58bd 396c 8039
00000060: 3bb7 06bd 4774 65bb b14d 6abd 9e4e 6dbd
00000070: e3f0 47bd 7b39 e1bc 19f1 8fbd 51a4 963d
00000080: 4e87 94bc e68d 9a3d 58c9 dc3c 2364 9ebd
00000090: f724 703d 457e dcbc cab6 15bd 35e6 9bbd
000000a0: c3e3 9dbd 798b 133d 27bd 11bc d8d3 353d
000000b0: 09fc 80bd 21b6 9c3d dce9 5abd d90c 99bb
000000c0: 0cef e93c 9d95 613d 8723 923d b7e6 a43d
000000d0: c488 8fbd 003a b63c e4b8 1bbd 1db2 1ebc
000000e0: be7d 87bd 0ee2 a43d f6db 84bd f57d 413d
000000f0: dd55 2c3d ba15 223d 39b2 18bd c6ce b83d
00000100: c7b7 ed3c 6b4a 3a3c 2f86 9fbd cbfa 173d
00000110: c740 59bc d4db 25bd 5c26 b93d af7c 093d
00000120: f7d0 12bd f465 05bd b031 f23b fc25 4a3d
00000130: b806 b9bc f791 4ebd 83f4 f7bc 283c 87bd
00000140: d6ad 193d bf4b 983d 8dc7 9dbd b8f5 d93c
00000150: 979a 533d 21c2 b53c 40c3 d0bc ad4f 573d
00000160: 4f0b 5a3d 00f4 223d 4d10 9cbc c810 debc
00000170: 92e2 b73b 576d a0bc 1549 f9bc e457 553d
00000180: 2742 ad3d f8c2 22bc 5191 a6bc 733a 0cb9
00000190: 368e dcba eddb d73c 49f1 f93c c6bf 98bd
000001a0: b427 ebbc c399 933d 7429 263d f567 3b3c
000001b0: fa22 46bd 1e51 54bd 6052 a0bd 10d1 9dbc
000001c0: 8ca5 203d d2a4 873d f06b 6f3d a4f2 a1bd
000001d0: e1dd 68bd f492 8cbc b97f ac3d e87d 3a3c
000001e0: a568 9bbc 7093 2f3d 113e debc aa92 4ebd
000001f0: cfef 913d 2fb1 14bd 219b 62bc eb1e acbd
00000200: fd19 813d e115 913d 51c4 023d 8ab0 7dbd
00000210: 474c b3bd e2ac 93bd 164b 863d 4f31 233d
00000220: 1259 933d f37c 333d 6091 a23c 7adb 59bb
00000230: b2af 8bbd 78d5 9dbd 5bae acbd 5955 0c3d
00000240: e8bf 3abd f1b8 91bc eb5a 50bd a7f1 83bc
00000250: c1d0 7ebd ce8f 6cbd 256e fa3c 80f2 ccbc
00000260: 06a0 643d 630b debc 7f3a 82bd c782 7fbc
00000270: 4f7f 2fbd 7e86 ddbc 6154 acbd ae8e 4a3d
00000280: 8f0d 7cbd 90f7 353d 9549 243d 7d53 813d
00000290: ecd9 8abd 09c0 843d 1408 26bd d576 0b3d
000002a0: 3c8f ac3d 97be 37bc 7992 25bc 1a32 f4bc
000002b0: e98e aabd 4ecc 063d d461 c7bd d743 653d
000002c0: fcaf 893d 9270 ad3d 68be a1bc 9f7e 92bd
000002d0: f756 9c3c f197 453d f2e2 b4bd dd75 a5bc
000002e0: 8232 59bd b612 4fbc 2754 46bd 3075 28bd
000002f0: d467 07bd 0871 b6bd 7306 903d 5113 933d
00000300: 4fdc 85bc 9924 4bbc 7a0a 1ebd 224d 9fbd
00000310: efd6 acbd 3804 043d e4ba 52bd 3e76 71bd
00000320: 84d1 56bb c11b d4bc 9dfa ccbc a799 cf3b
00000330: 8425 7bbc 1c24 d3bc 2eaf 1dbd 9423 8abd
00000340: 8e3c 9f3d 27aa 01bd 5a1c ca3c 25fc f0bc
00000350: 582b 0a3c 7153 ab3d 18ec 2b3d 0ddf 9cbd
00000360: b4b1 0f3d d0d4 ab3d 207e be3c 3cb8 723d
00000370: fe12 bc3d dad7 11bc 07c0 bb3c 59cf 68bd
00000380: 159e 5fbc 0ea6 933d 17fb 513d 6a3b 4cbd
00000390: d16a 85bd b03c 5cbd 7365 aabd 556c 83bd
000003a0: ccf6 92bc c648 823d f52a 993c f013 8bbd
000003b0: 4192 93bd a6f5 2d3d ba60 89bd a832 45bc
000003c0: 11ac 2d3d 4d8e 27bd 1ae8 1dbc 941b fcbb
000003d0: fd4d abbc e90a 64bd b571 a3bd 3c60 95bd
000003e0: 40d6 48bd 1aec ab3d b8de 2ebd 7d1e 73bd
000003f0: 1c83 af3c 2d90 c73c 515d 463d a40e b03d

inference_net.gru.weight_hh_l0 f4 [384, 128]
0.061580393 -0.0622662 0.008045404 -0.08163943 0.06516802 -0.082451396 0.007084993 -0.07902875
0.03153461 -0.07296134 -0.033944618 0.074676596 -0.0648638 -0.011896267 -0.05427199 0.036356293
-0.011063689 -0.06211918 0.06797744 -0.08096013 -0.024902621 -0.0476093 0.078977406 -0.008197034
-0.019616777 -0.028260177 -0.075520016 0.021419901 -0.09108106 -0.008017778 -0.052981883 -0.07780159
0.05846915 -0.08821842 0.014855291 -0.05873617 -0.054349165 -0.0865422 0.0600031 0.06850904
0.06776228 -0.05402966 0.042137787 0.0075477515 -0.05855652 0.08248755 -0.027031343 -0.060333155
-0.0016628415 -0.042556033 0.053597793 0.052066118 -0.006517883 -0.03646269 0.078976065 -0.0788204
-0.058803014 -0.027718233 0.04556224 0.034334708 -0.038210686 0.056035377 0.028913973 0.018713716
0.04360947 -0.042148903 -0.044849962 -0.04922286 -0.030538738 0.030473277 0.08563372 -0.05057778
0.037172776 -0.08646027 -0.048883066 0.0073701413 -0.01150896 0.049879942 -0.059464097 -0.03128974
0.08945735 -0.07131308 0.081161395 -0.0280853 -0.061418526 -0.019463899 -0.0068220054 -0.07258489
-0.046059202 -0.040022127 -0.041328426 -0.081786826 -0.081920564 -0.031782784 -0.058772936 -0.029064577
-0.08705522 -0.0040083122 -0.025548294 0.057023183 0.0013708017 0.079280846 -0.03449669 0.010114549
0.010800532 -0.05251583 -0.0020239702 0.055851087 0.055105966 -0.048795912 -0.019642312 -0.07584624
0.017448328 0.07935843 -0.025480589 -0.08547643 -0.06341978 -0.07831662 -0.00018424692 -0.070766956
-0.044432882 0.076163396 0.09857066 -0.038705792 0.070163414 0.008158018 -0.08296849 0.05128579
0.04143596 -0.06606884 -0.034393568 -0.018344149 -0.026206868 0.08260106 -0.029788125 0.033387113
0.044222075 0.016595416 0.041148365 -0.05805904 -0.0070039206 0.02570071 -0.0037770506 0.050707843
0.010154807 0.07914893 0.07454832 0.07856046 -0.03559899 -0.07156489 0.030026093 0.027784867
0.029851021 3.3731798e-05 0.07236257 0.008022852 0.019491302 0.033833876 -0.048167184 0.0101778945
0.08427102 0.02796202 0.040815324 0.07825141 0.00034240232 0.019654084 -0.035372935 -0.055988837
0.0888045 0.082669765 -0.043062825 -0.107783005 -0.047448117 0.024597853 -0.012085551 -0.00016437289
0.07767498 0.06488588 -0.025462652 -0.059467748 -0.022600584 -0.02874707 -0.0972438 0.0008076951
0.0103991 0.061549492 0.058180887 -0.06757163 0.004936902 0.07234674 -0.053968497 0.016734224
0.103414424 0.010440883 0.061180968 -0.011089438 0.07150344 0.060336094 -0.014994443 0.0028603165
-0.08842254 -0.026707377 0.07608379 -0.01851916 -0.0018504431 -0.06457403 -0.028849108 0.03919122
0.11226087 0.050992735 0.010890515 -0.0978725 0.056970023 0.064020194 0.05329828 -0.07053374
-0.04598159 0.031648844 -0.031978853 0.08816613 -0.03278512 0.026202034 0.051468108 0.015776679
0.00448754 0.09564154 0.023558518 -0.051888924 -0.0034600105 -0.025749112 0.037122983 -0.01703644
0.029612133 -0.022901295 -0.04603893 0.0072350185 -0.0050969985 0.07381333 -0.0018364845 0.0033772225
0.05200049 -0.09258914 -0.038458392 0.026098168 0.073760964 -0.08479593 -0.06931728 0.030959109
-0.06526788 -0.014135313 -0.060980245 -0.12283786 0.08620472 -0.025259027 0.089862235 0.014828501
00000000: b93b 7c3d d80a 7fbd dfd0 033c 9332 a7bd
00000010: d076 853d 47dc a8bd 3b29 e83b d3d9 a1bd
00000020: 6f2a 013d c16c 95bd 8309 0bbd 0bf0 983d
00000030: 50d7 84bd 8fe8 42bc 4e4c 5ebd 56ea 143d
00000040: 7a44 35bc ae70 7ebd c237 8b3d 6dce a5bd
00000050: 9500 ccbc f801 43bd e8be a13d da4c 06bc
00000060: 5db3 a0bc e381 e7bc 3daa 9abd ca78 af3c
00000070: b588 babd 005d 03bc 8803 59bd 7156 9fbd
00000080: 597d 6f3d dcab b4bd 9b63 733c 5795 70bd
00000090: 3b9d 5ebd 093d b1bd d0c5 753d 784e 8c3d
000000a0: f3c6 8a3d 344e 5dbd ac98 2c3d 2153 f73b
000000b0: f6d8 6fbd 3cef a83d d670 ddbc e61f 77bd
000000c0: b4f3 d9ba 3c4f 2ebd 5c89 5b3d 4843 553d
000000d0: f793 d5bb e759 15bd 34be a13d 976c a1bd
000000e0: 6edb 70bd 5911 e3bc 799f 3a3d 8da2 0c3d
000000f0: cf82 1cbd 5a85 653d ffdc ec3c 824d 993c
00000100: d89f 323d 54a4 2cbd 98b4 37bd e99d 49bd
00000110: 602c fabc 18a3 f93c bb60 af3d a52a 4fbd
00000120: 7b42 183d 1512 b1bd 9c39 48bd 3a81 f13b
00000130: 1490 3cbc e94e 4c3d a090 73bd ac29 00bd
00000140: 6a35 b73d 980c 92bd f237 a63d 2513 e6bc
00000150: fe91 7bbd c172 9fbc 218b dfbb 63a7 94bd
00000160: 93a8 3cbd 3eee 23bd ff47 29bd da7f a7bd
00000170: f8c5 a7bd aa2e 02bd e4bb 70bd d618 eebc
00000180: 024a b2bd 2958 83bb a84a d1bc 2491 693d
00000190: 79ac b33a ff5d a23d 674c 0dbd 7eb7 253c
000001a0: b7f4 303c d71a 57bd 96a4 04bb 1cc4 643d
000001b0: cbb6 613d 39de 47bd eae8 a0bc 4655 9bbd
000001c0: ccef 8e3c ac86 a23d abbc d0bc 440e afbd
000001d0: 3be2 81bd 7764 a0bd 6832 41b9 44ee 90bd
000001e0: 41ff 35bd 8efb 9b3d 6adf c93d f789 1ebd
000001f0: d6b1 8f3d 35a9 053c 62eb a9bd 0c11 523d
00000200: c1b8 293d 1a4f 87bd 45e0 0cbd 7846 96bc
00000210: c9af d6bc bf2a a93d 3a06 f4bc edc0 083d
00000220: 3522 353d 1cf3 873c 308b 283d 51cf 6dbd
00000230: 2581 e5bb 4c8a d23c 6588 77bb 07b3 4f3d
00000240: 5960 263c d618 a23d caac 983d 4ee4 a03d
00000250: 3fd0 11bd 9d90 92bd 48f9 f53c 179d e33c
00000260: 218a f43c 3e7b 0d38 d432 943d 4872 033c
00000270: 39ac 9f3c 6495 0a3d f44a 45bd 2fc1 263c
00000280: 4996 ac3d 9b10 e53c f82d 273d 4642 a03d
00000290: 7684 b339 9a01 a13c 36e3 10bd 8d54 65bd
000002a0: 22df b53d c44e a93d a562 30bd 56bd dcbd
000002b0: f558 42bd 7081 c93c 7a02 46bc 835b 2cb9
000002c0: 0f14 9f3d e3e2 843d 0d97 d0bc 7494 73bd
000002d0: dc24 b9bc fa7e ebbc c227 c7bd 80bb 533a
000002e0: fd60 2a3c 521b 7c3d 154f 6e3d ff62 8abd
000002f0: bcc5 a13b 872a 943d 120e 5dbd 3616 893c
00000300: f1ca d33d 3d10 2b3c e598 7a3d 79b0 35bc
00000310: 6570 923d fb22 773d 41ab 75bc 2674 3b3b
00000320: e016 b5bd 6ec9 dabc d1d1 9b3d 7eb5 97bc
00000330: 918a f2ba 643f 84bd f754 ecbc f986 203d
00000340: 07e9 e53d c2dd 503d 216e 323c 6171 c8bd
00000350: 6659 693d 051d 833d 4c4f 5a3d fe73 90bd
00000360: 3157 3cbd 38a2 013d 42fc 02bd 7290 b43d
00000370: b149 06bd a6a5 d63c 39d0 523d 183e 813c
00000380: 370c 933b b6df c33d cbfd c03c 7b89 54bd
00000390: 58c1 62bb cdef d2bc 450e 183d 0190 8bbc
000003a0: 2595 f23c 7f9b bbbc 5193 3cbd bc13 ed3b
000003b0: b904 a7bb 712b 973d 32b6 f0ba 6454 5d3b
000003c0: 77fe 543d 609f bdbd 8c86 1dbd d3cb d53c
000003d0: fd0f 973d 7da9 adbd 38f6 8dbd f59d fd3c
000003e0: 2bab 85bd cd97 67bc 6cc6 79bd 6a92 fbbd
000003f0: 1a8c b03d 05ec cebc b109 b83d 3ef3 723c

inference_net.gru.bias_ih_l0 f4 [384]
-0.007246921 -0.0509008 -0.063928686 -0.051423 -0.07598662 -0.042444192 -0.043953754 -0.0014700863
0.0023765198 0.04011692 0.0060839695 -0.10074977 0.016530445 -0.041967362 -0.018151015 -0.023707988
-0.06503312 -0.044245493 -0.007079132 -0.0073975003 -0.08465796 -0.08844846 0.08730274 -0.042386323
-0.06069304 -0.100832164 -0.06848045 -0.07801941 0.06546383 0.0636982 0.016234206 -0.008194523
0.050910633 0.037641786 0.0025197328 -0.07714183 0.02397883 -0.08996681 0.0021714452 0.087140314
0.05619773 0.057470195 -0.039228577 -0.047441177 -0.023182537 -0.07817452 0.09179348 -0.038737774
0.028949792 -0.012230789 0.021214494 -0.03909919 -0.04347881 0.029520098 0.042522073 -0.05926885
-0.028086646 -0.05703105 0.03716565 -0.086357616 0.10034364 -0.015713504 -0.032142494 -0.043912947
0.06870911 0.028373064 0.054777943 -0.041775238 0.021250729 -0.08782281 -0.07531497 -0.073341444
-0.03907434 -0.00016277263 0.0631074 0.05852295 0.086401515 0.010763354 -0.03860833 -0.093173034
0.045052346 -0.11231593 -0.047036164 0.0325905 0.01830997 0.027772896 0.006301596 -0.06628098
0.05461577 -0.035786003 -0.08666781 -0.015749034 0.07405541 0.019107392 -0.00084900885 -0.05229857
0.07190872 -0.036054254 0.08342532 -0.032242738 -0.0331269 0.032691363 0.04584752 0.045350287
0.047142223 0.046600364 0.08774512 -0.008697685 0.06963123 -0.047509756 -0.016307767 0.008689683
0.0835594 0.06693331 -0.07689204 0.057746977 -0.029513609 0.05965621 0.052681345 0.029801661
0.027231771 0.035166282 0.06222403 -0.07660197 0.07110616 -0.05103294 -0.0076445024 -0.052074987
-0.078188054 -0.012195447 -0.0060124276 0.122644894 -0.018430365 -0.054305587 -0.046883482 0.013515924
0.009728746 -0.019727694 -0.06933771 -0.012245228 0.086313486 -0.07027168 0.04362812 0.07612268
0.0939703 0.028455988 -0.018876089 -0.052050214 0.06796285 -0.07211045 -0.03222838 -0.0021959986
0.09518059 -0.0005231617 0.03692206 0.011945777 0.0034059372 0.0017956833 0.05877648 0.040399328
-0.083290495 0.07099792 0.032980546 -0.0011837645 0.08178512 0.025805987 -0.045311574 -0.00018449675
0.028610563 0.0027719352 0.008215824 0.01812492 0.026171742 0.00577354 -0.08655602 -0.07338928
0.017848454 0.066481665 -0.025017988 -0.045058697 0.061874643 -0.04386521 -0.024282562 0.08141909
0.010306414 0.0777674 0.03289659 0.07207777 0.036751315 -0.07938393 0.054338824 -0.052608147
-0.024463883 -0.024106523 -0.058130674 0.02557231 -0.040513467 0.01457577 0.012890782 0.0054416615
0.017738093 -0.09512604 0.0862723 0.0532179 -0.027612057 0.074500114 -0.008641667 -0.08787625
0.006338909 -0.03595195 0.06320462 -0.05913316 -0.008952847 0.097210266 -0.014676764 0.011951483
-0.0505081 -0.0058013787 0.015097447 -0.05707462 0.050425194 0.0009083391 0.05864684 0.0755543
0.049350176 0.08084086 -0.037474304 -0.080569044 0.034095615 0.03273058 -0.041003868 -0.0064807856
0.071770504 -0.0066729053 -0.042811126 0.017140014 -0.02880056 -0.065392725 -0.05548083 0.07636724
0.061194398 -0.037220694 -0.07239733 0.057328213 0.07841537 0.046225477 -0.015383279 0.04358661
0.011673879 -0.024958514 0.07340235 0.07038897 0.024197862 0.010093254 0.031600147 0.039861858
00000000: 9477 edbb 5b7d 50bd 0bed 82bd eca0 52bd
00000010: df9e 9bbd f6d9 2dbd da08 34bd e9af c0ba
00000020: 63bf 1b3b a451 243d 095c c73b e555 cebd
00000030: db6a 873c f8e5 2bbd 70b1 94bc 4137 c2bc
00000040: 1630 85bd c33a 35bd 10f8 e7bb bb66 f2bb
00000050: 2761 adbd 7724 b5bd c7cb b23d 489d 2dbd
00000060: 4499 78bd 1881 cebd 7a3f 8cbd a4c8 9fbd
00000070: e711 863d 3474 823d 99fd 843c 5242 06bc
00000080: ab87 503d 462e 1a3d 1a22 253b 89fc 9dbd
00000090: 406f c43c 8540 b8bd ce4e 0e3b 9f76 b23d
000000a0: 972f 663d de65 6b3d 25ae 20bd ae51 42bd
000000b0: 4ee9 bdbc f619 a0bd 38fe bb3d 80ab 1ebd
000000c0: 1d28 ed3c a663 48bc 05ca ad3c 7926 20bd
000000d0: d616 32bd 22d4 f13c a02b 2e3d e5c3 72bd
000000e0: f715 e6bc 6499 69bd 023b 183d 43dc b0bd
000000f0: f780 cd3d 9bb9 80bc d9a7 03bd 10de 33bd
00000100: 5db7 8c3d a16e e83c d65e 603d 831c 2bbd
00000110: 0216 ae3c 72dc b3bd bc3e 9abd 0a34 96bd
00000120: 6a0c 20bd f2ad 2ab9 743e 813d c3b5 6f3d
00000130: 47f3 b03d c758 303c c523 1ebd 81d1 bebd
00000140: cf88 383d e505 e6bd fea8 40bd 9e7d 053d
00000150: cafe 953c fc83 e33c 9e7d ce3b 53be 87bd
00000160: c9b4 5f3d 5894 12bd e57e b1bd 1e04 81bc
00000170: 5daa 973d 1b87 9c3c 0590 5eba 0637 56bd
00000180: e144 933d a0ad 13bd e5da aa3d f610 04bd
00000190: 13b0 07bd 61e7 053d 9cca 3b3d 39c1 393d
000001a0: 3418 413d 06e0 3e3d b7b3 b33d bc80 0ebc
000001b0: d19a 8e3d 9799 42bd de97 85bc 2c5f 0e3c
000001c0: 3121 ab3d 5514 893d 9379 9dbd 1888 6c3d
000001d0: 86c6 f1bc 125a 743d 65c8 573d 9d22 f43c
000001e0: 2a15 df3c 850a 103d a0de 7e3d 7ee1 9cbd
000001f0: 1ba0 913d eb07 51bd bc7e fabb 954c 55bd
00000200: 0f21 a0bd 6acf 47bc e603 c5bb 3f2d fb3d
00000210: 47fb 96bc 896f 5ebd e508 40bd e571 5d3c
00000220: 5165 1f3c f99b a1bc ee00 8ebd 35a0 48bc
00000230: 20c5 b03d 99ea 8fbd 66b3 323d 35e6 9b3d
00000240: 8073 c03d 881c e93c 07a2 9abc 9b32 55bd
00000250: 1b30 8b3d a5ae 93bd e801 04bd beea 0fbb
00000260: 0bee c23d ca24 09ba 963b 173d 38b8 433c
00000270: 2536 5f3b 225d eb3a 9bbf 703d c479 253d
00000280: 3594 aabd 5c67 913d 9c16 073d 8c28 9bba
00000290: f57e a73d 1467 d33c a198 39bd 7875 41b9
000002a0: b360 ea3c 5ba9 353b aa9b 063c b67a 943c
000002b0: 1f66 d63c f72f bd3b 4844 b1bd 1e4d 96bd
000002c0: ec36 923c 8a27 883d 86f2 ccbc 788f 38bd
000002d0: 4470 7d3d 02ac 33bd 39ec c6bc 0dbf a63d
000002e0: 3cdc 283c 8444 9f3d 93be 063d 839d 933d
000002f0: 8c88 163d 0b94 a2bd 6392 5e3d a47b 57bd
00000300: 7b68 c8bc 0b7b c5bc 6e1a 6ebd 057d d13c
00000310: 73f1 25bd 36cf 6e3c dc33 533c f74f b23b
00000320: 7a4f 913c 71d1 c2bd 88af b03d 03fb 593d
00000330: ae32 e2bc 8493 983d c795 0dbc 77f8 b3bd
00000340: 9fb6 cf3b 5a42 13bd 6c71 813d 9d35 72bd
00000350: f6ae 12bc 2d16 c73d cf76 70bc 27d0 433c
00000360: 95e1 4ebd 7e19 bebb 485b 773c 14c7 69bd
00000370: a68a 4e3d 9b1d 6e3a ab37 703d 36bc 9a3d
00000380: 6923 4a3d e58f a53d a87e 19bd 6201 a5bd
00000390: d8a7 0b3d 8010 063d acf3 27bd c55c d4bb
000003a0: 6afc 923d 63a8 dabb b85a 2fbd 3769 8c3c
000003b0: 27ef ebbc 9fec 85bd de3f 63bd 6d66 9c3d
000003c0: faa6 7a3d ba74 18bd 0d45 94bd fdd0 6a3d
000003d0: 3d98 a03d ed56 3d3d 260a 7cbc e087 323d
000003e0: cc43 3f3c cc75 ccbc f953 963d 1828 903d
000003f0: 983a c63c 2d5e 253c 286f 013d 3046 233d

inference_net.gru.bias_hh_l0 f4 [384]
0.036607634 0.048408125 -0.07341016 -0.010233184 0.05233276 -0.0772308 0.027813757 0.048339896
-0.023401925 -0.08912393 -0.07746761 -0.033417147 0.04409031 0.039835706 -0.097345464 0.06841374
0.02109234 -0.05458221 0.058261123 -0.0058370396 -0.040425334 0.016441686 0.037930176 0.009871676
0.015049864 0.0010727836 -0.101358406 -0.028347619 -0.06806237 0.07369739 0.015935363 0.03689855
-0.010809417 0.025354635 0.00977161 -0.021286858 0.026521085 0.0707238 0.092357285 0.030747188
0.006584551 -0.0029980529 0.04004938 -0.054535024 -0.018456617 0.048477657 -0.049985353 -0.0011116037
0.055530973 0.015704758 -0.028507913 -0.044181403 -0.035114616 0.00026654755 -0.09846171 -0.024958024
-0.0431535 0.072183944 -0.022486646 -0.08689296 -0.03135024 -0.08391727 -0.03731973 0.062205862
0.07913273 0.0075601647 -0.07940486 -0.0494371 0.060338933 -0.06433901 0.04869822 0.04091461
0.020086177 0.012749625 -0.0691688 -0.08358998 -0.027370518 -0.07558543 0.027102787 -0.03679952
0.006508441 0.05702355 -0.09179776 -0.06538567 0.033258617 -0.08530467 -0.08440311 -0.06845369
-0.04990461 0.039977394 -0.05261548 0.054652266 -0.0072551575 0.0910545 -0.08350107 -0.04048875
-0.0481597 0.028844742 -0.05751643 0.07498947 -0.006066092 -0.0652239 -0.05267484 -0.03339092
-0.07409931 0.06818057 0.0128698945 0.035910845 0.025504636 -0.08554939 0.080016896 -0.06653758
-0.0042244247 0.014368366 0.061233267 0.031795617 -0.0033762762 0.02919326 0.06446194 0.0032634053
-0.083634056 0.04442706 -0.06529501 -0.010450915 -0.086290516 0.07786116 0.010397159 -0.059685525
-0.01201786 0.04934071 0.046856664 0.12085289 0.008104342 0.06625528 0.051294036 0.0043361397
0.049000323 0.0078815725 -0.019416267 0.12697197 -0.06452017 0.026624706 -0.04065505 0.006749032
-0.03929629 0.023466084 -0.05061877 0.09643716 -0.08416528 -0.029036097 0.071344964 -0.05828038
0.032711413 -0.06034306 0.040873006 0.0769037 0.079548195 0.045469556 0.06269941 0.0058391327
-0.0046665585 0.021381821 -0.07114612 0.05649887 0.08541487 0.07766433 0.022893 0.07668675
-0.017887078 -0.011062931 -0.046168018 0.016172327 0.043933176 -0.06671617 -0.070901655 0.06141184
0.06850896 0.08197625 0.068506524 0.0025388384 0.009632733 -0.060777348 0.06436118 -0.06597969
0.052793935 0.103425674 0.03589036 -0.058793128 -0.067757614 -0.0643523 0.023635402 0.004891486
-0.079074435 -0.025033943 0.06059928 -0.009579073 0.031178335 -0.024604648 -0.046617806 0.03909258
-0.0019157177 0.02054825 -0.0073584327 -0.05304635 -0.019711692 -0.022049358 -0.0061017997 -0.024924196
0.03081405 -0.026002506 -0.080507554 -0.048227027 -0.0043742037 -0.03792775 0.032022666 -0.08714436
0.011142276 0.057584923 -0.034312975 -0.04860874 -0.016976617 -0.06663302 -0.025399782 -0.0056187515
0.063046575 0.036663346 -0.07081149 -0.03208272 -0.015464832 0.011887523 -0.06812006 -0.011649425
-0.061329916 0.014612342 -0.042481672 0.0838998 0.098032415 0.009461426 0.038606085 -0.07124599
-0.021160893 -0.01514178 0.037081778 0.044562332 -0.039763507 0.04680727 -0.08564233 -0.043718193
-0.044188794 0.018625014 -0.05456656 0.09673998 0.043182522 0.020559344 0.024691857 -0.0652265
00000000: e3f1 153d 9947 463d 1158 96bd 16a9 27bc
00000010: e05a 563d 2f2b 9ebd add9 e33c 0e00 463d
00000020: 65b5 bfbc 9b86 b6bd 57a7 9ebd 6be0 08bd
00000030: 0a98 343d c42a 233d 0f5d c7bd 811c 8c3d
00000040: d8c9 ac3c 9891 5fbd 37a3 6e3d a344 bfbb
00000050: 0995 25bd b7b0 863c ac5c 1b3d cfbc 213c
00000060: b493 763c a59c 8c3a ff94 cfbd 4439 e8bc
00000070: 4964 8bbd a8ee 963d e18a 823c ef22 173d
00000080: fb19 31bc 86b4 cf3c 1a19 203c c761 aebc
00000090: bf42 d93c a4d7 903d d125 bd3d 87e1 fb3c
000000a0: 38c3 d73b fb7a 44bb d20a 243d 1e60 5fbd
000000b0: 5532 97bc 8290 463d 71bd 4cbd 3bb3 91ba
000000c0: 7274 633d 44a7 803c 6d89 e9bc 8ff7 34bd
000000d0: 58d4 0fbd 68bf 8b39 4ba6 c9bd c574 ccbc
000000e0: b9c1 30bd 2dd5 933d ea35 b8bc f0f4 b1bd
000000f0: 1c69 00bd d1dc abbd 93dc 18bd 93cb 7e3d
00000100: 5710 a23d 42bb f73b 049f a2bd 8e7e 4abd
00000110: f525 773d 2cc4 83bd c977 473d 1496 273d
00000120: c48b a43c cee3 503c 5fa8 8dbd 3931 abbd
00000130: 2338 e0bc 89cc 9abd aa06 de3c 18bb 16bd
00000140: c344 d53b 8791 693d 7700 bcbd ece8 85bd
00000150: 303a 083d 37b4 aebd 8adb acbd 7331 8cbd
00000160: c768 4cbd 56bf 233d 5483 57bd 0edb 5f3d
00000170: acbc edbb c87a ba3d 9c02 abbd 88d7 25bd
00000180: 1b43 45bd cf4b ec3c 5996 6bbd 1494 993d
00000190: 11c6 c6bb 1c94 85bd 93c1 57bd ebc4 08bd
000001a0: 61c1 97bd 41a2 8b3d 40dc 523c 4017 133d
000001b0: 19ef d03c 8534 afbd e6df a33d db44 88bd
000001c0: 0b6d 8abb 4c69 6b3c bccf 7a3d 1f3c 023d
000001d0: 8444 5dbb b426 ef3c 9f04 843d dbde 553b
000001e0: 5548 abbd 26f9 353d 64b9 85bd 513a 2bbc
000001f0: 15b9 b0bd ac75 9f3d d858 2a3c cf78 74bd
00000200: 8fe6 44bc 7c19 4a3d c6ec 3f3d b881 f73d
00000210: 13c8 043c d9b0 873d b219 523d 2d16 8e3b
00000220: 90b4 483d b621 013c dd0e 9fbc f104 023e
00000230: 2723 84bd 0e1c da3c e985 26bd fc26 dd3b
00000240: 26f5 20bd f23b c03c a155 4fbd d980 c53d
00000250: d95e acbd 1cdd edbc 4f1d 923d 68b7 6ebd
00000260: 67fc 053d 492a 77bd 746a 273d b07f 9d3d
00000270: 2aea a23d 493e 3a3d 8c68 803d 3256 bf3b
00000280: eee9 98bb ee28 af3c 0fb5 91bd 5c6b 673d
00000290: feed ae3d 7a0e 9f3d 1a8a bb3c f10d 9d3d
000002a0: ec87 92bc 4c41 35bc ad1a 3dbd d47b 843c
000002b0: 46f3 333d 7da2 88bd e334 91bd fb8a 7b3d
000002c0: 6d4e 8c3d 2ae3 a73d 264d 8c3d a462 263b
000002d0: 9cd2 1d3c abf1 78bd cbcf 833d 5c20 87bd
000002e0: 743e 583d d7d0 d33d c501 133d 10d1 70bd
000002f0: 81c4 8abd 23cb 83bd 089f c13c c248 a03b
00000300: c7f1 a1bd fc13 cdbc f336 783d 8bf1 1cbc
00000310: b569 ff3c b08f c9bc 50f2 3ebd 8b1f 203d
00000320: d218 fbba ce54 a83c 021f f1bb 2147 59bd
00000330: 6a7a a1bc dba0 b4bc 9bf1 c7bb d42d ccbc
00000340: bf6d fc3c 3503 d5bc 25e1 a4bd b489 45bd
00000350: 7b55 8fbb 215a 1bbd 332a 033d be78 b2bd
00000360: 188e 363c 2bde 6b3d c38b 0cbd f519 47bd
00000370: 8c12 8bbc e576 88bd 3413 d0bc 811d b8bb
00000380: 901e 813d 4e2c 163d 9d05 91bd 2c69 03bd
00000390: 3560 7dbc e3c3 423c 8882 8bbd 3bdd 3ebc
000003a0: 1435 7bbd 9b68 6f3c 4301 2ebd a9d3 ab3d
000003b0: 38c5 c83d 1904 1b3c 6a21 1e3d 6be9 91bd
000003c0: 9c59 adbc 3a15 78bc 10e3 173d fe86 363d
000003d0: 0fdf 22bd fbb8 3f3d 3f65 afbd d911 33bd
000003e0: 4fff 34bd 7c93 983c 2f81 5fbd 9c1f c63d
000003f0: 28e0 303d 126c a83c 9446 ca3c 7995 85bd

inference_net.h_bottleneck.0.weight f4 [8, 128]
-0.008562056 0.02413566 0.016746562 0.02920489 0.07418178 0.004146262 -0.011554533 0.009208551
-0.02783369 -0.0558183 -0.0017468104 -0.0308287 -0.027406232 0.009451278 -0.009953563 -0.006527758
0.030420508 0.078583464 0.05089681 0.006261911 0.060269564 -0.018734528 -0.043339815 -0.017130658
-0.03338493 0.08063061 -0.04548483 -0.0063068424 0.002781173 0.013507734 -0.013280979 -0.06895267
0.047988694 -0.017907009 0.015023275 -0.07693825 -0.03182104 -0.039170105 0.042424433 -0.023391599
-0.034035012 -0.06792214 -0.05398526 -0.0701357 0.018017123 0.06434262 -0.06496646 0.011456324
0.08689421 -0.06668764 -0.046094958 -0.035094947 0.06716275 -0.03877775 0.0237683 -0.009067584
0.06686818 -0.015750483 -0.004340953 -0.017848061 0.07230909 0.0066381027 0.07043945 0.057461567
-0.036858194 0.035003573 -0.01421229 0.06829879 -0.013948944 -0.00892748 0.061017685 -0.04370066
-0.014887267 0.020175682 0.04608707 0.05297538 -0.01195278 0.030146537 0.03695662 0.0642225
0.07499399 -0.057132103 -0.011798279 -0.030239886 -0.015769912 0.0528338 0.045480404 -0.06606823
-0.052994434 -0.02697291 -0.004749 -0.07040092 0.011315094 -0.018497696 -0.02830176 0.048973463
-0.031630326 -0.009462894 -0.03852686 0.0010679039 0.012406592 -0.01704053 0.0631472 -0.045014244
0.048333548 0.07574579 0.048253044 -0.028169032 0.06858801 -0.042105883 0.04333903 -0.026100341
-0.0579353 -0.05495484 0.053190164 0.006986611 0.042178202 -0.07453814 0.05595992 0.0053398507
-0.074417956 -0.077999644 0.07385662 -0.06695427 -0.051686034 0.025289228 0.014107759 -0.06745459
-0.038295507 0.062318143 0.024495801 -0.0023014094 0.019653713 0.051571142 0.0318872 -0.007634354
-0.015330264 0.048813257 0.08776592 -0.057962388 -0.05708475 -0.06124607 -0.008703259 0.07072968
-0.049243387 0.030248621 0.07059781 -0.071984105 0.057633813 -0.016485067 -0.012746504 0.07359137
-0.044842463 -0.05066483 0.009411684 -0.07197952 0.07330474 -0.088214025 -0.0459234 -0.008845509
0.052555006 0.04165445 -0.044122815 -0.016774429 -0.03559771 0.04070256 -0.04292834 0.058964696
-0.0896329 -0.06404375 -0.08079075 -0.047975548 -0.023823414 0.05595344 -0.042429302 0.06439168
0.03841461 -0.07500441 0.011053065 0.04259528 -0.013732386 -0.0680244 -0.009613882 -0.007234218
0.040388316 -0.07911296 -0.07393552 -0.009092005 0.062653475 0.05429138 0.008800538 -0.082161486
0.009323989 -0.022260895 -0.02074182 0.065490894 -0.024341961 -0.01050381 0.06984802 -0.0039510475
-0.0021871186 0.057956148 -0.018068722 -0.059385125 -0.011854687 0.054294094 -0.05579254 -0.046663444
0.004222886 -0.042036872 -0.057949606 -0.06613744 0.03743667 0.04507693 -0.01486071 0.054428943
-0.09150349 0.05683257 -0.02903154 -0.04511774 -0.074220926 -0.06705354 0.02059891 0.06594502
-0.00049664377 -0.033992965 -0.026739337 0.031052377 -0.022421451 0.054290645 -0.006509552 -0.050743382
0.012633808 0.0756636 -0.030372059 0.025198916 0.06515717 -0.066268206 0.0121825235 0.008431444
0.03246973 0.06812609 0.011230391 0.021148901 -0.006327713 -0.06875143 -0.057379194 -0.0023084483
-0.05935933 -0.008152201 -0.002558297 0.05717603 -0.027777715 -0.006133844 0.013511066 -0.009270691
00000000: de47 0cbc 26b8 c53c 1630 893c 183f ef3c
00000010: 9eec 973d 5edd 873b 394f 3dbc 76df 163c
00000020: 7b03 e4bc bba1 64bd 3bf5 e4ba 788c fcbc
00000030: 0983 e0bc 88d9 1a3c 4514 23bc cee6 d5bb
00000040: 6e34 f93c 5ef0 a03d 2c79 503d b730 cd3b
00000050: 38dd 763d 2779 99bc 1785 31bd 9855 8cbc
00000060: a3be 08bd a921 a53d 4d4e 3abd a1a9 cebb
00000070: 5744 363b 8b4f 5d3c 7798 59bc 0f37 8dbd
00000080: cb8f 443d b8b1 92bc 2f24 763c cd91 9dbd
00000090: c756 02bd d570 20bd 3ec5 2d3d bd9f bfbc
000000a0: 4c68 0bbd c31a 8bbd a61f 5dbd 4ea3 8fbd
000000b0: a598 933c 10c6 833d 230d 85bd 4eb3 3b3c
000000c0: 97f5 b13d 8893 88bd 11ce 3cbd b8bf 0fbd
000000d0: a08c 893d 6bd5 1ebd bdb5 c23c 3490 14bc
000000e0: 2ff2 883d 2807 81bc 8e3e 8ebb 1936 92bc
000000f0: ca16 943d 7184 d93b 8f42 903d d25c 6b3d
00000100: 9ef8 16bd e85f 0f3d aada 68bc 3ce0 8b3d
00000110: 1d8a 64bc 9144 12bc aeed 793d 77ff 32bd
00000120: b9e9 73bc 7947 a53c ccc5 3c3d b6fc 583d
00000130: 98d5 43bc dff5 f63c d35f 173d 1687 833d
00000140: 7396 993d 5a03 6abd 924d 41bc a3b9 f7bc
00000150: e72f 81bc 4168 583d a949 3a3d c84e 87bd
00000160: b110 59bd 4bf6 dcbc 809d 9bbb 5c2e 90bd
00000170: f262 393c 7b88 97bc 18d9 e7bc 6698 483d
00000180: cd8e 01bd 410a 1bbc 57ce 1dbd e9f8 8b3a
00000190: 0545 4b3c 9598 8bbc 5253 813d db60 38bd
000001a0: 66f9 453d 9c20 9b3d fca4 453d bec2 e6bc
000001b0: df77 8c3d 3877 2cbd 4484 313d 62d0 d5bc
000001c0: 914d 6dbd 5418 61bd eedd 593d f1ef e43b
000001d0: 0dc3 2c3d 74a7 98bd 3b36 653d eaf9 ae3b
000001e0: 7168 98bd 47be 9fbd 2442 973d 521f 89bd
000001f0: bcb4 53bd 5b2b cf3c 3b24 673c a225 8abd
00000200: c0db 1cbd 4f41 7f3d 6bab c83c 3ed3 16bb
00000210: d300 a13c 433c 533d 279c 023d 9a29 fabb
00000220: ca2b 7bbc 69f0 473d 9ebe b33d f869 6dbd
00000230: b3d1 69bd 29dd 7abd 1d98 0ebc b9da 903d
00000240: 6fb3 49bd f5cb f73c 9695 903d 676c 93bd
00000250: 6f11 6c3d b10b 87bc b6d6 50bc 12b7 963d
00000260: bbac 37bd ed85 4fbd 7733 1a3c 006a 93bd
00000270: cc20 963d 8ea9 b4bd 2d1a 3cbd c1ec 10bc
00000280: eb43 573d db9d 2a3d 20ba 34bd 876a 89bc
00000290: e8ce 11bd bab7 263d a1d5 2fbd f784 713d
000002a0: 7491 b7bd 5f29 83bd 9f75 a5bd 0282 44bd
000002b0: 5229 c3bc 6f2f 653d 59ca 2dbd c9df 833d
000002c0: a358 1d3d ea9b 99bd ea17 353c 6378 2e3d
000002d0: cdfd 60bc 6050 8bbd 8b83 1dbc 050d edbb
000002e0: 386e 253d fa05 a2bd 826b 97bd a2f6 14bc
000002f0: 7750 803d a360 5e3d 2230 103c 4844 a8bd
00000300: a5c3 183c 7b5c b6bc c0ea a9bc 1720 863d
00000310: cb68 c7bc 2c18 2cbc 7b0c 8f3d ca77 81bb
00000320: c355 0fbb 6d63 6d3d db04 94bc d13d 73bd
00000330: 293a 42bc 7c63 5e3d b886 64bd 2b22 3fbd
00000340: 2360 8a3b db2e 2cbd 915c 6dbd 1173 87bd
00000350: 3257 193d 96a2 383d 567a 73bc e2f0 5e3d
00000360: 2f66 bbbd 45c9 683d 8dd3 edbc 61cd 38bd
00000370: 2401 98bd 5e53 89bd 0cbf a83c 2f0e 873d
00000380: 3331 02ba 353c 0bbd 740c dbbc 8e61 fe3c
00000390: 31ad b7bc de5f 5e3d 144e d5bb 4bd8 4fbd
000003a0: 08fe 4e3c 84f5 9a3d d3ce f8bc f56d ce3c
000003b0: 1f71 853d a0b7 87bd 3599 473c 0a24 0a3c
000003c0: fbfe 043d b185 8b3d adff 373c 7640 ad3c
000003d0: b458 cfbb 8dcd 8cbd 7206 6bbd 5649 17bb
000003e0: c522 73bd cf90 05bc 1aa9 27bb 6a31 6a3d
000003f0: 178e e3bc 6afe c8bb 855d 5d3c 19e4 17bc

inference_net.h_bottleneck.0.bias f4 [8]
0.0013331544 0.02044664 0.052284222 -0.07888079 -0.048104957 0.04234354 -0.021110887 0.0125242295
00000000: 3dbd ae3a b67f a73c fb27 563d 408c a1bd
00000010: b409 45bd 6b70 2d3d bdf0 acbc 6d32 4d3c

inference_net.e_out.weight f4 [51, 16]
0.6601801 0.27994624 0.27032933 0.38452324 -2.2998087 -0.23166764 0.35172078 -1.3554766
0.22494121 -0.2987985 -0.4628588 -0.38766083 -0.87205726 -1.6676853 -0.5890013 -1.6247075
1.601611 0.62612695 -0.43552548 0.318541 0.9637819 -0.22641167 1.5415887 0.46469256
1.1462967 1.8226538 -0.25962356 -0.13907902 -1.0859224 1.7063196 0.52470195 1.0193574
-0.3351141 0.34527135 -0.53337824 0.0955388 0.1007796 0.6405893 1.2488056 0.7179398
-0.5638608 -0.49543512 -0.89694077 0.4122664 -0.6400888 -1.5419921 0.22869092 0.17766239
-1.1515725 0.7807476 -0.5388044 -2.990313 1.7165409 -0.8254652 0.6099536 -0.2587804
0.10437171 0.44418547 1.866225 -1.1366518 -0.43628138 0.15701498 0.8521204 0.56895596
-0.50122327 0.1918184 0.13999744 0.50578785 -2.4436233 -0.8332828 -1.7403007 -0.594254
-0.24823204 0.19170013 -1.0703565 0.76370865 -2.3230267 1.1929883 0.8191536 -0.86204314
-0.51861686 0.6576814 -1.162213 1.0528524 1.5996695 -0.6878069 -0.0040489095 -1.4022111
0.68162084 -2.1107297 -0.5005425 -0.9898483 -0.6024984 -1.3783993 -1.1612388 0.08326269
0.93586016 2.0713491 -0.5649368 2.4738653 0.9481121 -0.76655155 0.4688995 2.1710482
-0.7759145 -1.4032578 -0.6753145 -0.85963625 2.0462344 0.8113755 -2.5633712 -0.4457613
-0.010532094 -1.7396125 1.5718876 0.83835256 0.014232399 -0.15492187 -0.29843995 0.17290582
1.0520486 -2.1352856 -0.750609 -0.7937064 -0.288439 -0.036345053 1.2015567 -0.9009005
-0.29682863 1.5330373 -0.36450705 1.0740343 -1.2581891 2.1474006 0.4993285 -0.011897587
0.9902894 -0.33662295 1.97752 1.5343026 -0.8479615 -0.12515809 1.4162766 -0.7594876
-0.35327142 -1.4658778 -0.7312058 0.75044537 0.3511578 0.69157094 0.814903 0.7542029
0.1334656 0.6140048 0.21998999 0.99694145 0.48588315 0.15589213 -1.5789343 1.0162119
-0.119157046 0.8429073 -0.8891058 -0.34188184 0.4440645 0.009192145 -0.662246 -0.57198054
0.6114218 -2.3379753 -0.6150183 -0.7005008 -0.8751693 -0.41401395 0.46283513 0.7502565
0.41224176 -0.5592878 -0.15491734 0.7228094 -0.23257963 1.759284 0.8561882 1.2890189
-0.61799043 0.7178187 -0.6280159 -0.12207825 -0.87615573 -0.6514126 -0.2732577 0.6217576
-2.7607229 0.19781266 0.45825094 -1.2037985 -1.8255044 -0.23926282 0.9913202 -0.57821846
-1.6222961 0.86068946 -0.09156778 -0.34521562 0.29036808 1.7317822 1.2864308 3.5715787
0.5782143 1.7793415 0.023444131 -0.39428103 -0.147329 0.036011767 -0.4645807 -0.07743527
-0.08993027 -2.5322454 0.53315794 -0.5139386 1.3829092 0.28284803 -0.33811057 -0.34107518
-0.41375217 -0.24257524 0.83570784 -0.05908979 -1.0220662 1.8007972 0.58216834 -1.438037
0.54067296 -3.302777 -0.9461697 -3.1057017 -1.1793717 0.32183942 0.53896093 -1.1765845
0.72792006 1.2987173 -0.39375693 0.8944266 -1.1290085 0.35124877 0.56415546 0.28247046
-0.04977243 1.1838984 -0.23361401 0.6228839 0.17107959 -1.642694 1.0454668 0.1294407
00000000: 9001 293f 1d55 8f3e 9b68 8a3e 3be0 c43e
00000010: 1130 13c0 483a 6dbe bf14 b43e 4280 adbf
00000020: fd56 663e 1efc 98be d4fb ecbe 7b7b c6be
00000030: 253f 5fbf b676 d5bf cac8 16bf 6af6 cfbf
00000040: 9701 cd3f db49 203f 32fd debe ce17 a33e
00000050: 69ba 763f 76d8 67be c752 c53f 2fec ed3e
00000060: dab9 923f b84c e93f 61ed 84be bb6a 0ebe
00000070: 81ff 8abf ae68 da3f de52 063f 4e7a 823f
00000080: 1394 abbe 68c7 b03e 7a8b 08bf d9a9 c33d
00000090: 8965 ce3d a9fd 233f ddd8 9f3f e7ca 373f
000000a0: 2e59 10bf aca9 fdbe e99d 65bf 9514 d33e
000000b0: dcdc 23bf ff5f c5bf f42d 6a3e 21ed 353e
000000c0: ba66 93bf 13df 473f 16ef 09bf 4a61 3fc0
000000d0: 9db7 db3f b051 53bf eb25 1c3f dd7e 84be
000000e0: d6c0 d53d 476c e33e 76e0 ee3f ce7d 91bf
000000f0: 4660 dfbe 89c8 203e 9024 5a3f 19a7 113f
00000100: 2b50 00bf 0b6c 443e 7d5b 0f3e 507b 013f
00000110: 5364 1cc0 0652 55bf 2cc2 debf 0821 18bf
00000120: 8a30 7ebe 0a4d 443e 7101 89bf 6982 433f
00000130: 78ac 14c0 d7b3 983f 0db4 513f dcae 5cbf
00000140: 13c4 04bf cf5d 283f 65c3 94bf dec3 863f
00000150: f8c1 cc3f 1d14 30bf b7ac 84bb a77b b3bf
00000160: b47e 2e3f 3216 07c0 8e23 00bf b366 7dbf
00000170: 563d 1abf 636f b0bf 79a3 94bf a185 aa3d
00000180: 8894 6f3f fc90 0440 b39f 10bf cf53 1e40
00000190: 79b7 723f b93c 44bf 9813 f03e 74f2 0a40
000001a0: 55a2 46bf f49d b3bf 69e1 2cbf 1f11 5cbf
000001b0: 81f5 0240 4eb6 4f3f 460e 24c0 d33a e4be
000001c0: ce8e 2cbc 9fab debf 9d33 c93f 469e 563f
000001d0: 022f 693c d7a3 1ebe 1fcd 98be 390e 313e
000001e0: 87a9 863f 85a8 08c0 e927 40bf 5830 4bbf
000001f0: 47ae 93be 8dde 14bd 9ccc 993f 6aa1 66bf
00000200: ecf9 97be 913a c43f aba0 babe f579 893f
00000210: 570c a1bf 036f 0940 fca7 ff3e 19ee 42bc
00000220: 9b83 7d3f d859 acbe 601f fd3f 0764 c43f
00000230: 0114 59bf 7129 00be 8d48 b53f c86d 42bf
00000240: fedf b4be e2a1 bbbf 4e30 3bbf 301d 403f
00000250: f5ca b33e cb0a 313f 7c9d 503f 7113 413f
00000260: 35ab 083e 6b2f 1d3f 0e45 613e 8e37 7f3f
00000270: adc5 f83e 30a2 1f3e 851a cabf 3b13 823f
00000280: 9c08 f4bd c6c8 573f 709c 63bf 230b afbe
00000290: 6c5c e33e a79a 163c f488 29bf 516d 12bf
000002a0: 2486 1c3f 63a1 15c0 d771 1dbf 0554 33bf
000002b0: 180b 60bf a3f9 d3be baf8 ec3e cf10 403f
000002c0: 5a11 d33e 7c2d 0fbf a7a2 1ebe 090a 393f
000002d0: 5b29 6ebe 3830 e13f 262f 5b3f 92fe a43f
000002e0: 9f34 1ebf f7c2 373f a6c5 20bf 2904 fabd
000002f0: be4b 60bf fac2 26bf 6fe8 8bbe 822b 1f3f
00000300: afaf 30c0 678f 4a3e de9f ea3e 1216 9abf
00000310: 21aa e9bf 5001 75be 29c7 7d3f 2006 14bf
00000320: 66a7 cfbf 2556 5c3f e387 bbbd 1ac0 b0be
00000330: 20ab 943e 0aab dd3f c4a9 a43f bf94 6440
00000340: da05 143f 76c1 e33f e80d c03c 34df c9be
00000350: 6add 16be 1381 133d 86dd edbe 6296 9ebd
00000360: 5d2d b8bd 4f10 22c0 0a7d 083f 7b91 03bf
00000370: 2b03 b13f 75d1 903e d41c adbe 68a1 aebe
00000380: 53d7 d3be a565 78be f3f0 553f 2308 72bd
00000390: 11d3 82bf 8680 e63f fc08 153f 9911 b8bf
000003a0: 8b69 0a3f b360 53c0 2d38 72bf d1c3 46c0
000003b0: a7f5 96bf 23c8 a43e 58f9 093f 529a 96bf
000003c0: f858 3a3f 5e3c a63f 829a c9be 24f9 643f
000003d0: 5a83 90bf e1d6 b33e 7e6c 103f f89f 903e
000003e0: 2dde 4bbd fc89 973f 8338 6fbe 5275 1f3f
000003f0: 7d2f 2f3e cc43 d2bf dbd1 853f 1a8c 043e
