gpcdx_rca/outputs/msds/model_best.pt (torch, 308962 bytes, 26 tensors)

A_ref_mean f4 [10, 10]
000000 00 00 00 00 00 00 00 00 00 00 00 00 00 00 00 00
       0.0 0.0 0.0 0.0
000010 00 00 00 00 00 00 00 00 00 00 00 00 00 00 00 00
       0.0 0.0 0.0 0.0
000020 00 00 00 00 00 00 00 00 00 00 00 00 00 00 00 00
       0.0 0.0 0.0 0.0
000030 00 00 00 00 00 00 00 00 00 00 00 00 00 00 00 00
       0.0 0.0 0.0 0.0
000040 00 00 00 00 00 00 00 00 00 00 00 00 00 00 00 00
       0.0 0.0 0.0 0.0
000050 00 00 00 00 00 00 00 00 00 00 00 00 00 00 00 00
       0.0 0.0 0.0 0.0
000060 00 00 00 00 00 00 00 00 00 00 00 00 00 00 00 00
       0.0 0.0 0.0 0.0
000070 00 00 00 00 00 00 00 00 00 00 00 00 00 00 00 00
       0.0 0.0 0.0 0.0
000080 00 00 00 00 00 00 00 00 00 00 00 00 00 00 00 00
       0.0 0.0 0.0 0.0
000090 00 00 00 00 00 00 00 00 00 00 00 00 00 00 00 00
       0.0 0.0 0.0 0.0
0000a0 00 00 00 00 00 00 00 00 00 00 00 00 00 00 00 00
       0.0 0.0 0.0 0.0
0000b0 00 00 00 00 00 00 00 00 00 00 00 00 00 00 00 00
       0.0 0.0 0.0 0.0
0000c0 00 00 00 00 00 00 00 00 00 00 00 00 00 00 00 00
       0.0 0.0 0.0 0.0
0000d0 00 00 00 00 00 00 00 00 00 00 00 00 00 00 00 00
       0.0 0.0 0.0 0.0
0000e0 00 00 00 00 00 00 00 00 00 00 00 00 00 00 00 00
       0.0 0.0 0.0 0.0
0000f0 00 00 00 00 00 00 00 00 00 00 00 00 00 00 00 00
       0.0 0.0 0.0 0.0
000100 00 00 00 00 00 00 00 00 00 00 00 00 00 00 00 00
       0.0 0.0 0.0 0.0
000110 00 00 00 00 00 00 00 00 00 00 00 00 00 00 00 00
       0.0 0.0 0.0 0.0
000120 00 00 00 00 00 00 00 00 00 00 00 00 00 00 00 00
       0.0 0.0 0.0 0.0
000130 00 00 00 00 00 00 00 00 00 00 00 00 00 00 00 00
       0.0 0.0 0.0 0.0
000140 00 00 00 00 00 00 00 00 00 00 00 00 00 00 00 00
       0.0 0.0 0.0 0.0
000150 00 00 00 00 00 00 00 00 00 00 00 00 00 00 00 00
       0.0 0.0 0.0 0.0
000160 00 00 00 00 00 00 00 00 00 00 00 00 00 00 00 00
       0.0 0.0 0.0 0.0
000170 00 00 00 00 00 00 00 00 00 00 00 00 00 00 00 00
       0.0 0.0 0.0 0.0
000180 00 00 00 00 00 00 00 00 00 00 00 00 00 00 00 00
       0.0 0.0 0.0 0.0

A_ref_var f4 [10, 10]
000000 00 00 80 3f 00 00 80 3f 00 00 80 3f 00 00 80 3f
       1.0 1.0 1.0 1.0
000010 00 00 80 3f 00 00 80 3f 00 00 80 3f 00 00 80 3f
       1.0 1.0 1.0 1.0
000020 00 00 80 3f 00 00 80 3f 00 00 80 3f 00 00 80 3f
       1.0 1.0 1.0 1.0
000030 00 00 80 3f 00 00 80 3f 00 00 80 3f 00 00 80 3f
       1.0 1.0 1.0 1.0
000040 00 00 80 3f 00 00 80 3f 00 00 80 3f 00 00 80 3f
       1.0 1.0 1.0 1.0
000050 00 00 80 3f 00 00 80 3f 00 00 80 3f 00 00 80 3f
       1.0 1.0 1.0 1.0
000060 00 00 80 3f 00 00 80 3f 00 00 80 3f 00 00 80 3f
       1.0 1.0 1.0 1.0
000070 00 00 80 3f 00 00 80 3f 00 00 80 3f 00 00 80 3f
       1.0 1.0 1.0 1.0
000080 00 00 80 3f 00 00 80 3f 00 00 80 3f 00 00 80 3f
       1.0 1.0 1.0 1.0
000090 00 00 80 3f 00 00 80 3f 00 00 80 3f 00 00 80 3f
       1.0 1.0 1.0 1.0
0000a0 00 00 80 3f 00 00 80 3f 00 00 80 3f 00 00 80 3f
       1.0 1.0 1.0 1.0
0000b0 00 00 80 3f 00 00 80 3f 00 00 80 3f 00 00 80 3f
       1.0 1.0 1.0 1.0
0000c0 00 00 80 3f 00 00 80 3f 00 00 80 3f 00 00 80 3f
       1.0 1.0 1.0 1.0
0000d0 00 00 80 3f 00 00 80 3f 00 00 80 3f 00 00 80 3f
       1.0 1.0 1.0 1.0
0000e0 00 00 80 3f 00 00 80 3f 00 00 80 3f 00 00 80 3f
       1.0 1.0 1.0 1.0
0000f0 00 00 80 3f 00 00 80 3f 00 00 80 3f 00 00 80 3f
       1.0 1.0 1.0 1.0
000100 00 00 80 3f 00 00 80 3f 00 00 80 3f 00 00 80 3f
       1.0 1.0 1.0 1.0
000110 00 00 80 3f 00 00 80 3f 00 00 80 3f 00 00 80 3f
       1.0 1.0 1.0 1.0
000120 00 00 80 3f 00 00 80 3f 00 00 80 3f 00 00 80 3f
       1.0 1.0 1.0 1.0
000130 00 00 80 3f 00 00 80 3f 00 00 80 3f 00 00 80 3f
       1.0 1.0 1.0 1.0
000140 00 00 80 3f 00 00 80 3f 00 00 80 3f 00 00 80 3f
       1.0 1.0 1.0 1.0
000150 00 00 80 3f 00 00 80 3f 00 00 80 3f 00 00 80 3f
       1.0 1.0 1.0 1.0
000160 00 00 80 3f 00 00 80 3f 00 00 80 3f 00 00 80 3f
       1.0 1.0 1.0 1.0
000170 00 00 80 3f 00 00 80 3f 00 00 80 3f 00 00 80 3f
       1.0 1.0 1.0 1.0
000180 00 00 80 3f 00 00 80 3f 00 00 80 3f 00 00 80 3f
       1.0 1.0 1.0 1.0

basis.mlp.0.weight f4 [32, 1]
000000 77 90 61 3f a3 29 73 3f 3a 0d c8 be aa a0 84 3f
       0.8811106 0.9498541 -0.3907259 1.0361531
000010 24 93 a5 be 29 73 9b 3e 18 85 1f bf ba 5b 37 3f
       -0.32338822 0.30361298 -0.6231246 0.7162434
000020 73 1f 80 3f c9 5b 60 bf 10 d4 7c 3f 65 d6 8f 3e
       1.0009598 -0.87640053 0.9876108 0.28093258
000030 eb 1f 5b 3f 40 9f a2 3e f8 37 19 3f 3d 14 f3 bd
       0.8559558 0.31762123 0.59851027 -0.118690945
000040 6e 79 63 3f 7d e5 b6 3e bb 4c 1c bf a5 2e cf 3e
       0.8885716 0.3572196 -0.6105458 0.40465274
000050 d6 86 1e bf b2 82 f6 bd c2 01 03 bf ba 06 48 3f
       -0.61924493 -0.12036647 -0.5117456 0.78135264
000060 80 5c 6c bf 36 dd 19 bf 9c 3d 1e be 36 2a 41 bf
       -0.92328644 -0.60103166 -0.1545319 -0.75455034
000070 2c 0c 5b 3e e1 f6 90 bf bd dc 82 3f 02 f6 7d bf
       0.21391362 -1.1325341 1.0223614 -0.99203503

basis.mlp.0.bias f4 [32]
000000 71 19 35 3f d6 a1 c1 3d 20 7d 03 be af f9 0c 3f
       0.70741946 0.09454696 -0.128407 0.55068487
000010 79 9f b3 3e 6d 83 42 3f 2f 4f 8f 3e 8b f3 b7 be
       0.35082605 0.7598179 0.279901 -0.35927996
000020 42 28 48 3e 81 09 ef bd 20 b5 b3 3e 0f 02 5b 3f
       0.19546607 -0.116717346 0.35099125 0.85550016
000030 88 10 03 3f c1 a3 c1 be 34 49 03 3f 89 8a c8 3e
       0.511971 -0.37820247 0.51283574 0.39168194
000040 73 50 e1 3e 91 91 02 bf a1 82 4a bf 4f bb c1 be
       0.4400669 -0.51003367 -0.79105574 -0.37838218
000050 4e e6 0c bf 81 89 80 3f 48 26 f6 3e 33 e4 b0 3e
       -0.5503892 1.0041963 0.4807608 0.34549102
000060 85 c0 fa 3e 8f 7c 14 3e f9 b5 82 3f bf 05 03 bf
       0.48975006 0.1450064 1.0211784 -0.5118064
000070 47 18 c8 bb 5c dc 03 bf 4b 0a 71 3e 24 d2 42 be
       -0.0061064097 -0.51508117 0.23539083 -0.19025475

basis.mlp.2.weight f4 [1, 32]
000000 a7 13 7c bd db 75 ad bd 97 a0 04 3e 54 f0 8f bd
       -0.06154218 -0.08469745 0.12951885 -0.07028261
000010 9b 85 0a 3e d3 16 1b bc 1b 40 ff 3d fa ec dc bd
       0.13527529 -0.009465891 0.12463399 -0.10787387
000020 79 87 a6 bd 70 7e f0 3d e2 78 9b bd 4e 9d a4 b9
       -0.08131308 0.11742866 -0.07591416 -0.0003139772
000030 47 e2 8a bd 09 fc 44 be e9 f7 6f bd de 87 0e 3e
       -0.0678144 -0.19236769 -0.058586035 0.13919017
000040 66 bb 91 bd 23 d5 6c be e1 4c 3a 3d 80 a2 0c be
       -0.071158215 -0.2312818 0.045483474 -0.13733864
000050 3d e3 ae 3d 9f 4e db 3d cb 20 03 3e 37 b7 94 bd
       0.08539436 0.10708355 0.12805478 -0.07261508
000060 14 c2 f8 3d b0 9e fe 3d 7c 13 0d 3e 46 d1 d0 3d
       0.121463925 0.12432611 0.13776964 0.10196166
000070 57 dd b1 bd b0 9a e0 3d 18 17 a4 bd ae 51 ed 3d
       -0.08684795 0.10967004 -0.08012217 0.11587845

inference_net.gru.weight_ih_l0 f4 [384, 50]
000000 8c 61 d4 3b cb 8d 0a bc 86 be 1e bd 11 99 2c 3b
       0.006481355 -0.008456658 -0.038755916 0.0026336352
000010 5d ce ff 3c 68 96 42 3c e9 e0 a1 bd e7 69 2c 3d
       0.031226331 0.01187668 -0.07904226 0.042093184
000020 3e 77 ba bd b6 9a 90 bd 7c fd 81 bd 36 20 5e bd
       -0.09104775 -0.07060759 -0.063471764 -0.054229937
000030 fd 60 ea bc 31 0c b4 3d 65 25 70 3c 37 be 37 3d
       -0.0286107 0.08791388 0.014657353 0.044859137
000040 f6 47 10 bd bf 8f 92 bc b0 1e 56 3d 35 37 bc 3c
       -0.035224877 -0.01789081 0.05227536 0.022975544
000050 38 62 f5 bd 71 5e d7 bd 76 a0 06 be 19 b3 89 bc
       -0.11981624 -0.1051606 -0.13147148 -0.016809033
000060 c0 93 3a bd 44 68 07 bc a3 6a 30 bd 0a 04 f8 bc
       -0.04555106 -0.008264605 -0.043070447 -0.030275363
000070 20 aa ad bd 24 dc a1 bc db 61 47 3c cb 5d a4 3d
       -0.084797144 -0.019758292 0.012169327 0.08025702
000080 2c 8b c4 3c 90 80 d8 3d e0 5f 26 3e 84 ec 23 bd
       0.023992144 0.10571396 0.16247511 -0.04002048
000090 87 6d 04 3e 48 0a 8f 3d 4d c2 10 3d 0f 04 35 3a
       0.12932406 0.06984383 0.03534155 0.0006905207
0000a0 f7 79 fb bc 66 8c c0 3d 1e 17 e6 3c 72 34 c6 3d
       -0.030697806 0.09401779 0.028087195 0.09677972
0000b0 53 19 d0 bb 64 6c 80 3d f1 10 e8 bd e9 87 21 3c
       -0.006350675 0.06270674 -0.11331356 0.009859064
0000c0 a4 ee 99 3c 13 a7 c3 ba 40 99 ba 3d 09 07 d1 3d
       0.01879055 -0.0014927111 0.09111261 0.1020642
0000d0 65 a8 49 bd c6 35 12 3d 2f 2e dc bc c5 75 13 3c
       -0.04923286 0.035695814 -0.02687749 0.009000246
0000e0 d0 b3 c8 bd 65 8a 84 3d 67 c8 bd bd d4 c6 ff 3c
       -0.097999215 0.06471709 -0.09266739 0.031222738
0000f0 78 0c 80 3d f0 71 47 3d d7 1c d2 bc 7e 10 b4 3d
       0.06252378 0.048692644 -0.025648518 0.08792208
000100 b0 1e 0d 3d fa db 01 3d 57 df a3 bd 06 ae 9a 3d
       0.034453094 0.031703927 -0.08001583 0.075527236
000110 ec 20 5f 3d 12 a9 23 3d a5 4f 25 3d 8a 0a 53 3d
       0.054474756 0.03995616 0.040359158 0.051523723
000120 bb d0 8e bc 60 7f e4 bd 36 7d 5f bd 88 87 bc 3d
       -0.017433515 -0.11157107 -0.05456277 0.09205538
000130 d1 e4 85 3b 5c 89 ba bc 7d 3c a0 bc 40 cb 57 bd
       0.004086115 -0.022770576 -0.019560093 -0.05268407
000140 ff 2f 9a 3d 3d 26 f5 3d 5a 61 11 3c fa 4b db 3d
       0.07528686 0.11970184 0.008873308 0.10707851
000150 97 26 1a 3e d0 99 82 3d 77 ba d3 bb ee 46 91 3d
       0.15053783 0.06376994 -0.0064614373 0.07093607
000160 fe 42 97 3d 3f ff b6 3d 23 16 48 3d 77 9b a4 3c
       0.073858246 0.08935403 0.048849236 0.020093663
000170 00 ec 25 3d 91 c1 b2 3c ca 1f a9 3c a6 f4 85 3d
       0.04050827 0.021820815 0.020645041 0.065408036
000180 6d e3 aa 3d a9 05 32 3d d8 54 c6 bc 1e fa 12 3d
       0.08344159 0.04346243 -0.024210379 0.03588306
000190 85 08 f1 3c d8 1a bd 3c 85 e9 33 3d 1d 3b c8 bd
       0.029423008 0.02308409 0.043923873 -0.097769
0001a0 55 db 0c bd 1f 91 06 3d ed af 82 3b b6 93 6c bd
       -0.03438886 0.032853242 0.003988257 -0.057758056
0001b0 fc df dd bd ec f5 e6 bd 86 52 6b bd 93 f3 da bc
       -0.10833737 -0.112773746 -0.057451747 -0.026727473
0001c0 3d 94 1d 3d ba 03 89 3d 4f 55 85 3d 02 46 1e be
       0.03847145 0.06690164 0.06510412 -0.15456393
0001d0 a1 af 04 be d8 e7 e8 bd 44 44 7c 3c c1 ef cc 3b
       -0.12957622 -0.11372346 0.015397135 0.006254167
0001e0 00 c8 c0 3b e0 d8 ca ba d5 ad 1d bc 1a 4a 06 bd
       0.005883217 -0.0015476011 -0.009623964 -0.032785513
0001f0 bf 3c ad 3d 13 79 a8 bc 8c c8 5e bb 3d cd 9c bd
       0.08458852 -0.020565545 -0.0033994047 -0.076563336
000200 70 e5 9c 3d 2e 69 a2 3d 92 ce fc bc 3a 91 64 bd
       0.07660949 0.07930218 -0.03086022 -0.05580256
000210 9c eb e9 bd 06 b8 68 bc 52 1d 09 be 92 68 19 bc
       -0.11421892 -0.014204031 -0.13390091 -0.00936331
000220 1d 2e c9 3e 91 bf aa 3e f3 61 18 3d 48 18 83 3d
       0.39292994 0.3334928 0.037202787 0.06401116
000230 36 06 0e bd 54 78 36 bd 27 89 b0 bd ce d3 c6 3c
       -0.034673892 -0.044548348 -0.0861991 0.024270918
000240 98 37 bb bc 5f d6 08 bd e0 8d f7 bc c8 e9 8d 3d
       -0.022853658 -0.033407565 -0.030219018 0.06929356
000250 2a e8 9d bd be 56 2e bc 0b 5d 01 3d 7f 2d 84 3b
       -0.077102974 -0.010640798 0.031582873 0.004033744
000260 94 9d 84 3c 1d 8d 96 3b 23 2a 8f bc 33 83 ae 39
       0.01618842 0.0045944587 -0.017476147 0.00033285617
000270 ae 98 9a b8 d2 05 8f 3c bf b5 10 bd 9c e6 78 3d
       -7.371731e-05 0.01745883 -0.035329577 0.0607668
000280 89 29 87 bc 70 81 8e 3d 22 13 56 3d 37 88 d5 3d
       -0.016499298 0.06958282 0.05226434 0.104263715
000290 5b d4 21 bd 9c 4e 40 3d de 60 89 bd 8b ea 7b bd
       -0.03950916 0.046949968 -0.06707929 -0.061502974
0002a0 d1 3c 1a 3d ca ba ce bd c5 58 90 3c a2 0d 44 bd
       0.037655655 -0.10094221 0.017620454 -0.047864564
0002b0 a0 c3 b9 bc 0b 07 2e bd 21 9f e4 bd df b7 a5 3d
       -0.02267629 -0.042487185 -0.11163164 0.08091711
0002c0 c1 4e df 3d a1 b3 cc 3d da 56 dd 3b 11 23 45 bd
       0.10903693 0.09995199 0.0067547383 -0.048129145
0002d0 f2 dc d4 be af 00 62 bc cb f9 16 be b0 48 a8 bd
       -0.41574818 -0.013794108 -0.14743726 -0.08216989
0002e0 36 74 cb be 22 02 d7 3d 94 56 95 be 82 1c 35 be
       -0.397371 0.10498454 -0.29167616 -0.17686656
0002f0 2c 02 83 bd d7 79 9f be ed 78 d7 3d 95 30 a5 3d
       -0.063968986 -0.31147644 0.10521112 0.08065907
000300 eb b6 dd 3c c5 04 c6 3a 5b 81 79 bd c8 83 9e bd
       0.027064761 0.0015107623 -0.06091438 -0.07739979
000310 a8 dc f8 bd 6f 06 9e 3c fe 5a df 3c 10 c1 5a 3d
       -0.12151462 0.019290177 0.027265068 0.053406775
000320 d3 1f 89 bc 50 54 e8 bc dd 5e 4d bc 9f fa eb 3c
       -0.016738808 -0.028360516 -0.012534824 0.028806029
000330 e6 ab 88 bc 7d 81 12 bd 96 c4 98 bd 4e 43 fe bd
       -0.01668353 -0.03576802 -0.07459371 -0.12415181
000340 5d 94 5e 3d 6b 8e 4d bd 85 ff 04 3d 91 26 1b bd
       0.05434071 -0.05018465 0.032470245 -0.037878577
000350 7a a4 2e bb 24 be a8 3d 72 d4 87 3d e0 eb b0 be
       -0.0026648329 0.082393914 0.066323176 -0.34554958
000360 7e 44 eb bd ac 81 8a 3c c9 4d d3 be 2b d7 19 bd
       -0.11487673 0.016907535 -0.41270283 -0.037558716
000370 69 fc df 3d dd 40 e5 bc d7 3a da 3a bd 3b 5c bd
       0.10936815 -0.02798503 0.0016649616 -0.05376791
000380 f8 7a 04 bd de 6c 4b 3d e1 90 3b 3d 98 18 6b bd
       -0.032343835 0.04966437 0.045792464 -0.0573965
000390 79 35 9a bd d3 00 41 bd e6 b9 3e be 25 22 5a bc
       -0.0752973 -0.047119927 -0.18625602 -0.013313805
0003a0 ee 06 f7 bc 5e a3 19 3d 21 30 b1 3a 81 04 16 3b
       -0.030154672 0.037509315 0.0013518372 0.0022890868
0003b0 60 a5 0d bc 5b 34 24 bd db c2 be bc 67 ad 47 bc
       -0.0086453855 -0.040088993 -0.023286274 -0.012187338
0003c0 74 c9 ef 3c 6a 37 3b bd 84 fb c2 bc b6 75 61 bd
       0.029270865 -0.045707144 -0.023801573 -0.0550439
0003d0 fc cb 61 bd 0d 21 5d bd 6b 6f e7 bd 76 ff 17 bd
       -0.055126175 -0.053986598 -0.11300548 -0.03710886
0003e0 d6 7d a3 bd 21 84 1c 3d bf 8a bc 3c 4f 5d 94 bd
       -0.07982986 0.038211945 0.023015378 -0.0724436
0003f0 85 ca 45 3c 85 34 83 bb 0f 1b 36 3d 18 84 a3 3d
       0.01207221 -0.0040040636 0.0444594 0.07984179

inference_net.gru.weight_hh_l0 f4 [384, 128]
000000 4b e6 08 3d 28 8d 95 bd ba 14 a3 bc 76 77 cd bb
       0.03342275 -0.07302314 -0.019907344 -0.0062703444
000010 b3 2f bb 3d 60 6d 2a 3d 6e c6 14 bd c1 48 81 3d
       0.09139957 0.041608214 -0.03632205 0.06312705
000020 ad 20 55 3d ef 2a b6 3c 93 29 16 3e 32 89 0c 3e
       0.052033115 0.02223727 0.14664297 0.13724211
000030 57 3f 03 3e db 80 b8 bd 83 6d ad 3b 6d 9c b8 3c
       0.12817131 -0.09008952 0.005292596 0.022535527
000040 7d 01 ff 3d 75 bf 56 bd e7 c4 e8 3c df 9d f7 3c
       0.12451456 -0.05242868 0.028414203 0.030226646
000050 9c 91 b1 bc 0f a3 af bc 6e 57 d4 bd 98 c9 31 bd
       -0.021675877 -0.021440057 -0.103682384 -0.043405145
000060 ab 37 47 3d eb 4e a6 bd 50 26 d8 3d 2e bc 6f bd
       0.048637073 -0.08120521 0.105541825 -0.05852907
000070 bc 9c 40 3d 93 38 c0 bd d0 8b c7 bb c6 99 4f 3c
       0.047024474 -0.09385791 -0.006089665 0.01267094
000080 29 93 bb bd ee 30 10 bc 2b 87 7a 3b 77 ba da bd
       -0.09158928 -0.008800728 0.003822754 -0.106800966
000090 f3 99 14 bd e4 8b 8d bd ed ed ab bd f0 5a 41 3d
       -0.03627963 -0.06911448 -0.0839499 0.047205865
0000a0 4e b0 0c bd 6f 0a 9d 3c 00 88 3d 3d 22 64 3f 3d
       -0.034347825 0.019170014 0.046272278 0.046726353
0000b0 fa 48 9d 3d 71 d1 a0 bc f1 2e 11 bd 60 6a 6f bb
       0.07679935 -0.01963112 -0.035445157 -0.003653191
0000c0 dd 2b 3f 3c 33 88 3c 3d 0a 5e 21 bd 65 7e 07 3e
       0.011668173 0.046028327 -0.039396323 0.1323181
0000d0 ba bf b8 3d 2f 65 50 3d fa 2b ed bc 64 58 71 3d
       0.09020944 0.050877746 -0.028951634 0.058922186
0000e0 7f a4 5e bd 5e b2 8a 3d 1e 52 81 3c 58 2b 59 bc
       -0.054356094 0.06772302 0.015786227 -0.013254963
0000f0 13 ad f6 3d 7f e3 d7 bd 49 51 d5 3c 7c 36 82 bc
       0.1204473 -0.10541438 0.026039736 -0.01589512
000100 36 92 c7 3d 83 bf 8c 3d 38 0e 81 bd 6c c6 3f bd
       0.097446844 0.068724655 -0.0630154 -0.04682009
000110 c6 6e 08 bd 51 a1 94 3d 7a 1b 4a bc 69 a1 0f 3d
       -0.033308767 0.07257331 -0.0123356525 0.035066042
000120 d8 9f a4 bd f3 ac ca bd 96 06 b1 bd 5d db 05 bd
       -0.080383 -0.09896269 -0.08643834 -0.032679904
000130 f2 fb a6 3d b6 90 41 3c ff 73 c2 3d c3 83 d3 bd
       0.081535235 0.011814287 0.09494781 -0.10327866
000140 1b 2e 23 bd 22 10 f3 3d 83 20 c1 bc f4 00 56 3d
       -0.03983889 0.118683115 -0.023575073 0.052247003
000150 5e cc 31 bd fb ed 2a bd 06 ad a1 3c 2f cd 9d 3d
       -0.04340779 -0.041730862 0.019735824 0.07705151
000160 10 6a 91 bc 47 d3 b5 bb dc 73 55 bd c7 23 d7 bd
       -0.01775077 -0.005548868 -0.052112445 -0.10504871
000170 e7 f9 cb 3d 3d 9e 8e bc 0c 11 c1 3c 32 8f a0 bd
       0.099597745 -0.017409438 0.023567699 -0.07839812
000180 0d b3 a4 3d 03 0c 1a bd 9e 81 ab bd 0f eb e2 bd
       0.08041964 -0.03760911 -0.08374332 -0.1107999
000190 c2 fc b3 bc e6 f6 99 bc 79 9c b5 3d fb 40 e4 3d
       -0.02197111 -0.018794488 0.088677354 0.111452065
0001a0 1f b7 cd bc 43 56 3d bd 4d f6 af 3c 05 6a 99 bd
       -0.025111733 -0.046224844 0.02147975 -0.07490925
0001b0 ea 29 1c be ed d7 19 3b 2d 97 8a bd 50 c7 1c 3d
       -0.15250364 0.002347465 -0.06767116 0.038276017
0001c0 c2 d7 7f 3d cc 3e e4 bd 63 fc e6 bb 23 98 f9 3c
       0.062461622 -0.1114479 -0.00704913 0.030468052
0001d0 ca 5b 5f bd 49 4a 1e bd 6a 57 07 3d fd 02 77 3a
       -0.054530896 -0.038645063 0.03304235 0.00094227475
0001e0 ce 89 1b 3d 2f b8 58 bd ca 5c d6 3b a2 b6 c1 bb
       0.037973218 -0.052910026 0.006541823 -0.005911664
0001f0 4b 02 c2 3b 59 0a f7 bd 4d dd 9d 3d 66 e1 ed 3d
       0.0059206835 -0.120625205 0.077082254 0.11615257
000200 da 51 02 3e 55 6c 0f 3d 47 17 3a 3d 5b ae da bd
       0.12726536 0.035015423 0.045432355 -0.10677787
000210 5f bd 47 b9 ea cb a9 3d 49 67 38 3b 6a b6 87 bd
       -0.00019048665 0.08290847 0.0028137735 -0.066265896
000220 d2 7c ef 3d 0d 10 c9 3c 3f 95 19 3d 22 73 37 3d
       0.116937295 0.024543786 0.037495848 0.044787534
000230 21 16 86 bc 62 b4 46 3d 2d 51 d1 bd ed 17 fc bd
       -0.016367974 0.04851187 -0.10220561 -0.12309251
000240 6f b3 0a 3e aa 83 af 3c 5b b0 8d 3c 96 68 e1 3d
       0.13545011 0.021425087 0.017296007 0.11006276
000250 98 b2 54 bc c0 c4 9c 3c 1d 96 24 bc 69 34 4d bd
       -0.012982033 0.019136786 -0.010045555 -0.05009881
000260 77 11 79 3d 91 de 8c bd 2f 86 c3 3b d0 74 b9 bd
       0.06080767 -0.06878389 0.0059669237 -0.09055483
000270 73 41 00 be 97 ee 28 bd 50 e7 a9 bd 97 06 82 3c
       -0.12524967 -0.041243162 -0.082960725 0.015872283
000280 17 a1 0a bd 47 1c a3 bd 31 71 2a bd 56 d4 19 bd
       -0.033845033 -0.07964378 -0.041611854 -0.037556015
000290 ca f0 96 bb 30 fe 33 3c fc cb 5e bc d4 5b c3 bc
       -0.004606341 0.010985896 -0.013598438 -0.023847498
0002a0 71 ec 9b bd ff 30 f8 3c 3b d6 d6 3c 55 16 33 bd
       -0.07613457 0.0302968 0.0262252 -0.04372247
0002b0 6e d9 7e 3d 19 82 87 3c 6b b7 c4 bd 41 47 88 3d
       0.062219076 0.016541528 -0.09605297 0.066542156
0002c0 02 fd ad 3c 5e 7d 35 bd 62 b6 ce bd 74 22 dc 3d
       0.021238808 -0.044309013 -0.100933805 0.10748759
0002d0 d6 8f d6 bc 8d 47 e3 3b 6b 03 c8 3d 59 03 2d bd
       -0.026191633 0.0069360198 0.09766277 -0.04223952
0002e0 5e ac 07 3e 1e e7 58 3d c8 f1 1a bc f1 fc ad bd
       0.13249347 0.052954786 -0.009457059 -0.0849551
0002f0 09 18 2f 3d cf a0 db bd ef 6a 07 3e 13 ae 01 3e
       0.04274753 -0.10724031 0.13224386 0.1266406
000300 1b a7 f6 3d 1c cd 04 3c cd dc f6 bc 63 bc e6 3d
       0.120435916 0.0081055425 -0.030134583 0.11266401
000310 68 8a 19 3d 0b 53 47 bb 41 f9 0a 3d 7b 81 92 bd
       0.03748551 -0.0030414488 0.033929113 -0.07153603
000320 99 92 d1 bd c0 31 22 3c 78 6d 8b bd 31 53 2e 3c
       -0.102330394 0.009899557 -0.06807989 0.010639952
000330 f2 3e c5 3d d4 fb a6 3a 82 70 49 3c 0a 9a 35 3d
       0.096311465 0.0012739846 0.01229489 0.044336356
000340 80 7f 11 bd 80 41 9d 3d 55 5a b4 bc 2a 51 83 3d
       -0.035521984 0.07678509 -0.02201573 0.06411965
000350 85 eb 1f 3c 6a 11 9a 3d 4e e9 95 bd 83 21 07 bd
       0.009760742 0.07522853 -0.0731989 -0.032990944
000360 25 13 a6 bd 5e 8b c5 3c 2a 7a 03 3d 40 ca 4b bd
       -0.0810912 0.024114307 0.032098927 -0.049753428
000370 7e 69 7c 3d e4 2a 2e bc 27 1a 19 3d 8e 3d 56 3d
       0.061624043 -0.010630343 0.037378456 0.052304797
000380 3c e7 99 3c 16 ef 09 3d 03 99 75 3c ac dd 8d bc
       0.018787019 0.033675276 0.014990094 -0.017317615
000390 1d e4 ab bd fd 16 ce 3d 27 64 c6 bc e3 37 b2 3c
       -0.083931185 0.100629784 -0.024217678 0.021755164
0003a0 99 bb b9 3d ed a5 e3 3d 8d 1f d2 bd 1d c0 a0 bd
       0.090689845 0.11115632 -0.10259924 -0.07849143
0003b0 11 e9 cf bc 25 f8 e3 3a ab d4 8f bd 79 6f ea ba
       -0.02537969 0.0017392678 -0.07022985 -0.0017886005
0003c0 f8 b6 b5 3b 29 20 e3 bd 3b 0d 23 bd 0a 90 8a bd
       0.005545493 -0.110901184 -0.03980754 -0.067657545
0003d0 0f 32 8a 3d bc e9 b2 3c 9c 91 9f 3d d6 54 04 3e
       0.06747829 0.021839969 0.07791445 0.12922987
0003e0 ec ac a3 bd be 1f e2 3d 53 b0 f3 3b 44 a1 2c bb
       -0.079919666 0.110412106 0.007436791 -0.002634124
0003f0 dd 5d 43 bd ea a6 f8 bd e6 7b f2 3c db 18 83 3d
       -0.047696937 -0.12141211 0.029600095 0.06401225

inference_net.gru.bias_ih_l0 f4 [384]
000000 7b cb 8e bc 52 02 97 3c 61 06 82 bc 32 ec 26 3d
       -0.017431011 0.018433724 -0.015872182 0.040752597
000010 11 47 2a bc b9 4d aa 3d c9 dc 1e 3c a8 16 45 bc
       -0.01039292 0.08315606 0.009696194 -0.012029327
000020 38 a4 44 3c a9 04 cf bb 16 5c 17 3d 46 0b 98 3d
       0.012002043 -0.006317694 0.036953054 0.07424025
000030 a3 e6 a9 3d 02 93 93 bd 89 c9 3a 3d 40 32 0a 3d
       0.082959436 -0.07205774 0.045602355 0.03373933
000040 c4 82 11 3e 5f a5 75 3d 75 c4 54 bd 12 c0 08 3c
       0.1421004 0.059972163 -0.05194517 0.008346574
000050 81 ad 47 3d e9 fa 9a bd e6 6b 5c bc e5 1b 9c 3d
       0.04874945 -0.075673886 -0.013453459 0.07622508
000060 4b 0b 71 bd c7 ce 01 3e ec a7 a9 3d b0 f5 2b bc
       -0.05884866 0.12676536 0.08283982 -0.010495588
000070 f0 26 8e bd 4e f3 f3 bc 1f 4c c2 bc 03 ad ef bc
       -0.069410205 -0.029779103 -0.023717938 -0.029257303
000080 b1 88 c0 bd 33 44 35 3d 63 c6 df bc 69 a5 01 3d
       -0.09401072 0.044254493 -0.027316278 0.031651888
000090 22 57 cd bc eb 3f 47 bd 93 ef 7f 3d 44 fc 4f 3b
       -0.025065962 -0.04864494 0.062484335 0.0031736055
0000a0 46 c8 dd 3c 15 c8 af 3d db 2a 8d 3c c7 8c 05 3d
       0.027073037 0.085830845 0.01723235 0.03260496
0000b0 95 3d 18 bd ce bc 68 3c 5b ca 49 3d 23 48 73 3d
       -0.037168104 0.014205171 0.049265247 0.059394967
0000c0 e8 e7 7e bc 22 04 bb bd 40 1b 37 3d c9 41 1c 3e
       -0.01555822 -0.09131648 0.044703722 0.1525947
0000d0 4a b0 89 3d 5d 89 ff 3d ec 48 a5 3d a9 af bf 3d
       0.067230776 0.12477372 0.08070549 0.093596764
0000e0 e7 9e 37 bd 48 6d 0d 3e c0 fb b9 3d 88 76 73 3d
       -0.044829275 0.13811219 0.090812206 0.059439212
0000f0 11 65 7c 3d 06 f1 a3 3d 8f b8 2e 3d aa 91 08 3e
       0.061619822 0.08004956 0.042656478 0.13336816
000100 11 4c 20 3d 96 ce a9 bc 28 4c b6 3c c4 38 83 bd
       0.039135043 -0.02072839 0.022253111 -0.064073116
000110 2f 94 51 ba c4 ec 3c 3d a2 4c 5c bb 16 31 af 3d
       -0.00079947984 0.046124235 -0.0033615013 0.08554284
000120 f6 0a 86 3d a4 4d 2e 3d 31 9f cb bb c5 5d 18 bd
       0.065450594 0.042554513 -0.0062140455 -0.0371988
000130 90 71 1e 3d aa 50 c4 3c aa 3b 55 3d 2b 8c e8 bb
       0.03868252 0.023964245 0.052058853 -0.0070967874
000140 2e 1d 35 3d 43 18 90 bd 40 94 35 3d cc 87 cb bc
       0.04421728 -0.070358776 0.044330835 -0.024845026
000150 10 2e 4c 3d 8a fa a5 bd 4b 28 3b 3e c2 6e 6b 3d
       0.049848616 -0.08104427 0.1827709 0.057478674
000160 a8 82 17 3e ab d7 a8 bc e2 88 bf 3d 0b 74 b9 bd
       0.14795935 -0.020610651 0.0935228 -0.090553366
000170 e2 c4 07 3c 29 be 40 bc 9d 61 7b bd 3c 8d 0f 3c
       0.008286687 -0.011764088 -0.06137239 0.0087617
000180 ea ab 95 3b 63 48 1d bd 86 3a 91 3d a6 36 db 3c
       0.004567613 -0.03839911 0.070912406 0.026759457
000190 56 2f 94 bd f5 65 0b bd e4 ea 87 3d 2b 18 a1 bd
       -0.07235591 -0.03403278 0.06636599 -0.07865938
0001a0 e0 92 b4 bc 7f 6c 1d 3d ad b6 a8 3c 60 18 7a 3d
       -0.022042692 0.038433548 0.02059492 0.061058402
0001b0 f3 4b 92 3c de 0e 8f 3d 75 a8 a4 3d 18 2a 82 3d
       0.017858481 0.069852576 0.08039943 0.06355685
0001c0 fa c2 8d 3d 94 49 79 3d 26 bc 64 3d 8a e5 98 bd
       0.069219545 0.060861185 0.055843495 -0.07465656
0001d0 d2 50 2b bd a7 94 63 3d 2b fa fb bc 85 37 de 3d
       -0.041825123 0.055561688 -0.030758938 0.10850433
0001e0 ec ee 07 3e fe b1 2b bc f5 5e 34 bd d0 fe 85 bd
       0.13274735 -0.010479448 -0.04403587 -0.06542742
0001f0 62 65 87 bd 28 7a 2c bc 15 0f 86 bc 12 85 5b 3d
       -0.06611134 -0.010527171 -0.016364614 0.053593703
000200 71 91 ac bd 32 ca 52 be 01 4e 26 bc 39 80 48 3a
       -0.08426178 -0.20584944 -0.0101504335 0.0007648501
000210 d3 fe 61 bd 43 b8 30 be d4 03 03 bd 8b 89 54 bb
       -0.05517466 -0.1725779 -0.031986073 -0.0032430615
000220 4d 08 ba bd a0 40 f5 bc ac a9 b0 bd 1a 24 8a be
       -0.090836145 -0.029938042 -0.08626112 -0.26980668
000230 27 7a ed bd 59 d8 3a bd eb 82 0b bd c0 dd 7f bd
       -0.11595564 -0.04561648 -0.0340604 -0.062467337
000240 0b c9 29 be 09 5b a4 3d 04 57 08 bd 2c f4 73 3d
       -0.16580598 0.08025176 -0.03328611 0.059559032
000250 9d 98 0f 3d a3 8c ad 3d ce 9a a2 bd 43 7d 5c bd
       0.035057653 0.0847409 -0.07939683 -0.053830396
000260 38 b1 c8 bd e5 65 88 bd 01 6b 07 3d 27 f9 80 bd
       -0.09799427 -0.0666006 0.03306103 -0.06297522
000270 ac 64 4a bd 6f 1e 2c bd 62 ed f7 3d 1a 2a b7 bd
       -0.049412414 -0.04202121 0.12105824 -0.08943577
000280 9c 25 5e bd 15 d3 84 3c db a2 4f bd e4 34 4b bd
       -0.054235086 0.016213933 -0.05069242 -0.049610987
000290 c2 57 0f 3d f8 e7 74 3d 47 6b f3 3d d7 6e 56 be
       0.0349958 0.059791535 0.11885696 -0.2094072
0002a0 8e aa f7 3c 7d 59 7c bd 25 ad ba 3c a7 c0 8e 3d
       0.030232694 -0.06160878 0.02278764 0.06970339
0002b0 72 46 81 3c 29 2f 09 be 5a 2b e6 3d 23 aa 2f 3e
       0.015780661 -0.13396896 0.112387374 0.17154746
0002c0 b1 3d 0c be 76 70 06 be fc 01 ad bd 2a 05 68 be
       -0.13695408 -0.13128838 -0.08447644 -0.2265822
0002d0 a2 6b ac bd 42 69 4f bd e5 9e 37 bb 4f 0b 11 3d
       -0.08418967 -0.05063749 -0.0028018293 0.035411175
0002e0 a4 0a be bd 56 b0 25 be 02 f3 45 be 66 f9 a4 bd
       -0.09279373 -0.16180548 -0.19330981 -0.080553815
0002f0 26 5b 17 bd 4a 0b 49 be 13 89 40 be 1d 9d 99 bd
       -0.03695216 -0.19633213 -0.1880229 -0.0750067
000300 bd 2c 5b bd 47 60 1e bd 8a d2 b4 bc 2f a4 d8 bd
       -0.053509463 -0.038666036 -0.02207305 -0.105781905
000310 7b 3e 7e 3d 01 b0 10 3c f9 4b 9d bc e9 33 b7 3c
       0.062071305 0.008831025 -0.019201266 0.02236362
000320 14 a4 b1 bd da af 1d 3d 28 52 13 3d 1d 24 ab ba
       -0.086738735 0.038497783 0.035967022 -0.0013057027
000330 d5 d2 12 be 95 8d db 3d fc d1 8a 3c 59 9c 19 3d
       -0.14338239 0.10720364 0.016945831 0.03750262
000340 5c ea 81 3b 0f bd aa bd 6a 7a ca bc da 81 98 bd
       0.0039647054 -0.08336841 -0.024716575 -0.07446642
000350 94 d6 44 bd c0 ea ff ba 05 56 8b be bf 6e c6 bd
       -0.0480562 -0.0019524917 -0.27214065 -0.09689092
000360 3f a9 f8 bd db 1d 02 be ef b7 46 bd 72 f5 5e 3c
       -0.12141656 -0.12706701 -0.048515256 0.013608323
000370 3b 61 9a 3d 29 d8 b5 bd 56 9c 16 3d 6e e8 ec 3a
       0.075380765 -0.0887912 0.036770187 0.001807464
000380 6e 17 76 3d 32 0e 18 3d 95 88 e8 3c 6d 0a fe bd
       0.060080938 0.037122913 0.02838544 -0.12404332
000390 15 91 91 3d 5e 50 ba bd 13 8a cc 3a 18 42 d7 bb
       0.0710775 -0.0909736 0.0015605114 -0.0065691583
0003a0 28 b0 f3 bd f2 98 76 bd 80 f1 db bd 5a 1e 1b bc
       -0.118988335 -0.060204454 -0.10739422 -0.009467686
0003b0 4d d7 2b 3d 53 25 71 be aa 25 4e 3a 94 54 8c bd
       0.041953374 -0.23549394 0.0007863889 -0.068520695
0003c0 f9 35 04 bd 66 1f 93 bd 93 8b 09 3d c7 e8 28 bc
       -0.032278035 -0.07183723 0.033580374 -0.010309405
0003d0 44 ed 37 3d fa 59 8b 3d 91 a6 41 bd 90 7a 62 bd
       0.04490401 0.06804271 -0.04727799 -0.055292666
0003e0 a8 b0 04 be 97 0e 56 3d 1c 89 92 3d c0 fd 84 3d
       -0.12958014 0.052260008 0.07155058 0.064937115
0003f0 06 07 86 bd ec 3a de 3c e6 48 9d bb 91 34 a8 bd
       -0.06544308 0.027127706 -0.00479995 -0.08213151

inference_net.gru.bias_hh_l0 f4 [384]
000000 83 fe bd 3d ef d3 c7 3d f3 6c 7e 3c 7a 6d 32 3d
       0.0927706 0.0975722 0.015528905 0.043561436
000010 79 70 98 bd 37 50 25 3e c6 4b ae bd 76 4d 17 bd
       -0.074433275 0.16143881 -0.085105464 -0.036939107
000020 05 b0 c6 bb cb a8 41 bd 1e 83 78 3d ba 69 25 3e
       -0.0060634636 -0.047280114 0.060671918 0.16153613
000030 0b 6c e3 3d 39 62 29 3d 34 84 b4 bd 03 f3 b5 3d
       0.11104592 0.041353438 -0.08814278 0.088842414
000040 0d 7a 04 3e 59 df 23 bd c5 25 8d 3c 2b 56 3b bd
       0.12937184 -0.040007923 0.017229924 -0.045736473
000050 88 8f 86 3d 40 1c b1 bc 66 88 9d 3d 65 b0 79 3d
       0.06570345 -0.021619916 0.076920316 0.06095924
000060 40 12 af bd 24 46 c8 3d 16 c0 1f bd c0 ab 79 bc
       -0.08548403 0.09779003 -0.039001547 -0.015238702
000070 d9 8e 90 bd 0b 3d 05 bd 03 02 6a 3d 92 62 78 ba
       -0.07058496 -0.03252892 0.057130825 -0.00094751373
000080 35 1f 1a bb 95 49 47 3c 5c 85 86 bd f7 a1 16 bd
       -0.0023517136 0.012163539 -0.06568405 -0.036775555
000090 49 ce 88 3d 01 d5 b0 3d d5 22 49 3c 91 d3 de bc
       0.06679971 0.08634377 0.012276371 -0.027200492
0000a0 cb 89 b7 3d eb ea 3a bb 09 38 14 3d 40 83 9f 3d
       0.08961829 -0.002852137 0.03618625 0.07788706
0000b0 80 04 48 bd dc 0b 4d bd bc af b1 bd a9 ce b3 3c
       -0.048832417 -0.050060138 -0.08676097 0.02194913
0000c0 fd 99 e7 3b 36 4d 07 3d 17 c3 d3 3d ba da db 3d
       0.0070679174 0.03303262 0.10339945 0.10735078
0000d0 d6 7f 63 3d 7f dd dc 3c f8 78 bf 3d 51 5a 00 bd
       0.055541836 0.026961086 0.09349245 -0.031336132
0000e0 e6 09 79 3d 08 40 31 3d c8 75 a0 3d 56 f9 8b bd
       0.060800456 0.043273956 0.07834965 -0.068346664
0000f0 f4 ba ea 3c cb b3 ab 3d ca 16 0e bc c0 fd 1a 3d
       0.0286536 0.08383902 -0.0086724255 0.03783965
000100 f5 ae 8a 3d 24 52 2f bd 18 93 b6 3c 60 1d 38 3c
       0.06771652 -0.042802945 0.022286937 0.011237472
000110 d1 b4 91 bb 85 64 67 bd 96 aa 55 bd 4f a7 a0 3d
       -0.004446604 -0.056492347 -0.052164637 0.078444116
000120 c0 86 70 3d 29 7f 58 bc e3 01 65 bc af de 77 3d
       0.058722258 -0.013213911 -0.013977501 0.060515102
000130 84 7c c8 3d 7f 35 82 3d fe 9b 10 bd 73 fc c5 3c
       0.097893745 0.0635786 -0.035305016 0.024168229
000140 c7 f7 91 3d d5 da a9 3c b3 97 90 3c d0 47 4b 3d
       0.07127338 0.02073423 0.01765046 0.049629033
000150 aa 36 97 3d f3 d0 d8 3c 7a 15 b9 3d 0e 9e db 3d
       0.07383473 0.026466822 0.090372995 0.10723506
000160 61 0a a3 3d 15 61 e5 bc 61 4f ad 3d 38 b7 fd 3c
       0.07960964 -0.028000394 0.08462406 0.030971155
000170 ff 2e a4 3d 75 47 3b 3d 12 60 52 bd 38 bd ca 3d
       0.08016776 0.045722444 -0.05136115 0.09899372
000180 bf 53 ca bd 25 55 ad 3d 6f ef 90 bc a5 96 28 3c
       -0.098792545 0.08463506 -0.017692296 0.010289823
000190 7b a4 03 3d 2e 34 22 3d 86 00 ba 3d bc 4a 45 bd
       0.032139283 0.039600544 0.09082131 -0.048166975
0001a0 db 53 db 3c e0 f9 50 3d 78 90 22 3d c5 1b 3f bd
       0.026773384 0.05101955 0.039688557 -0.046657342
0001b0 7e c2 b1 bc 22 12 c7 3d 6f f3 bc 3d 18 9b 94 3d
       -0.021699186 0.097202554 0.09226119 0.07256144
0001c0 8e ee a6 bd be 01 97 bc 83 98 41 3d 5b d9 b7 bc
       -0.081509694 -0.018433448 0.047264587 -0.02244251
0001d0 db f0 66 3b 88 0b 8b 3d 8d 6d 8e 3c ea 2e f8 3d
       0.0035238776 0.06789309 0.017386222 0.12118323
0001e0 d4 15 80 3d b5 04 20 3d 25 dd 27 bd ac 68 2f 3d
       0.062541634 0.03906699 -0.040982384 0.042824432
0001f0 7d 8b 80 3d a4 9c 89 3c 32 7b 6b bd 0e 8e f1 bc
       0.06276605 0.016798325 -0.057490535 -0.029486682
000200 e0 29 0d 3c 31 b6 80 bd 64 c9 87 bb eb c3 56 bd
       0.008615941 -0.0628475 -0.0041438807 -0.052432936
000210 86 da 01 3d 8f 8b b7 bd 8c 8a 17 bd c1 9b 0f 3d
       0.03170254 -0.089621656 -0.036997363 0.035060648
000220 10 d6 14 be 52 e2 63 3d 34 f4 ff bd 5d ea 7a be
       -0.14534783 0.055635758 -0.1249775 -0.24503465
000230 ec ec fe bd 2e 89 d4 bd c3 8d 5f 3d 2f f6 fe 3b
       -0.12447533 -0.103777274 0.054578554 0.007780812
000240 e3 83 ac bd 07 3e f7 bc ed 11 b4 bc 21 30 dd 3c
       -0.08423593 -0.030180944 -0.021981204 0.027000489
000250 42 6c 16 3d 06 61 8b bd ef 58 86 bc 73 81 83 bd
       0.036724336 -0.06805615 -0.016399829 -0.06421175
000260 12 aa f3 bd 40 f4 c9 bd 5b fc 8b 3d 62 0a 65 3c
       -0.11897673 -0.0986104 0.06835242 0.013979526
000270 c7 21 29 bd 11 6b 39 3d ba 42 df 3d d6 41 de bd
       -0.04129198 0.045268122 0.10901399 -0.10852401
000280 1a ff 2c 3c 7b 36 2a 3d ab ba 9d 3d 17 27 b7 3c
       0.010558868 0.041555863 0.0770162 0.022357507
000290 d6 c3 ff bd c4 a2 70 3d 09 77 2f 3d 26 f6 8f bd
       -0.124885246 0.058748975 0.04283813 -0.07029371
0002a0 2b e3 15 3b d6 ad c1 bd 28 d3 90 3d 96 83 45 bc
       0.0022870998 -0.09456985 0.07071525 -0.012055298
0002b0 b6 59 d5 bd 10 79 7c bd 7e 68 5a 3d 21 40 99 3d
       -0.10417502 -0.06163889 0.053322308 0.07482935
0002c0 9c aa f9 bd e5 67 d1 bd f9 1d 29 be ac c7 65 be
       -0.12190744 -0.102248944 -0.1651534 -0.2243945
0002d0 c1 a9 94 3d 87 38 18 be 55 7d 0e 3d 52 df ab bd
       0.072589405 -0.14865313 0.034787495 -0.08392204
0002e0 66 12 5b bd e1 c0 95 be c8 b3 21 be 2d ba de bd
       -0.053484343 -0.29248717 -0.15791237 -0.10875354
0002f0 3e d4 a3 bc 9c 71 16 be 88 06 8f bd da 53 59 bd
       -0.019998666 -0.14691776 -0.069836676 -0.053058483
000300 8b 37 ea bd 0d 03 99 3d 2d 0e cc bd 95 1c a5 bd
       -0.11436375 0.07471285 -0.09963641 -0.08062092
000310 4e 9d 3a bd 54 4a b5 3d 2f 42 97 bd e0 86 82 3c
       -0.045560174 0.088520676 -0.073856704 0.015933454
000320 6a 45 68 bd ce f5 0b 3d 89 01 56 3c 0f ca cb 3c
       -0.056706823 0.034169964 0.013061889 0.024876622
000330 d2 a7 9b bc a1 7b ca bb 0e ce ca 3d 94 86 ad bd
       -0.019000921 -0.0061792885 0.09902583 -0.08472934
000340 f1 7f 02 be 95 06 0f bd 03 2e 2a bd b0 bd f7 bc
       -0.12744118 -0.034918386 -0.041547786 -0.030241817
000350 bc ac a4 3b 46 14 d2 3c 50 29 41 be 08 42 74 bd
       0.0050254744 0.025644433 -0.18863416 -0.059633285
000360 c8 f7 3e be 13 f7 ab 3c d5 0e fe 3b 41 24 bd bd
       -0.18649209 0.020991838 0.007753233 -0.092354305
000370 3f dc 96 bd b9 8a c7 bc fe 95 8e bd a9 68 87 bd
       -0.07366227 -0.02435814 -0.069622025 -0.06611759
000380 8f 7f 1e bd 75 e9 67 3d e2 9c aa bd a2 e9 a4 bd
       -0.038695868 0.056619126 -0.08330704 -0.080523744
000390 53 45 8a bd 2a 84 dc bb 09 d7 9a bd eb ab 47 bd
       -0.06751504 -0.0067296224 -0.07560546 -0.048747938
0003a0 86 5a 02 be 0e 8d ed 3c 38 b7 b8 3c 06 1a e9 bb
       -0.12729844 0.028997924 0.022548303 -0.007113698
0003b0 94 45 7b 3d de 02 92 be 96 9d c9 3b 7f 9c ec bc
       0.06134565 -0.28517812 0.006152819 -0.028883217
0003c0 32 0b 72 bd 49 d2 4b 3d f1 e9 93 bd ec ba aa 3d
       -0.059092708 0.04976109 -0.07222355 0.08336434
0003d0 7d 66 0a 3d d6 91 5f 3d cb df a3 bc 0e 6e 17 3d
       0.033789147 0.05458244 -0.020004174 0.03697019
0003e0 61 84 1f be 8e ba 9e bc 52 c4 7f bd cd fb 6e 3d
       -0.15577842 -0.019376066 -0.062443085 0.058345605
0003f0 f1 44 c5 bd 69 21 a7 3d c0 51 05 3d 4a e7 9e 3d
       -0.0963229 0.08160669 0.032548666 0.07758959

inference_net.h_bottleneck.0.weight f4 [8, 128]
000000 62 a3 c1 bc 4d 96 4f 3d 13 a9 9d bc 9c 7f ed 3b
       -0.023637477 0.050680447 -0.01924566 0.0072478782
000010 b3 87 95 3c c3 14 c8 bc 45 02 23 3d 36 1d 46 3d
       0.018253183 -0.024423962 0.039797086 0.0483677
000020 f3 4b 13 3d 92 47 a1 bd a8 21 ab bd 29 d3 93 bc
       0.035961103 -0.07874979 -0.08356029 -0.018045025
000030 93 0a 09 bd 26 c6 54 3c 4d 3f 89 bd 93 47 27 3d
       -0.03345735 0.012986695 -0.06701527 0.040839743
000040 02 b5 94 bd 81 0f 27 bc a7 39 94 3d 6e 32 b0 bc
       -0.07261087 -0.0101965675 0.07237559 -0.021508422
000050 89 0f 95 bd fa 5b 1a bd 4e 80 9c bd 4a 73 44 3c
       -0.07278354 -0.037685372 -0.0764166 0.011990378
000060 2d cf 11 3d 5d 38 40 3c d2 2e 22 3d db ea 71 3d
       0.03559797 0.011732188 0.039595433 0.059061866
000070 f4 8a c1 3c 74 7e b7 3c f5 bc ec 3c 85 69 4c bd
       0.023625828 0.022399165 0.028898695 -0.04990532
000080 76 a7 aa 3c c4 ff 95 3d 08 38 06 3d 5f 81 2b 3c
       0.020831805 0.07324174 0.03276828 0.010467856
000090 cd 86 45 3d d8 aa 93 bb 0c 27 7d 3c 0d 4b 96 3d
       0.04822426 -0.00450645 0.015451204 0.073385336
0000a0 ff ed 59 bd 60 92 56 bb 37 5b 0a 3d 17 53 02 bc
       -0.053205486 -0.0032741055 0.033778396 -0.0079543805
0000b0 ae 79 15 3d 93 93 db 3c 31 5a 2f 3d 07 5f 3f bd
       0.036492996 0.026803767 0.042810623 -0.046721485
0000c0 0e e4 cd bc 3b 13 00 3d 71 2a 46 3d 43 18 c6 3d
       -0.025133159 0.03126834 0.04838032 0.09672596
0000d0 8c 9e 77 3d 35 9a 97 bc 75 69 9a bc 91 97 6f 3c
       0.060453936 -0.018506149 -0.018849114 0.014623539
0000e0 e6 e5 e8 bd 42 1e 52 3b b3 6d 9d 3d b5 17 f4 3b
       -0.11371975 0.0032061492 0.07686939 0.007449115
0000f0 55 35 a3 bd 9f 43 9e bd ac ec 18 bb ba 8c 18 bd
       -0.07969157 -0.077277415 -0.0023334427 -0.037243582
000100 b3 74 44 bd c7 df 03 bc 56 09 90 3d 12 48 70 3b
       -0.047962856 -0.008048958 0.07033031 0.003666405
000110 76 f6 26 bd 74 cf a3 3d 82 33 e1 3c 59 bb c2 3c
       -0.040762387 0.07998553 0.027490381 0.023770975
000120 e3 58 93 3c c5 a3 26 bc 20 89 25 bc ae 55 9b bd
       0.01798672 -0.010170882 -0.010103494 -0.075847015
000130 35 d4 6c bd 51 b2 77 bd ce 91 0b be d5 03 85 bc
       -0.057819564 -0.06047279 -0.13629839 -0.016237179
000140 9a 60 00 bd 1e 14 72 bd 1a 0e 15 bd d4 90 24 3c
       -0.031342126 -0.059101216 -0.0363904 0.010044295
000150 55 24 f8 3c 95 30 b8 3c f4 4b 03 3a 4b 8f 24 3d
       0.030290762 0.022484103 0.00050085713 0.040175717
000160 26 c0 3f bd d2 b4 86 3c 26 02 a4 bc 46 25 a0 bd
       -0.046814106 0.016443644 -0.020020556 -0.07819609
000170 2b 31 38 3c 4c 72 be 3c 01 ec fb 3a cf 2a 49 bb
       0.011242191 0.02324786 0.0019220115 -0.0030695682
000180 29 02 c2 bc 03 1b c9 bc c3 bf 75 bd 23 19 be bb
       -0.02368267 -0.024549013 -0.05999733 -0.0058013364
000190 43 14 4d 3d 56 6a 00 3d e1 e8 a8 bc 44 46 27 3d
       0.05006815 0.03135141 -0.020618858 0.040838495
0001a0 01 94 2a bd d1 0f 87 bd f0 31 65 3c 24 6a d0 3d
       -0.041645054 -0.065948136 0.013988957 0.10176495
0001b0 d3 be a2 bb 75 e4 cb bc 53 e0 f6 3c 0d f7 51 bd
       -0.0049665957 -0.02488921 0.030136263 -0.051260997
0001c0 94 95 27 3d ea c9 5d 3d 8c bd 78 bc 70 6f 30 3c
       0.040914133 0.05414764 -0.01518191 0.010768756
0001d0 46 16 8c 3c 03 1c 7e bb 5d 94 e9 bb 99 7b 98 bd
       0.017100465 -0.003877402 -0.007128282 -0.074454494
0001e0 40 a6 89 3d 2c 0e 90 3d 3d 4b 66 3d a4 26 ae bc
       0.06721163 0.07033953 0.056224097 -0.02125866
0001f0 90 8c 6f 3d 34 7d 9d bc 9c 9d 81 3d 4e 1d 8e bc
       0.05848366 -0.01922474 0.0632889 -0.017347958
000200 f6 85 56 3d 57 c6 8e bd cf 84 9f 3d 20 46 73 3e
       0.05237385 -0.06971424 0.07789003 0.2375722
000210 7a 4b ab 3c 07 67 22 3d d4 a7 8f bc 90 ed 85 3c
       0.020910013 0.039649036 -0.017536081 0.01634863
000220 5c e3 a2 3d 76 9d 82 3d cb 8a 09 3e 9e 1d 01 3e
       0.079535216 0.063776895 0.13431852 0.12608954
000230 6d ab 8d 3d 20 51 aa bd 4f 01 ce 3c da 96 63 bd
       0.069174625 -0.083162546 0.025147108 -0.055563785
000240 c2 b2 c6 3d 41 28 b0 3b 7a 87 8c bd e8 97 30 bd
       0.09702064 0.0053758924 -0.068617776 -0.04311362
000250 4e bf 19 3d b7 69 ce 3b a1 d7 b4 bd 4e 43 e8 bc
       0.037535958 0.0062992233 -0.088301904 -0.028352406
000260 56 21 d0 3c e0 ec 6a bd 86 a8 3f 3d 2b 3e 95 bd
       0.02540652 -0.057354808 0.046791576 -0.07287248
000270 d1 6e b8 3b 54 4e ad bd bf 87 3c bb bf c8 ae 3d
       0.0056284447 -0.084622055 -0.0028767434 0.08534383
000280 58 ed 1c 3d 04 ad ca bd 95 5f 1d 3d 70 8b 36 3c
       0.038312286 -0.09896281 0.038421232 0.011141643
000290 ab c9 4a bd 54 20 14 3d 0d 81 74 bd 4c 15 33 be
       -0.04950873 0.036163643 -0.059693385 -0.17488593
0002a0 0c 47 be bc f8 17 3a 3d 2f 85 02 be 59 ac a5 3d
       -0.023227237 0.045433015 -0.12746118 0.08089513
0002b0 8a 00 e8 bd c4 bb a0 bc 1f 16 bc bd cd bb 50 3d
       -0.11328228 -0.019620784 -0.09183907 0.05096035
0002c0 e6 76 26 bc 2a b8 d9 bd 5d 55 9c bd 8d a1 ba 3d
       -0.0101601835 -0.1063083 -0.07633469 0.091128446
0002d0 98 e2 43 bb 2a a1 7f 3d f6 71 f7 3c 35 c3 21 bc
       -0.00298897 0.062409557 0.030205708 -0.009873201
0002e0 ab f9 43 3d cc 58 bd 3d eb 81 ca 3d 0c 29 1e 3d
       0.047845524 0.09245452 0.09888061 0.038613364
0002f0 f1 2b 92 3d 60 8c ba bd 87 15 7e 3d 8a 2d d7 3d
       0.071372874 -0.09108806 0.06203225 0.10506733
000300 04 d4 52 3d 11 b9 1c bc ea a8 c8 bd f9 1d ba 3c
       0.051471725 -0.009565608 -0.09797843 0.02271937
000310 24 02 12 bc 22 2e ec bd b9 a0 0e 3d 0b f0 8b bd
       -0.008911643 -0.11532237 0.034821246 -0.06832894
000320 00 54 4c bd 83 9b 41 bd 01 e5 20 bc 6a 38 5a 3d
       -0.049884796 -0.04726745 -0.009820224 0.053276457
000330 de f4 91 3d 36 41 70 3d 42 c2 11 3e d9 c6 36 3d
       0.07126783 0.05865594 0.1423426 0.04462323
000340 81 17 cb bd 0c 82 51 3d b2 37 2e 3e a7 5b ca 3d
       -0.099165924 0.051149413 0.17013434 0.098807625
000350 dc e9 42 3d 1e a4 8a bc 9a d2 80 bd 23 12 83 3d
       0.047586307 -0.01692396 -0.06290169 0.06399944
000360 33 85 b5 bd d0 82 fe 38 30 d8 90 bd 86 46 9d 3d
       -0.08863296 0.000121360295 -0.070724845 0.07679467
000370 b1 60 76 bc 44 a0 2d bd 8c a0 85 bc b4 dd 06 bd
       -0.015037701 -0.04238917 -0.016311906 -0.032926276
000380 a2 c2 fa 3d 2b 07 94 bc de 1c 87 bd fc d9 88 3d
       0.122441545 -0.018069824 -0.06597303 0.06682202
000390 f3 1d 6c bd 76 80 7b bd 13 3c 2e 3d 54 4b 65 3d
       -0.05764575 -0.061401807 0.04253776 0.05598004
0003a0 b9 3b e7 3d f6 f9 b4 3d 36 42 83 bd a2 48 82 bc
       0.11290688 0.08836739 -0.06409113 -0.015903775
0003b0 6b 24 8a 3d 91 bb dd bd a9 a7 c7 bd aa 7a 31 3d
       0.067452274 -0.10826791 -0.097487755 0.043329872
0003c0 5f ea 9a 3d 8e 62 44 bd 87 be 30 3d 13 38 12 3d
       0.07564234 -0.04794555 0.04315045 0.035698008
0003d0 1d 77 5d bd 49 d6 52 3d bd f9 e7 3c 71 c1 9f 3d
       -0.054068673 0.05147389 0.028317327 0.07800568
0003e0 63 14 18 bd f1 3a 90 3d 90 1a e7 3c 4d 34 df bc
       -0.037128817 0.07042492 0.028210908 -0.027246619
0003f0 83 44 17 be ee a3 e5 bc 53 67 37 bc 1f 7c 71 3d
       -0.14772229 -0.02803227 -0.011194068 0.05895626

inference_net.h_bottleneck.0.bias f4 [8]
000000 29 19 9f 3d 17 2c 83 3d 88 e8 a0 3c 68 e0 0c 3d
       0.07768471 0.06404894 0.01964213 0.034393698
000010 48 68 00 3d 18 aa 63 3c ad 97 4d 3d 65 89 2c bc
       0.03134945 0.013895534 0.050193477 -0.010530804

inference_net.e_out.weight f4 [10, 16]
000000 26 d3 21 c0 9d 4c e0 3e 02 37 e1 be 01 d1 8d 3f
       -2.5285125 0.4380845 -0.4398728 1.1079408
000010 d8 7d 11 3f 17 34 64 3f 60 1e ab 3f 8e 3f 65 3f
       0.5683265 0.8914198 1.3368645 0.895501
000020 89 d6 81 3f c5 7b 6b 3e 90 af 84 bf 3e 70 11 40
       1.0143596 0.22996433 -1.0366077 2.2724757
000030 d6 91 33 3f 44 c1 0f 3f 15 f4 ac be 0f bd bf 3f
       0.70144403 0.56154275 -0.3377997 1.4979571
000040 8b 85 8a be 88 98 a8 be f4 5d 83 bf 13 df 04 3f
       -0.2705501 -0.32928872 -1.0263047 0.51902884
000050 0b 21 76 bf 98 80 95 3f d3 ef 9e 3e 3e 67 74 3e
       -0.9614417 1.1679869 0.31042346 0.23867509
000060 d7 c0 bd 3f ca 09 d5 3e e1 64 a7 3f c0 bf a2 be
       1.4824475 0.4160903 1.3077661 -0.3178692
000070 b4 ab 15 3f 4d 41 8e 3f fd bc a1 3f 84 18 9b bf
       0.58465123 1.1113678 1.26358 -1.2116857
000080 89 fa a1 3e 2d 6a 73 3f 4b ac 79 be 99 58 78 3f
       0.31636456 0.95083886 -0.24382131 0.9701019
000090 9d 75 73 3e 48 51 13 3f 4f ce 2b bf b3 e1 96 3f
       0.23775335 0.575459 -0.67111677 1.1787628
0000a0 9d 29 fd 3d 1b 83 2e 3f a5 ca 08 3f 78 3f 92 be
       0.12361453 0.681688 0.5343421 -0.28564048
0000b0 b5 c9 83 bd 29 14 0c be e0 d9 b5 3e bb e7 9c 3f
       -0.06434957 -0.13679565 0.35517788 1.2258219
0000c0 be 75 09 3f 01 5d 64 3f 43 5e 90 be f1 43 14 bf
       0.53695285 0.8920441 -0.28196916 -0.5791617
0000d0 21 83 f6 3d c8 c1 7d be a8 59 85 bf 9d cb 28 3f
       0.120367296 -0.24780953 -1.0417986 0.6593569
0000e0 20 25 8b bf 07 c5 aa bf fa de 5d bd a6 99 5d 3f
       -1.0870705 -1.3341378 -0.054167725 0.86562574
0000f0 a9 8c d7 3d ab 78 f4 3e ab df e7 be e6 30 d8 be
       0.10524876 0.47748312 -0.45287833 -0.42224807
000100 3a 75 27 be 80 b1 87 3f d2 5a 11 3f f3 81 4d 3f
       -0.16353312 1.0601044 0.56779206 0.8027641
000110 bd 78 a6 3f 25 0c 68 3f ec 2e ab 3e 07 5a 4e 3e
       1.3005596 0.9064353 0.33434236 0.2015153
000120 9f a3 74 3e 3a c3 99 bc 43 19 f8 3f 54 e9 1b 40
       0.23890541 -0.01876985 1.9382709 2.4361162
000130 28 ba 97 bf 9d af 81 bf 00 8a 9c bf e5 25 32 be
       -1.1853685 -1.0131718 -1.2229614 -0.17397268
000140 fc e3 8c 3f 82 1a 3f be af f8 94 be aa 83 88 3f
       1.1007075 -0.18662456 -0.2909598 1.0665181
000150 9b 30 d5 be 10 88 a1 bf 37 5e 86 3f be c1 03 40
       -0.41638646 -1.2619648 1.0497502 2.0587
000160 d9 8c 9d 3f a8 b6 e5 3f cd 9b ad 3f 39 47 cb 3e
       1.2308608 1.7946367 1.3563172 0.39702776
000170 4e 44 2f 3f eb 4a 0c 3f f3 73 5d bf 58 cf 8d 3e
       0.684636 0.54801816 -0.8650505 0.27697253
000180 7c 43 43 3f 07 63 a1 3f 1c a6 8c bf a1 91 8f 3e
       0.7627485 1.2608346 -1.0988193 0.28040794
000190 67 fd 1a bf 7e 91 99 3e 64 59 c9 3f a0 42 f9 3e
       -0.6054291 0.29993814 1.5730405 0.48683643
0001a0 36 21 03 40 be 06 04 3f c2 86 83 3e d5 36 e4 be
       2.048902 0.5157279 0.2568875 -0.44573084
0001b0 00 49 f0 be 57 98 a6 3e 16 0f 5f 3e 0a 9b c3 bf
       -0.46930695 0.325381 0.21783099 -1.5281689
0001c0 ad de 67 3f 69 49 49 be 0d ed c7 3d f1 26 9e 3f
       0.9057415 -0.1965691 0.09762011 1.2355634
0001d0 c1 18 44 bf eb b0 e9 be 0c 87 92 bf 88 f9 e1 bd
       -0.7660027 -0.4564279 -1.1447463 -0.110339224
0001e0 66 75 92 bf 0f 46 97 be d3 2e c3 be ef f7 06 3f
       -1.1442077 -0.29545638 -0.38121662 0.52722067
0001f0 49 d4 41 3f 09 2c 08 bf ab 92 b9 be 57 5d 1f bf
       0.75714546 -0.5319219 -0.3624471 -0.622518
000200 95 0a 14 3f bd 54 a9 bf 30 cf 75 3f f7 06 cc 3f
       0.57828647 -1.3228985 0.9601927 1.5939626
000210 e2 73 8d be b7 c2 9c bf cb 01 8e 3e be 10 43 3f
       -0.27627474 -1.2246922 0.27735743 0.7619742
000220 29 f0 b9 3d af ff 5c be a5 09 ce be b6 08 29 bf
       0.0907901 -0.2158191 -0.40241733 -0.66028917
000230 0c b3 a4 3f 3a 22 76 3f 8c 75 07 40 70 ee 6e be
       1.2867141 0.96145976 2.1165495 -0.23333144
000240 1d ee 06 bf ea d7 1c 3f c9 74 93 3d ab 0b bc 3e
       -0.5270708 0.6126696 0.072000094 0.36727652
000250 f1 10 2a bf 58 58 58 bf 01 4a 96 be 6b a7 98 3f
       -0.664321 -0.845098 -0.29353335 1.1926092
000260 c3 c9 ab 3f 23 16 32 bf f3 68 45 3f 51 14 bb bb
       1.3420948 -0.6956503 0.77113265 -0.005709209
000270 f3 39 e3 bf 22 b4 72 3e ce 5b fe bd 05 5c bb 3e
       -1.775206 0.23701528 -0.12419854 0.36593643
