gpcdx_rca/outputs/linear/model_best.pt (torch, 261474 bytes, 26 tensors)

A_ref_mean f4 [4, 4]
0.0 0.0 0.0 0.0 0.0 0.0 0.0 0.0
0.0 0.0 0.0 0.0 0.0 0.0 0.0 0.0
00000000: 0000 0000 0000 0000 0000 0000 0000 0000
00000010: 0000 0000 0000 0000 0000 0000 0000 0000
00000020: 0000 0000 0000 0000 0000 0000 0000 0000
00000030: 0000 0000 0000 0000 0000 0000 0000 0000

A_ref_var f4 [4, 4]
1.0 1.0 1.0 1.0 1.0 1.0 1.0 1.0
1.0 1.0 1.0 1.0 1.0 1.0 1.0 1.0
00000000: 0000 803f 0000 803f 0000 803f 0000 803f
00000010: 0000 803f 0000 803f 0000 803f 0000 803f
00000020: 0000 803f 0000 803f 0000 803f 0000 803f
00000030: 0000 803f 0000 803f 0000 803f 0000 803f

basis.mlp.0.weight f4 [32, 1]
0.7936696 0.87942123 -0.33617568 0.9513658 -0.25139377 0.2513338 -0.5236615 0.65159434
0.9274509 -0.77204627 0.903261 0.23833928 0.7672063 0.13543057 0.5156703 -0.17528364
0.8026411 0.14780891 -0.517603 0.38726464 -0.6124911 -0.15431532 -0.43586323 0.69805294
-0.82144994 -0.5006248 -0.32608724 -0.7294336 0.12682605 -1.0429312 0.9457931 -0.8896239
00000000: ee2d 4b3f c021 613f 381f acbe b68c 733f
00000010: afb6 80be d3ae 803e ae0e 06bf e3ce 263f
00000020: 6c6d 6d3f d3a4 45bf 1d3c 673f 360f 743e
00000030: a267 443f 50ae 0a3e f802 043f 8e7d 33be
00000040: e379 4d3f 385b 173e a181 04bf 8d47 c63e
00000050: 37cc 1cbf d604 1ebe 7729 dfbe 99b3 323f
00000060: 8b4a 52bf f228 00bf e8f4 a6be 29bc 3abf
00000070: b0de 013e c57e 85bf 7f1f 723f 64be 63bf

basis.mlp.0.bias f4 [32]
0.7562076 0.17890257 -0.24010079 0.6367793 0.21069899 0.7505455 0.15047294 -0.26750663
0.29024473 -0.25637063 0.46591255 0.83760804 0.58353794 -0.43717253 0.549909 0.23554537
0.53173596 -0.60950506 -0.9386305 -0.2595542 -0.6090488 0.8590594 0.34526774 0.4406065
0.36591107 0.0062071667 0.8280578 -0.57997894 0.08652161 -0.64429194 0.33711517 -0.32660508
00000000: d296 413f 3c32 373e fbdc 75be f803 233f
00000010: 7ac1 573e c023 403f 9415 1a3e a1f6 88be
00000020: f59a 943e 0343 83be 178c ee3e 7b6d 563f
00000030: be62 153f 14d5 dfbe d6c6 0c3f ce32 713e
00000040: d91f 083f 8608 1cbf 174a 70bf 4ae4 84be
00000050: 9fea 1bbf 51eb 5b3f efc6 b03e 2d97 e13e
00000060: b258 bb3e 7d65 cb3b 99fb 533f 8079 14bf
00000070: 3e32 b13d 51f0 24bf 5c9a ac3e c838 a7be

basis.mlp.2.weight f4 [1, 32]
-0.03833798 -0.040841952 0.12508632 -0.037693843 0.04437162 0.00067836605 0.04143395 -0.06576191
-0.038995497 0.05211935 -0.03799498 0.008677181 -0.037743144 0.0 -0.038145114 0.047013823
-0.037690293 0.0 0.026976388 -0.13281521 0.102636404 0.04627804 0.04426281 -0.037719045
0.04218064 0.04188849 0.048523948 0.10010477 -0.03723809 0.06720617 -0.03853053 0.05402498
00000000: 4908 1dbd e449 27bd a116 003e dc64 1abd
00000010: 04bf 353d 60d4 313a a5b6 293d 2eae 86bd
00000020: beb9 1fbd 197b 553d a0a0 1bbd bc2a 0e3c
00000030: 8e98 1abd 0000 0000 0d3e 1cbd 9191 403d
00000040: 2361 1abd 0000 0000 96fd dc3c b600 08be
00000050: 0933 d23d 0b8e 3d3d ec4c 353d 497f 1abd
00000060: 9bc5 2c3d 4493 2b3d 0cc1 463d bb03 cd3d
00000070: f886 18bd 63a3 893d 30d2 1dbd 4c49 5d3d

inference_net.gru.weight_ih_l0 f4 [384, 20]
-0.029178798 -0.0029245575 -0.103982516 -0.018479353 0.0141575355 -0.016690126 -0.058805343 -0.010555056
-0.056024708 -0.08192738 -0.0417124 -0.09804387 -0.048802752 0.08069771 0.017696586 0.057591505
-0.08151934 -0.035812505 -0.032378912 0.02050654 -0.055553466 -0.037992243 -0.064274766 -0.0022331267
-0.016727563 0.013107099 -0.042109195 -0.04427404 -0.039914317 -0.03453258 -0.049213123 0.07391195
0.008951817 0.06425479 0.0017694803 -0.055610675 0.05319191 -0.018740473 0.0054015154 -0.08424646
-0.09931194 -0.004832819 0.052172117 0.07237346 -0.05521962 0.060650606 -0.12319109 -0.04912141
-0.0063406792 0.016194329 -0.036482796 0.075071 -0.08830775 0.010784044 -0.075485885 -0.033692516
-0.05377957 0.09680426 -0.038932566 0.107577115 0.06478138 0.039798476 -0.033240598 0.113882184
0.029887786 0.013003246 -0.08690525 0.01867689 -0.02695159 -0.076583646 0.060514297 -0.010725991
-0.04824691 -0.06895125 -0.039536163 0.06807796 -0.05748979 -0.052619148 -0.01681508 -0.0686075
0.09988224 0.06827889 -0.08688161 0.043739263 0.047955275 -0.011931439 -0.047249656 0.02832016
0.031048888 0.015211277 -0.015176505 -0.042351674 -0.0032511165 -0.031356502 -0.040231235 0.08111956
0.05826538 -0.017696576 -0.03251954 0.015874598 0.006828617 -0.01864511 0.05061643 -0.08163476
0.0051876437 0.060029313 -0.0019720693 -0.043418624 -0.09775782 -0.08674208 -0.13022509 -0.061461654
-0.02437486 0.032849725 0.015673203 -0.10586514 -0.07285729 -0.04087423 0.0602199 0.009093401
-0.0031506263 0.027295688 -0.031441912 -0.05773005 0.07515849 -0.026282558 -0.024255754 -0.08177449
0.060049202 0.05881021 0.012320991 -0.045177944 -0.096706785 -0.07552649 0.046924878 -0.002510485
0.055839572 0.034126963 0.0196983 -0.0069929473 -0.063187994 -0.06001608 -0.08092219 0.04930691
-0.030984163 -0.049875952 -0.053589474 -0.032904822 -0.06827948 -0.055463053 0.041742902 -0.065806694
0.037253167 -0.05998676 -0.07334566 -0.00933701 -0.070812 -0.032535866 -0.06851921 -0.00036580226
-0.016174905 0.050838478 0.013697931 0.07401406 -0.06834598 0.043878615 -0.030415988 0.025605945
0.09707845 0.003703053 0.010034823 -0.0531376 -0.059373334 0.037009507 -0.06899466 0.09156706
0.04176808 0.07952562 -0.003899479 -0.07050387 0.023269523 0.046908014 -0.07809158 -0.027419982
-0.070915915 -0.006925228 -0.03450796 -0.022514872 -0.010296816 -0.063669905 0.056734238 0.07850841
0.002731143 0.01375471 -0.018392544 -0.06954285 -0.088761814 0.031556435 -0.052084412 -0.06718299
0.03830273 -0.073549636 0.017635398 -0.016416423 -0.024068166 -0.054961026 -0.0630255 -0.059530787
0.07836945 -0.02875371 -0.021545937 -0.015387005 -0.0073311515 0.075902805 0.031779036 -0.1317728
0.025352383 0.081130356 -0.0008255434 0.06707233 0.034505676 -0.035853792 0.038781017 -0.038722254
-0.006212269 0.08904919 0.021685477 -0.08230307 -0.08117535 -0.06097638 -0.117680736 -0.08760052
-0.023921771 0.06011929 -0.015288469 -0.0737602 -0.06898108 0.05788668 -0.037421104 0.015109878
0.045386128 -0.012064407 -0.0067932517 -0.034396306 -0.004908131 -0.09927578 -0.07484552 -0.07561902
-0.061615806 0.08354295 -0.021285307 -0.08366837 0.001779895 -0.012679297 0.05629376 0.102113396
00000000: 6008 efbc efa9 3fbb c9f4 d4bd 0362 97bc
00000010: 02f5 673c bbb9 88bc dfdd 70bd 1def 2cbc
00000020: 2a7a 65bd 8bc9 a7bd 9fda 2abd 39cb c8bd
00000030: 65e5 47bd d744 a53d 6ef8 903c 12e5 6b3d
00000040: 9df3 a6bd 22b0 12bd c09f 04bd 55fd a73c
00000050: 088c 63bd c19d 1bbd 7da2 83bd a659 12bb
00000060: 3e08 89bc 28bf 563c b17a 2cbd b258 35bd
00000070: 327d 23bd 0972 0dbd b393 49bd 265f 973d
00000080: a4aa 123c 0498 833d e8ed e73a 05c8 63bd
00000090: c3df 593d 9f85 99bc 32ff b03b 6889 acbd
000000a0: 0f64 cbbd a05c 9ebb 6eb2 553d 8938 943d
000000b0: f82d 62bd c56c 783d 9c4b fcbd 8833 49bd
000000c0: 79c5 cfbb f8a9 843c fc6e 15bd d3be 993d
000000d0: b2da b4bd 8faf 303c 5898 9abd 2a01 0abd
000000e0: f747 5cbd 5041 c63d c177 1fbd 6451 dc3d
000000f0: 1aac 843d ba03 233d 4b27 08bd 103b e93d
00000100: 3bd7 f43c 910b 553c 61fb b1bd 4700 993c
00000110: 95c9 dcbc e3d7 9cbd d7dd 773d 11bc 2fbc
00000120: 8d9e 45bd 5036 8dbd acf0 21bd 756c 8b3d
00000130: 6a7a 6bbd 2d87 57bd c7bf 89bc 1782 8cbd
00000140: 0f8f cc3d cdd5 8b3d fcee b1bd f127 333d
00000150: c06c 443d 157c 43bc db88 41bd aeff e73c
00000160: 3d5a fe3c b838 793c e0a6 78bc f378 2dbd
00000170: af10 55bb ad6f 00bd 82c9 24bd 0322 a63d
00000180: aea7 6e3d 69f8 90bc 3633 05bd 720b 823c
00000190: 97c2 df3b a1bd 98bc 2c53 4f3d 2030 a7bd
000001a0: 1cfd a93b 4ce1 753d d53d 01bb bad7 31bd
000001b0: 4035 c8bd d5a5 b1bd ba59 05be 37bf 7bbd
000001c0: c9ad c7bc 6f8d 063d 1765 803c d3cf d8bd
000001d0: 3436 95bd bd6b 27bd 24a9 763d 7dfc 143c
000001e0: bd7a 4ebb 359b df3c 3cc9 00bd 5876 6cbd
000001f0: b2ec 993d 854e d7bc 01b4 c6bc 6279 a7bd
00000200: 27f6 753d fae2 703d fbdd 493c 820c 39bd
00000210: 350e c6bd a2ad 9abd 4d34 403d f386 24bb
00000220: 09b8 643d b7c8 0b3d 545e a13c 1825 e5bb
00000230: b568 81bd 6cd3 75bd 88ba a5bd 0bf6 493d
00000240: 80d2 fdbc ba4a 4cbd a380 5bbd 35c7 06bd
00000250: 1dd6 8bbd 3a2d 63bd 9bfa 2a3d a9c5 86bd
00000260: c796 183d adb4 75bd 4036 96bd 42fa 18bc
00000270: e205 91bd 5444 05bd cd53 8cbd 26c9 bfb9
00000280: 3c81 84bc 023c 503d 496d 603c af94 973d
00000290: faf8 8bbd 10ba 333d f32a f9bc 8fc3 d13c
000002a0: 11d1 c63d ecae 723b 1969 243c d0a6 59bd
000002b0: 7431 73bd 4897 173d 134d 8dbd 8387 bb3d
000002c0: 0215 2b3d 54de a23d 678e 7fbb 5564 90bd
000002d0: ba9f be3c 9e22 403d 7aee 9fbd df9f e0bc
000002e0: 5d3c 91bd 06ed e2bb 3858 0dbd 1c71 b8bc
000002f0: fab3 28bc 5e65 82bd 2962 683d 04c9 a03d
00000300: fafc 323b 6f5b 613c f6ab 96bc 7b6c 8ebd
00000310: c1c8 b5bd 5241 013d 7756 55bd 3c97 89bd
00000320: 53e3 1c3d 31a1 96bd 1c78 903c bc7b 86bc
00000330: 9a2a c5bc d01e 61bd 8313 81bd 8ed6 73bd
00000340: 2a80 a03d e78c ebbc 1b81 b0bc c719 7cbc
00000350: 283a f0bb ee72 9b3d bc2a 023d 73ef 06be
00000360: cdaf cf3c ac27 a63d 4869 58ba 385d 893d
00000370: d355 0d3d 6ddb 12bd d8d8 1e3d 3a9b 1ebd
00000380: 4a90 cbbb 6c5f b63d bea5 b13c 838e a8bd
00000390: 433f a6bd 5ec2 79bd 9902 f1bd e767 b3bd
000003a0: 97f7 c3bc a53f 763d 7d7c 7abc 960f 97bd
000003b0: f445 8dbd 951a 6d3d df46 19bd 6c8f 773c
000003c0: cee6 393d caa9 45bc ed99 debb 24e3 0cbd
000003d0: 63d4 a0bb 1a51 cbbd 9c48 99bd 25de 9abd
000003e0: db60 7cbd 9118 ab3d 865e aebc 535a abbd
000003f0: 5e4b e93a d3bc 4fbc 4994 663d d420 d13d

inference_net.gru.weight_hh_l0 f4 [384, 128]
-0.08603996 -0.0294298 -0.009567629 -0.0073473174 0.001535175 -0.09542414 -0.061260745 -0.043673284
0.095086716 0.05055558 0.10629513 -0.048631977 0.036587432 -0.10169998 0.0796413 -0.019663008
0.018216763 -0.057849362 -0.06814001 -0.015242902 -0.034593355 -0.021425681 0.04247357 -0.03578125
0.0013502483 -0.056876816 0.041897286 -0.055337995 -0.08731391 -0.0040247515 -0.10122615 -0.071832046
0.06081073 0.07889259 -0.0868789 -0.0072242934 -0.026616786 0.07388991 0.027734397 0.0062855673
-0.04906854 -0.04586556 0.011080001 -0.05276941 -0.080048196 0.024084153 -0.070852704 -0.0019653693
0.025766538 0.018995455 -0.022325415 -0.069538176 -0.06214565 -0.03737254 0.077754594 -0.030772628
0.1129168 0.032276712 -0.0012853695 0.022660779 -0.10909718 -0.027211849 0.021292813 -0.022296645
0.09410496 -0.019251425 0.038527124 -0.024501469 -0.012227188 -0.066129856 -0.0035341226 0.03338798
0.049784 0.041965805 -0.049213387 0.009920699 0.088760704 0.0674775 0.006873738 -0.08883003
-0.024712903 0.030114831 0.05379559 -0.012725582 0.05053284 -0.048480324 0.0553697 -0.03608578
-0.046580628 -0.086177275 0.023978127 0.032349132 -0.074562185 0.04855346 0.06756344 0.029819803
0.06431336 -0.059929773 -0.042768896 0.046242207 0.066675395 -0.075356215 -0.05256861 0.039992146
-0.048631918 0.0942283 -0.03785759 0.028906774 0.071833655 0.0006498171 -0.030294416 -0.0004454075
-0.060139906 -0.016692879 -0.043001924 0.010657893 0.042713024 -0.07361543 0.054815747 0.07424642
0.03346147 0.05462805 -0.091185495 -0.052838076 -0.017033653 0.07189525 0.0725046 0.0014775243
0.11742025 0.0074638547 0.0109380875 -0.027265387 0.019310905 0.008434941 -0.10544087 -0.02564225
-0.08961891 -0.009887385 -0.03630215 0.094833225 0.027244085 -0.03712238 0.040673304 0.09797974
-0.032783013 0.016447032 0.02012232 -0.063431084 -0.036569823 -0.07063436 -0.017681545 0.09198235
-0.07127254 -0.015069577 -0.056673825 0.034916237 0.041884568 -0.0551134 0.034465224 0.030779557
-0.06510547 0.020671194 0.12965205 0.006706101 0.038565613 -0.0031295877 0.10686832 0.014970911
-0.0774074 -0.011927097 0.033866495 0.0113254925 -0.0030513385 0.011734899 0.025690755 0.11910704
-0.053709053 0.023168756 0.043498643 0.116324 0.057675123 -0.11860476 -0.052564297 -0.038302697
0.036744557 -0.08550827 0.008305098 0.004609972 -0.0002040719 0.039557196 -0.013970276 -0.040418334
-0.039979924 -0.016657973 -0.058744524 0.006861925 0.024451712 -0.053808365 0.04887277 -0.027461369
-0.0043065357 0.06947361 0.019190686 -0.008298136 0.014460016 -0.05337194 0.115524404 0.05115338
0.019980144 -0.047169704 0.103000626 -0.0953669 -0.04958349 -0.045104124 -0.030778717 0.039883975
-0.09141314 -0.06016207 0.0026220882 0.034484502 0.03722772 -0.01885132 -0.05134716 0.016314855
-0.0047292737 -0.070322394 0.099043414 0.027563184 -0.07760072 -0.00676272 -0.070583604 -0.030531691
0.041522864 -0.0062008314 0.026080709 -0.057284985 -0.024078002 0.019994842 -0.091694884 -0.071295284
0.029689673 -0.022333633 0.07399811 0.027556863 0.059820417 -0.0013787362 0.01086784 -0.008802914
0.015451611 0.007129822 -0.051113147 -0.07526459 0.112796985 -0.029700264 -0.049081217 0.07770606
00000000: b835 b0bd c416 f1bc 8bc1 1cbc c4c1 f0bb
00000010: ed37 c93a bb6d c3bd 8cec 7abd c2e2 32bd
00000020: d3bc c23d 5e13 4f3d 43b1 d93d 5332 47bd
00000030: b4dc 153d 1448 d0bd fa1a a33d 5114 a1bc
00000040: 523b 953c 74f3 6cbd fd8c 8bbd 5dbd 79bc
00000050: c3b1 0dbd e984 afbc c4f8 2d3d 5c8f 12bd
00000060: d1fa b03a aaf7 68bd 7d9c 2b3d 18aa 62bd
00000070: a3d1 b2bd 10e2 83bb a84f cfbd ae1c 93bd
00000080: ac14 793d 7092 a13d 91ed b1bd c4b9 ecbb
00000090: 720b dabc 9853 973d 3f33 e33c 29f7 cd3b
000000a0: 18fc 48bd 87dd 3bbd e488 353c bd24 58bd
000000b0: 4ff0 a3bd 214c c53c 391b 91bd 6dcd 00bb
000000c0: 5914 d33c 5b9c 9b3c cae3 b6bc 086a 8ebd
000000d0: 708c 7ebd f313 19bd cd3d 9f3d e116 fcbc
000000e0: ec40 e73d 9634 043d d879 a8ba 19a3 b93c
000000f0: 586e dfbd 62eb debc 446e ae3c 74a7 b6bc
00000100: 1aba c03d 2ab5 9dbc 9ece 1d3d 4eb7 c8bc
00000110: 8b54 48bc 176f 87bd bd9c 67bb d6c1 083d
00000120: 4fea 4b3d 56e4 2b3d fa93 49bd 6d8a 223c
00000130: 2cc8 b53d a531 8a3d 183d e13b 85ec b5bd
00000140: b772 cabc 61b3 f63c c458 5c3d f67e 50bc
00000150: 86fb 4e3d 4e93 46bd 57cb 623d afce 13bd
00000160: 54cb 3ebd b67d b0bd c76d c43c 8680 043d
00000170: 0fb4 98bd fedf 463d b35e 8a3d a948 f43c
00000180: b9b6 833d ec78 75bd 702e 2fbd 7868 3d3d
00000190: 1c8d 883d 5c54 9abd 2f52 57bd cece 233d
000001a0: 4332 47bd c4fa c03d 8f10 1bbd e6cd ec3c
000001b0: 861d 933d 7d58 2a3a ff2b f8bc 9585 e9b9
000001c0: 4355 76bd 81bf 88bc c922 30bd 719e 2e3c
000001d0: daf3 2e3d b0c3 96bd 7a86 603d 820e 983d
000001e0: e50e 093d aac1 5f3d 76bf babd bd6c 58bd
000001f0: 298a 8bbc d13d 933d 4b7d 943d 7da9 c13a
00000200: 077a f03d 5a93 f43b aa35 333c a95b dfbc
00000210: e731 9e3c b532 0a3c 62f1 d7bd b20f d2bc
00000220: 1e8a b7bd b3fe 21bc 90b1 14bd ec37 c23d
00000230: fd2e df3c a30d 18bd 0d99 263d 9aa9 c83d
00000240: 7b47 06bd edbb 863c 90d7 a43c 28e8 81bd
00000250: 3dca 15bd bfa8 90bd e3d8 90bc 3e61 bc3d
00000260: 56f7 91bd 63e6 76bc d022 68bd 5404 0f3d
00000270: 278f 2b3d 97be 61bd 682b 0d3d 6925 fc3c
00000280: 0456 85bd a356 a93c 82c3 043e dabe db3b
00000290: faf6 1d3d c519 4dbb c7dd da3d 8d48 753c
000002a0: c587 9ebd df69 43bc 98b7 0a3d 8f8e 393c
000002b0: f7f8 47bb bc43 403c 6b75 d23c 64ee f33d
000002c0: 06fe 5bbd 67cc bd3c a22b 323d 473b ee3d
000002d0: c03c 6c3d 0de7 f2bd a94d 57bd 4ae3 1cbd
000002e0: 7681 163d f61e afbd 1b12 083c 3f0f 973b
000002f0: 22fc 55b9 ba06 223d 96e3 64bc b28d 25bd
00000300: fdc1 23bd 4d76 88bc 199e 70bd 00da e03b
00000310: f54e c83c 2966 5cbd d02e 483d aaf6 e0bc
00000320: d71d 8dbb 2e48 8e3d c935 9d3c e8f4 07bc
00000330: b4e9 6c3c 899c 5abd 0f98 ec3d 3586 513d
00000340: 66ad a33c 0535 41bd fef1 d23d b94f c3bd
00000350: 0f18 4bbd 1abf 38bd a623 fcbc 615d 233d
00000360: d036 bbbd 816c 76bd 57d7 2b3b 9f3f 0d3d
00000370: 187c 183d 156e 9abc 6651 52bd bba6 853c
00000380: 06f8 9abb 3005 90bd 46d7 ca3d 30cc e13c
00000390: 20ed 9ebd cf99 ddbb 238e 90bd 991d fabc
000003a0: e113 2a3d 5830 cbbb 36a7 d53c a9a3 6abd
000003b0: 3b3f c5bc 39cc a33c 87ca bbbd 4303 92bd
000003c0: c237 f33c 06f5 b6bc 528c 973d eebe e13c
000003d0: 4106 753d b6b6 b4ba 060f 323c 193a 10bc
000003e0: c128 7d3c 48a1 e93b 055c 51bd 5224 9abd
000003f0: 1b02 e73d f84d f3bc 6309 49bd 5b24 9f3d

inference_net.gru.bias_ih_l0 f4 [384]
-0.011229815 0.08701472 0.014349081 -0.045023568 -0.023689907 0.050470084 0.05438524 0.038048085
-0.015733996 -0.010350847 0.042659394 -0.079564996 -0.07449821 0.110011086 -0.006003048 0.027289331
0.070413336 0.08648637 -0.11902193 -0.08724141 -0.060461868 -0.084027804 0.047081284 -0.0993693
0.048828572 0.041748036 0.07259645 0.03921966 0.009072363 -0.0785077 -0.01849356 -2.445999e-05
-0.01854951 -0.029090865 -0.07435686 0.053843644 -0.11200595 0.028681172 0.022402478 -0.0013518042
-0.08846394 0.096927896 0.010751904 -0.022104621 -0.11393063 0.0073405528 -0.054117538 0.011866098
0.10930026 0.0716164 0.002810241 -0.041805953 0.05771404 0.033270672 -0.06976141 0.00945651
0.09505595 0.04187464 0.04061504 -0.02510475 0.03990856 0.04217803 0.07628338 0.000844457
-0.046514645 0.07599496 0.05152535 -0.016836712 -0.0119814575 -0.036548443 -0.060619786 0.095472045
0.028542133 0.036535107 -0.06355114 -0.07293794 -0.043236207 0.06123371 0.102492094 0.04700157
-0.10831453 0.040259823 0.12138604 0.086283565 -0.032040596 0.011212059 0.04173637 -0.06822164
0.03201372 -0.06104243 0.075320385 0.0404779 0.027326548 -0.024968255 -0.026308876 0.0003242863
-0.0030123156 0.059864275 0.09528634 0.012149103 0.058738902 -0.10380678 -0.069911346 -0.017648011
0.065468155 0.05074713 -0.0873377 0.010323641 -0.06888351 -0.084543854 -0.006986063 -0.020568423
-0.0018258425 0.100611284 0.10504627 0.0654291 -0.024731793 0.016274652 -0.048156943 0.057842683
-0.09239183 0.07908578 -0.025137406 0.10897154 -0.06646306 0.07878345 0.022734104 0.053699084
-0.09638416 -0.0003993947 0.018231146 -0.009759339 0.00034538406 -0.05039381 -0.08801677 -0.0241363
-0.0068673394 -0.045601796 0.04250193 0.058805317 0.08670545 -0.08566246 -0.016486976 -0.120640725
-0.11942123 0.08374315 0.043871928 -0.015077756 7.313662e-05 0.028657867 -0.03584987 -0.07010257
0.049670506 0.022322511 0.020278314 -0.046072733 -0.051658917 -0.06491628 -0.08617244 -0.04712542
0.009814402 -0.00956448 -0.09093492 -0.046551745 0.0021330784 -0.103346586 -0.05311205 -0.02798661
0.044100076 -0.07835008 -0.034548953 0.038865972 -0.054236174 0.08335175 0.07496103 -0.052162986
0.019236151 0.083210796 -0.018298386 0.040544275 -0.07092938 0.07641136 0.052380122 -0.028760916
0.035538398 -0.006055022 -0.062025733 -0.07290279 -0.09612512 -0.06529647 -0.057609227 -0.014711509
-0.037800647 0.034901742 0.06926453 -0.029651403 -0.015582804 0.089186005 0.108753234 0.0687468
-0.06290441 0.006382493 0.0034533225 0.065821536 0.029118884 0.047762915 -0.021395804 0.034945976
-0.0678249 -0.05574384 -0.046501417 0.065746315 -0.023508482 0.057831645 -0.014310967 -0.012646756
0.020396437 -0.08277867 -0.058229644 -0.049999606 -0.020073166 0.028244654 -0.08604001 0.061246816
-0.0056166854 -0.08590298 -0.059332248 0.021241479 -0.13036717 0.012736232 0.06899641 -0.07625287
0.03359504 -0.065306276 0.0012474685 -0.00045778105 -0.020501882 -0.023130326 0.060402095 -0.05681731
-0.018936075 -0.031169994 -0.023355613 -0.010989012 -0.025209589 -0.06300752 -0.026484696 0.0542566
-0.02356907 0.07108564 -0.0040371725 -0.025235195 0.056560516 -0.018640213 -0.041142445 -0.011225887
00000000: 42fd 37bc c634 b23d 6818 6b3c a26a 38bd
00000010: 5611 c2bc b8b9 4e3d 0fc3 5e3d 4fd8 1b3d
00000020: 95e4 80bc 9996 29bc 9ebb 2e3d f9f2 a2bd
00000030: 8492 98bd 7e4d e13d 37b5 c4bb e08d df3c
00000040: de34 903d c41f b13d c5c1 f3bd a0ab b2bd
00000050: dda6 77bd c516 acbd 4ed8 403d 2282 cbbd
00000060: 7800 483d fdff 2a3d 73ad 943d cba4 203d
00000070: 40a4 143c a5c8 a0bd ce7f 97bc 6e2f cdb7
00000080: 24f5 97bc f74f eebc 6948 98bd 278b 5c3d
00000090: 6063 e5bd c7f4 ea3c 6785 b73c 062f b1ba
000000a0: 952c b5bd 2282 c63d c128 303c c014 b5bc
000000b0: 7654 e9bd 0589 f03b 5aaa 5dbd 066a 423c
000000c0: d1d8 df3d 9eab 923d 052c 383b b83c 2bbd
000000d0: 8f65 6c3d d446 083d 12df 8ebd 7aef 1a3c
000000e0: b2ac c23d be84 2b3d f55b 263d 7aa8 cdbc
000000f0: 2977 233d dfc2 2c3d 763a 9c3d 8d5e 5d3a
00000100: 2486 3ebd 3fa3 9b3d 3f0c 533d 25ed 89bc
00000110: e04d 44bc d2b3 15bd 744c 78bd d986 c33d
00000120: 31d1 e93c d6a5 153d 1a27 82bd 7d60 95bd
00000130: 7318 31bd 33d0 7a3d 60e7 d13d b884 403d
00000140: 02d4 ddbd 7ce7 243d 3e99 f83d 70b5 b03d
00000150: 003d 03bd c9b2 373c c2f3 2a3d cab7 8bbd
00000160: d220 033d a107 7abd 9341 9a3d 28cc 253d
00000170: eddb df3c 3a8a ccbc b685 d7bc f804 aa39
00000180: 456a 45bb 3e34 753d 7c25 c33d 080d 473c
00000190: 3498 703d a698 d4bd ae2d 8fbd 9092 90bc
000001a0: 2b14 863d 39dc 4f3d 1cde b2bd 7d24 293c
000001b0: cc12 8dbd 5425 adbd 58eb e4bb 1c7f a8bc
000001c0: 1c51 efba 4a0d ce3d 8022 d73d b1ff 853d
000001d0: 549a cabc 6b52 853c 3740 45bd 73ec 6c3d
000001e0: ee37 bdbd baf7 a13d f6ec cdbc 792c df3d
000001f0: c91d 88bd 3859 a13d df3c ba3c 92f3 5b3d
00000200: 0f65 c5bd d965 d1b9 7c59 953c a2e5 1fbc
00000210: aa14 b539 bd69 4ebd 2342 b4bd 7db9 c5bc
00000220: 6b07 e1bb f3c8 3abd 8116 2e3d d8dd 703d
00000230: a192 b13d cd6f afbd b20f 87bc 7c12 f7bd
00000240: 1e93 f4bd 8781 ab3d 0db3 333d b108 77bc
00000250: ed60 9938 e7c3 ea3c 50d7 12bd f091 8fbd
00000260: 4d73 4b3d b3dd b63c b51e a63c c3b6 3cbd
00000270: 4d98 53bd d4f2 84bd 2d7b b0bd 9606 41bd
00000280: 96cc 203c 56b4 1cbc 163c babd 0bad 3ebd
00000290: 1ecb 0b3b 60a7 d3bd 058c 59bd 2d44 e5bc
000002a0: 48a2 343d 0276 a0bd 3483 0dbd ed31 1f3d
000002b0: c026 5ebd 53b4 aa3d 2b85 993d dba8 55bd
000002c0: 2295 9d3c 6c6a aa3d 7fe6 95bc c111 263d
000002d0: 6c43 91bd 8f7d 9c3d 8a8c 563d 039c ebbc
000002e0: b690 113d 3569 c6bb b20e 7ebd 0f4e 95bd
000002f0: 3fdd c4bd 28ba 85bd a7f7 6bbd 8b08 71bc
00000300: dad4 1abd 21f5 0e3d 90da 8d3d 80e7 f2bc
00000310: 044f 7fbc 27a7 b63d 04ba de3d 1fcb 8c3d
00000320: 07d4 80bd 3b24 d13b 2351 623b 71cd 863d
00000330: ba8a ee3c 0ca3 433d 4146 afbc 8323 0f3d
00000340: c8e7 8abd a753 64bd 4578 3ebd 01a6 863d
00000350: dc94 c0bc e0e0 6c3d 8c78 6abc 5734 4fbc
00000360: 6e16 a73c dd87 a9bd 3582 6ebd 63cc 4cbd
00000370: 7b70 a4bc 5561 e73c bf35 b0bd f1dd 7a3d
00000380: 2c0c b8bb e7ed afbd 5f06 73bd 9c02 ae3c
00000390: f97e 05be a1ab 503c fd4d 8d3d 772a 9cbd
000003a0: f49a 093d 4cbf 85bd 1982 a33a 5502 f0b9
000003b0: 90f3 a7bc cf7b bdbc 3068 773d 45b9 68bd
000003c0: d41f 9bbc 3758 ffbc 4554 bfbc 420b 34bc
000003d0: 5784 cebc 160a 81bd 6ff6 d8bc 2b3c 5e3d
000003e0: ec13 c1bc 5995 913d 424a 84bb 0aba cebc
000003f0: 00ac 673d 5cb3 98bc fb84 28bd c8ec 37bc

inference_net.gru.bias_hh_l0 f4 [384]
-0.041262683 0.029210921 0.085775845 -0.013879882 0.03753179 -0.04325109 0.055587113 0.09704821
0.03302206 0.03507135 -0.06377998 -0.019382073 0.030704204 0.029874137 0.007858351 0.05874843
0.1171445 -0.036855742 -0.06059179 0.03363744 0.071613796 0.08218002 0.042355977 0.011509774
0.09833219 -0.043182444 0.11654868 -0.047390983 0.02311967 0.05000558 0.050663773 -0.038708005
-0.050650544 0.034433614 -0.06739391 -0.035619687 -0.008544683 -0.0019414065 0.07549603 -0.050912946
-0.050232023 -0.005736669 -0.019937595 0.05140725 -0.03153851 0.005974368 0.038434085 0.04085762
0.12499122 -0.037198763 -0.08888318 -0.01714786 0.023451345 -0.0017622802 -0.08414232 0.043692436
-0.023749158 -0.0022425517 0.028911222 0.05782222 -0.047438033 -0.016519818 -0.028910013 -0.011847739
0.055504616 -0.01865859 0.076022886 -0.033868026 -0.06463724 -0.02284182 -0.019554729 -0.0350441
0.036344353 0.011424506 -0.0044710925 0.007974364 -0.09801904 0.0035463276 0.01076384 0.008302399
-0.07162777 -0.048026368 -0.0052463114 0.073036395 -0.05264997 -0.013914467 -0.0782042 -0.073416196
0.007584173 0.025489869 0.033789206 -0.042782992 0.06327977 -0.05972224 0.026642332 0.049828615
-0.010006106 -0.045869853 0.004770027 -0.0020352101 0.058613528 -0.051687416 0.019306993 0.11978654
0.035419147 0.015254802 0.005978446 0.06395041 -0.045945726 -0.061210334 0.11129582 0.024921754
0.058441136 0.09417263 -0.0414463 0.049849417 0.06377124 -0.053315297 0.06639879 0.050742976
0.06369137 0.077731274 -0.06354007 -0.02532995 -0.08799434 -0.048997045 -0.0182318 0.0032930619
-0.030302456 -0.07728885 0.018217267 -0.03352177 0.08337391 -0.025909914 -0.005698019 -0.0704614
-0.09060444 -0.0704172 -0.041243754 0.02208647 -0.008356758 -0.016253335 -0.014623818 -0.05166135
-0.14439772 0.044085637 0.067681275 0.029948322 -0.07755631 0.015315447 -0.06434117 0.039158985
0.044347327 0.032755747 0.049909253 -0.084527485 0.0049189767 -0.010829615 -0.01691282 -0.06387059
-0.016399717 -0.15492357 0.034827422 -0.09756093 0.050526313 -0.11311692 -0.0019463554 -0.06455463
0.03697844 -0.0021484226 0.08552882 0.068119176 -0.007330138 0.048782244 0.016088547 -0.072660185
-0.011779726 -0.035918742 0.005823384 -0.02552785 -0.019219372 0.08875447 0.022109365 -0.05656081
0.046590403 0.058289703 -0.0081082545 -0.087363705 -0.063151315 0.05842126 -0.052330367 -0.026208514
0.06668249 0.067118555 -0.00265804 -0.046480633 -0.06507028 0.09317232 -0.021124886 -0.0009351174
0.08290717 0.032305706 0.019596243 0.008474645 -0.011433574 -0.06743961 -0.0021499165 0.034284156
-0.02407134 0.019708866 -0.06535765 -0.0071134255 0.022152128 0.0061962632 0.0012274699 -0.03467336
0.034814715 -0.045729384 -0.060675886 0.015321783 0.007670252 -0.05138938 -0.013367606 -0.0016433724
0.032313615 0.060398445 -0.10880248 -0.066436805 -0.13478184 -0.015279433 -0.015097169 -0.058742568
-0.054673754 0.019256452 0.09091912 0.018295804 0.019767603 -0.01551726 -0.093599275 0.00020348145
-0.008914908 -0.063662425 -0.16747467 -0.09908455 0.050539408 0.04708322 0.07675378 0.052873693
0.05684733 0.12385699 0.017410805 -0.02964919 0.06533992 -0.07574173 0.04976605 0.03360551
00000000: 0f03 29bd be4b ef3c 3fab af3d 7268 63bc
00000010: efba 193d 0e28 31bd 50af 633d 36c1 c63d
00000020: 2442 073d faa6 0f3d 149f 82bd 27c7 9ebc
00000030: 6287 fb3c 9bba f43c 50c0 003c 32a2 703d
00000040: 75e9 ef3d 0cf6 16bd 192f 78bd 6ac7 093d
00000050: 41aa 923d 004e a83d 767d 2d3d 7e93 3c3c
00000060: 6362 c93d 13e0 30bd 13b1 ee3d 0c1d 42bd
00000070: 7665 bd3c a7d2 4c3d d184 4f3d 498c 1ebd
00000080: f276 4fbd 430a 0d3d d105 8abd f3e5 11bd
00000090: 00ff 0bbc cb76 feba aa9d 9a3d 188a 50bd
000000a0: 18c0 4dbd abfa bbbb 2b54 a3bc 6990 523d
000000b0: 862e 01bd a2c4 c33b 0f6d 1d3d 525a 273d
000000c0: 66fb ff3d bb5d 18bd 6208 b6bd ab79 8cbc
000000d0: 091d c03c 50fc e6ba cf52 acbd d7f6 323d
000000e0: 988d c2bc c6f7 12bb 3ad7 ec3c fed6 6c3d
000000f0: 624e 42bd 9254 87bc b1d4 ecbc 051d 42bc
00000100: cf58 633d e6d9 98bc e3b1 9b3d 33b9 0abd
00000110: 8760 84bd c51e bbbc 3d31 a0bc 678a 0fbd
00000120: d1dd 143d da2d 3b3c 3e82 92bb e8a6 023c
00000130: 35be c8bd 8169 683b d15a 303c c906 083c
00000140: 95b1 92bd 4cb7 44bd 40e9 abbb 1b94 953d
00000150: 7fa7 57bd 81f9 63bc 8629 a0bd 3b5b 96bd
00000160: a884 f83b 21d0 d03c 8d66 0a3d 383d 2fbd
00000170: d398 813d 4f9f 74bd 0541 da3c 1719 4c3d
00000180: a7f0 23bc 07e2 3bbd e34d 9c3b 2961 05bb
00000190: bd14 703d 2fb6 53bd b329 9e3c a552 f53d
000001a0: ab13 113d 47ef 793c d7e6 c33b 6ff8 823d
000001b0: 9631 3cbd b0b7 7abd 10ef e33d b528 cc3c
000001c0: f95f 6f3d 94dd c03d 98c3 29bd e72e 4c3d
000001d0: 7f9a 823d 2461 5abd 17fc 873d ded7 4f3d
000001e0: 9f70 823d 9331 9f3d 4c21 82bd c180 cfbc
000001f0: 6036 b4bd 20b1 48bd db5a 95bc 69d0 573b
00000200: db3c f8bc 9e49 9ebd 613c 953c 204e 09bd
00000210: f1bf aa3d 0741 d4bc 73b6 babb 114e 90bd
00000220: d28e b9bd e536 90bd 36ef 28bd afee b43c
00000230: c9ea 08bc b725 85bc bd98 6fbc da9a 53bd
00000240: ffdc 13be 2493 343d 7b9c 8a3d 2f56 f53c
00000250: d8d5 9ebd a4ed 7a3c 4ec5 83bd 2c65 203d
00000260: 8ba5 353d e42a 063d a56d 4c3d bf1c adbd
00000270: 5e2f a13b b36e 31bc c18c 8abc 95ce 82bd
00000280: b358 86bc 49a4 1ebe 33a7 0e3d 06ce c7bd
00000290: aef4 4e3d d8a9 e7bd da1c ffba 3835 84bd
000002a0: b476 173d 8dcc 0cbb bc29 af3d 1182 8b3d
000002b0: a731 f0bb e4cf 473d 21cc 833c ddce 94bd
000002c0: c0ff 40bc 881f 13bd 16d2 be3b c81f d1bc
000002d0: f271 9dbc e7c4 b53d b31e b53c 4fac 67bd
000002e0: 94d5 3e3d 2fc1 6e3d 7cd8 04bc beeb b2bd
000002f0: 7a55 81bd 224b 6f3d 5e58 56bd 3db3 d6bc
00000300: d490 883d 7475 893d 8332 2ebb 7a62 3ebd
00000310: 9143 85bd 21d1 be3d 190e adbc ab22 75ba
00000320: 3ccb a93d fd52 043d 4d88 a03c 3dd9 0a3c
00000330: e353 3bbc c71d 8abd 9de5 0cbb 8b6d 0c3d
00000340: 4231 c5bc 7d74 a13c 3bda 85bd bd17 e9bb
00000350: 6178 b53c 060a cb3b 0ee3 a03a a705 0ebd
00000360: e099 0e3d bc4e 3bbd 4787 78bd 3708 7b3c
00000370: bd56 fb3b ac7d 52bd ce03 5bbc 6d66 d7ba
00000380: 485b 043d 5c64 773d d6d3 debd 0510 88bd
00000390: 4004 0abe 9656 7abc 1e5a 77bc 0c9c 70bd
000003a0: 96f1 5fbd b5bf 9d3c ce33 ba3d 15e1 953c
000003b0: abef a13c 1b3c 7ebc fab0 bfbd a35d 5539
000003c0: d60f 12bc 7261 82bd 7b7e 2bbe d7ec cabd
000003d0: 6902 4f3d 56da 403d 1631 9d3d 1692 583d
000003e0: bfd8 683d bca8 fd3d 1ba1 8e3c dce2 f2bc
000003f0: f0d0 853d 7b1e 9bbd 7cd7 4b3d eea5 093d

inference_net.h_bottleneck.0.weight f4 [8, 128]
-0.0035888152 -0.010154632 -0.08758596 0.038218156 -0.045498285 0.06410658 -0.01586024 0.082968995
-0.006796975 0.09561905 -0.044760242 0.03298063 -0.01893821 0.06014053 0.07471865 0.04999748
-0.028526261 0.043600366 0.0853557 0.002337697 -0.029930184 -0.0006115775 -0.007628526 0.032325115
-0.02842629 0.06854244 -0.05683809 0.040462025 0.06044591 -0.044731434 0.001598451 0.010650531
-0.018155582 -0.0708811 -0.06491623 -0.023626564 -0.054042105 0.061019734 0.014171307 0.04927562
0.055358067 -0.11079416 0.02199858 -0.006356679 0.014606168 0.07525231 -0.07117741 -0.027450118
-0.07692229 -0.07634102 -0.0660818 0.08124729 -0.046454933 -0.0074449177 0.05920362 0.050440412
-0.08493985 -0.012026628 -0.09498618 0.028660184 0.067550845 -0.07727511 0.05252915 0.07714175
-0.033118732 0.05659216 -0.082199685 -0.032153636 -0.0007611727 0.016328609 0.05153272 -0.030035267
0.03764207 0.024668926 0.04297455 0.053905845 0.027331049 0.024878193 0.044007897 -0.034323487
0.055516176 -0.036891963 0.08558756 0.020044876 -0.035463165 0.026852844 -0.021598933 0.09186381
-0.038011614 0.02761971 -0.05060022 0.05524478 0.06756586 0.036022626 -0.0077451323 0.014796411
0.019151928 -4.4613764e-05 0.05153797 0.001970726 -0.035797585 0.011986699 -0.010831292 0.055888187
-0.052979648 0.0028457681 -0.039263386 0.022338582 0.053938862 0.009844791 -0.059342284 -0.08828753
0.011826852 -0.055461273 0.041239053 -0.06671665 0.01175438 -0.03277827 -0.017787458 0.03590149
-0.045616217 -0.030327536 -0.05558008 -0.023512114 -0.006374744 -0.025826188 0.07299788 0.05944739
0.057700124 -0.05606097 -0.045711804 -0.03757015 0.0033158686 -0.034402568 -0.02580629 0.018976286
0.06370976 -0.046227407 0.098052785 0.054424576 0.017568672 -0.05958507 0.009442056 0.03498657
-0.034075532 -0.05726458 0.015818324 -0.07263822 0.05586869 -0.0029105733 -0.043355737 -0.04180715
-0.044240057 0.0051029925 0.05182007 0.067314655 0.020129154 0.030516189 0.05265833 0.076898955
0.054068968 0.05647732 -0.058591392 -0.06643011 -0.045317233 -0.012282093 0.025130069 -0.052694645
-0.03309207 -0.05924982 0.06722447 -0.035776902 0.017657561 -0.078830585 -0.00069684105 -0.07263716
-0.012474647 -0.007930009 -0.037536826 0.086592704 -0.048242684 -0.013805898 0.0016196603 0.06395224
-0.06666739 -0.060189325 -0.012421884 0.0290215 -0.0008894901 0.03014353 0.028039604 0.07744324
0.060545467 -0.031009244 -0.08609754 -0.06081467 -0.05950361 0.024518646 0.055923972 0.08288888
0.03425605 0.0026956603 -0.040869907 0.030110708 0.031830803 0.02532985 0.060872626 0.043105144
0.033906862 0.018203191 -0.005728812 0.034424968 -0.04683314 0.042088963 -0.049496718 0.058964808
-0.04370511 -0.03072989 0.019227132 -0.030411111 0.015055491 -0.0017132146 -0.02310317 -0.0061595337
-0.009428659 -0.04640331 0.044923324 -0.047409736 0.04150511 -0.0082971975 -0.055140033 -0.026545737
-0.052021287 0.025506707 -0.06558008 0.013206652 0.06555077 0.03677436 0.044679146 0.0740281
-0.013143172 0.051960796 0.06281624 -0.07390702 -0.08032078 0.016964953 0.06112702 -0.07044312
-0.0038219064 -0.06436958 0.002077578 -0.029569238 -0.043527145 -0.08457603 0.05603802 0.07230334
00000000: 5432 6bbb 9d5f 26bc 4560 b3bd a48a 1c3d
00000010: 695c 3abd 504a 833d 56ed 81bc a6eb a93d
00000020: 29b9 debb ecd3 c33d 8456 37bd b216 073d
00000030: 4e24 9bbc eb55 763d 1706 993d 28ca 4c3d
00000040: e8af e9bc 4c96 323d f8ce ae3d 0c34 193b
00000050: 2530 f5bc 4552 20ba b7f8 f9bb 5767 043d
00000060: 40de e8bc fb5f 8c3d 0fcf 68bd 82bb 253d
00000070: 2196 773d 4f38 37bd 1e83 d13a 917f 2e3c
00000080: 04bb 94bc 1c2a 91bd cdf2 84bd 7f8c c1bc
00000090: 415b 5dbd d4ef 793d c52e 683c 3cd5 493d
000000a0: 24bf 623d 0ce8 e2bd 5e36 b43c b04b d0bb
000000b0: b54e 6f3c e21d 9a3d 76c5 91bd 12df e0bc
000000c0: 6f89 9dbd ae58 9cbd e555 87bd fb64 a63d
000000d0: 8747 3ebd 7ff4 f3bb 7f7f 723d 9b9a 4e3d
000000e0: f2f4 adbd 550b 45bc 1d88 c2bd c3c8 ea3c
000000f0: 1958 8a3d 6a42 9ebd ce28 573d 7efc 9d3d
00000100: 82a7 07bd 2ecd 673d 4f58 a8bd 88b3 03bd
00000110: 6f89 47ba 93c3 853c f913 533d 850c f6bc
00000120: 922e 1a3d 7d16 ca3c 1506 303d 60cc 5c3d
00000130: 5de5 df3c 5acd cb3c a041 343d c996 0cbd
00000140: ee64 633d 071c 17bd 8848 af3d 2735 a43c
00000150: d341 11bd 7ffa db3c 3ff0 b0bc 1823 bc3d
00000160: 11b2 1bbd bb42 e23c 2d42 4fbd 5a48 623d
00000170: f85f 8a3d 768c 133d e1ca fdbb a56c 723c
00000180: 81e4 9c3c aa1f 3bb8 7a19 533d 4c27 013b
00000190: 7da0 12bd dc63 443c bb75 31bc 03eb 643d
000001a0: 3001 59bd 1180 3a3b a5d2 20bd 67ff b63c
000001b0: ffee 5c3d 0c4c 213c e510 73bd 18d0 b4bd
000001c0: 6ac5 413c 5c2b 63bd 48ea 283d bda2 88bd
000001d0: 7195 403c 8242 06bd 01b7 91bc 710d 133d
000001e0: 12d8 3abd 7471 f8bc f0a7 63bd 7a9c c0bc
000001f0: 3be3 d0bb 7191 d3bc ea7f 953d 1b7f 733d
00000200: f756 6c3d 30a0 65bd 4d3c 3bbd 28e3 19bd
00000210: 0b4f 593b b5e9 0cbd b667 d3bc 2874 9b3c
00000220: 437a 823d f358 3dbd e6cf c83d 4eec 5e3d
00000230: 2dec 8f3c 790f 74bd dab2 1a3c 144e 0f3d
00000240: c992 0bbd 448e 6abd 6e95 813c 59c3 94bd
00000250: 91d6 643d 51bf 3ebb c995 31bd f93d 2bbd
00000260: 1035 35bd 0137 a73b 4841 543d 44dc 893d
00000270: e5e5 a43c 16fd f93c 43b0 573d 337d 9d3d
00000280: 6c77 5d3d c354 673d 87fd 6fbd 820c 88bd
00000290: 909e 39bd d53a 49bc 93dd cd3c 57d6 57bd
000002a0: 8d8b 07bd f0af 72bd fcac 893d cd8a 12bd
000002b0: 97a6 903c ee71 a1bd 36ac 36ba cbc2 94bd
000002c0: 7662 4cbc deec 01bc 37c0 19bd 8457 b13d
000002d0: 1f9a 45bd 2232 62bc c84a d43a 64f9 823d
000002e0: ea88 88bd 1589 76bd 2885 4bbc 7fbe ed3c
000002f0: ac2c 69ba 90ef f63c 50b3 e53c 909a 9e3d
00000300: 86fe 773d 1907 febc e853 b0bd ce18 79bd
00000310: 0fba 73bd 54db c83c 8910 653d a5c1 a93d
00000320: 1250 0c3d ada9 303b 3467 27bd bbaa f63c
00000330: 0461 023d 8c80 cf3c 9355 793d 058f 303d
00000340: ece1 0a3d dc1e 953c c2b8 bbbb 3201 0d3d
00000350: 1bd4 3fbd 7a65 2c3d 12bd 4abd 1585 713d
00000360: 2104 33bd 40bd fbbc 3882 9d3c b920 f9bc
00000370: 4eab 763c f18d e0ba dc42 bdbc ead5 c9bb
00000380: aa7a 1abc 6611 3ebd 8501 383d b630 42bd
00000390: 4301 2a3d f8f0 07bc 84da 61bd 7276 d9bc
000003a0: 4614 55bd 71f3 d03c d94e 86bd b760 583c
000003b0: 7b3f 863d b6a0 163d 7b01 373d 0b9c 973d
000003c0: 7556 57bc d8d4 543d cda5 803d 905c 97bd
000003d0: 397f a4bd 16fa 8a3c 5360 7a3d 7c44 90bd
000003e0: f378 7abb 33d4 83bd fa27 083b 303b f2bc
000003f0: 8549 32bd 3336 adbd 1f88 653d c613 943d

inference_net.h_bottleneck.0.bias f4 [8]
0.0028883957 -0.06482628 0.054283667 -0.051749267 -0.046684552 0.037734423 -0.07828005 -0.072622046
00000000: 3d4b 3d3b a4c3 84bd 8d58 5e3d 0af7 53bd
00000010: 4d38 3fbd 698f 1a3d 4a51 a0bd deba 94bd

inference_net.e_out.weight f4 [4, 16]
1.2514966 -0.6133616 -1.2321409 0.7747079 1.0173455 -0.7865843 0.993172 2.0938172
0.93926287 -0.77774775 0.6459016 0.510387 -1.1045859 -0.6526148 0.46298936 -0.47710618
-0.7213842 1.862092 -0.38383853 -1.3785843 1.4342766 -1.7984188 0.80814254 0.3765403
-0.5810311 0.59534127 0.6165439 2.1773152 0.7694699 2.6448638 0.41740486 1.1061654
-1.0658714 1.0357422 -0.23370749 0.6041446 0.87829584 0.26764366 1.6378647 0.10765935
-0.3096817 -2.2059996 -1.4500021 -0.8946381 0.78579605 0.73962307 1.6896117 -0.5870147
2.5703208 -0.9296804 -1.8708327 -0.2940426 1.2910043 -0.6422579 0.31608075 -2.1187367
-0.40852988 1.5893841 -1.0633003 0.355197 -0.110020824 -0.8065956 -1.2260894 0.5930786
00000000: 0a31 a03f 4405 1dbf cbb6 9dbf 4253 463f
00000010: 6138 823f 975d 49bf 8540 7e3f 1a01 0640
00000020: 8873 703f 7a1a 47bf cf59 253f b9a8 023f
00000030: 1263 8dbf c311 27bf f10c ed3e 4347 f4be
00000040: a3ac 38bf 0859 ee3f 7c86 c4be 7375 b0bf
00000050: 6096 b73f 9632 e6bf 6ee2 4e3f e4c9 c03e
00000060: 74be 14bf 4968 183f d2d5 1d3f 2259 0b40
00000070: fbfb 443f 7345 2940 17b6 d53e d496 8d3f
00000080: 796e 88bf 3393 843f 0451 6fbe 38a9 1a3f
00000090: ffd7 603f 9708 893e 8da5 d13f 817c dc3d
000000a0: 9a8e 9ebe 192f 0dc0 ab99 b9bf 0107 65bf
000000b0: ee29 493f f057 3d3f 3245 d83f 9846 16bf
000000c0: 2380 2440 89ff 6dbf 7277 efbf c08c 96be
000000d0: a13f a53f 046b 24bf 56d5 a13e 6299 07c0
000000e0: d42a d1be f070 cb3f 391a 88bf 62dc b53e
000000f0: 9952 e1bd 0d7d 4ebf 7ff0 9cbf 00d4 173f

inference_net.e_in.weight f4 [4, 16]
1.4132105 -1.7188016 0.81659794 -0.74963665 -0.78065836 -0.92975754 -1.3125925 1.3113106
-0.054624002 -0.17171302 0.70956767 -0.21214893 -0.6298182 -0.79506445 -0.1528686 1.0357671
-0.6743045 1.8927017 -0.6050717 0.008220772 -3.1596367 -0.66596425 -0.43502238 -0.17641708
2.05916 -0.668478 -0.7972124 -0.44473922 0.9780585 0.46596953 1.552543 0.66356134
1.9709058 -0.7291493 0.14003354 0.8785143 -1.3644857 -0.9075162 -0.14261071 0.3965408
-0.08172784 -0.79812354 0.28747666 -1.3639439 -0.9578094 0.7455684 0.47153607 -1.0134628
0.07538642 0.22108452 -0.13495022 0.25779712 -2.0979483 -0.674045 0.771716 -0.3422252
-1.2321551 -1.0120107 0.32089767 -0.11516407 0.77777135 -1.1441165 0.01738085 -1.5821173
00000000: 15e4 b43f b101 dcbf 900c 513f 30e8 3fbf
00000010: 3ad9 47bf 9704 6ebf 0803 a8bf 07d9 a73f
00000020: 6bbd 5fbd 8ad5 2fbe 3aa6 353f 923d 59be
00000030: c43b 21bf 5889 4bbf 9689 1cbe 0494 843f
00000040: 389f 2cbf 0d44 f23f fbe5 1abf 6bb0 063c
00000050: 7d37 4ac0 a27c 2abf 41bb debe aea6 34be
00000060: 47c9 0340 6021 2bbf 1d16 4cbf dcb4 e3be
00000070: 0b62 7a3f 8f93 ee3e bbb9 c63f 28df 293f
00000080: a446 fc3f 87a9 3abf f464 0f3e 50e6 603f
00000090: 78a7 aebf fb52 68bf 8b08 12be 6507 cb3e
000000a0: ed60 a7bd d351 4cbf 2430 933e b795 aebf
000000b0: ff32 75bf 92dd 3e3f 2d6d f13e 26b9 81bf
000000c0: 3264 9a3d fb63 623e 6430 0abe fcfd 833e
000000d0: c944 06c0 378e 2cbf 2e8f 453f 2438 afbe
000000e0: 42b7 9dbf 9189 81bf b34c a43e 24db ebbd
000000f0: 061c 473f 6972 92bf 4962 8e3c d282 cabf

inference_net.e_lag.weight f4 [5, 16]
2.187512 -0.7876503 0.80139863 -1.4015324 -0.26464355 -2.375429 -0.13287148 -0.106984414
-2.2158215 0.8931021 -1.2415051 -0.41714567 -0.7383786 1.5368081 0.41587803 -0.0857244
-0.28454703 -1.1695894 -0.7447201 0.60072505 -1.1493716 1.2555454 0.703174 -0.06807535
1.4291757 -2.6919558 0.54297304 2.5696456 0.38792536 0.049349625 -0.7468027 -0.41569653
-0.41358545 0.26023313 -1.002251 0.57861704 0.8854198 0.24947761 0.18436396 0.7396588
-0.33076122 -0.81108665 0.7278138 -1.2514399 0.31261232 0.6662289 2.0462592 0.7912469
0.3146588 -1.010843 0.9636734 1.3237139 0.28103235 0.18960589 1.2118394 1.7925982
-1.419205 0.34906453 0.22038364 0.6538833 2.6849463 -0.30667895 -0.8720366 0.110504426
-0.07743583 -1.5317624 1.0885558 -1.6672984 0.7061328 0.45547968 -1.0375797 -1.1436728
0.0041250708 -1.2980376 1.1531185 -1.1148843 1.2457094 0.5680352 1.2690576 -0.45881206
00000000: 3200 0c40 73a3 49bf 7628 4d3f 6a65 b3bf
00000010: 5c7f 87be 0707 18c0 760f 08be a51a dbbd
00000020: 05d0 0dc0 57a2 643f a4e9 9ebf 1e94 d5be
00000030: 6106 3dbf 21b6 c43f f7ed d43e 4690 afbd
00000040: 26b0 91be 1bb5 95bf faa5 3ebf 1ec9 193f
00000050: 9c1e 93bf b6b5 a03f 3603 343f 176b 8bbd
00000060: 3bef b63f 0149 2cc0 4800 0b3f 1375 2440
00000070: 279e c63e d522 4a3d 762e 3fbf 2dd6 d4be
00000080: 79c1 d3be 473d 853e c349 80bf 3f20 143f
00000090: dfaa 623f 0f77 7f3e e8c9 3c3e 475a 3d3f
000000a0: 8959 a9be 60a3 4fbf 0152 3a3f 2f2f a0bf
000000b0: b90e a03e fa8d 2a3f e9f5 0240 288f 4a3f
000000c0: f51a a13e 4e63 81bf 4db3 763f 756f a93f
000000d0: 79e3 8f3e 0c28 423e 8e1d 9b3f dc73 e53f
000000e0: 82a8 b5bf 96b8 b23e 40ac 613e e564 273f
000000f0: 29d6 2b40 0605 9dbe ca3d 5fbf 2550 e23d
00000100: ad96 9ebd ca10 c4bf cc55 8b3f 096a d5bf
00000110: 1fc5 343f a234 e93e 69cf 84bf df63 92bf
00000120: 9a2b 873b 1926 a6bf 6399 933f 87b4 8ebf
00000130: 6873 9f3f c16a 113f 7b70 a23f 6ae9 eabe

inference_net.h_proj.weight f4 [64, 8]
0.16499868 -0.28203022 -0.1557219 -0.14670634 0.35421512 0.31688264 -0.2236452 0.011352211
-0.18632337 -0.324217 0.12620538 0.074184924 -0.34094903 0.042531405 -0.2268078 0.10891985
0.3496272 0.060454242 -0.30764022 -0.14778143 0.12964723 -0.08516254 -0.18030225 -0.26819292
0.03959729 0.28031567 0.016379513 -0.30205986 -0.18723127 0.21171512 -0.2762433 0.066146456
0.18943737 0.0073840907 0.3130538 0.17702012 0.38058168 -0.3158394 -0.20953913 0.1931872
-0.030250628 0.20072311 -0.08079448 -0.0759662 -0.2080671 0.046306647 -0.13165279 -0.09590821
0.1657658 0.27814525 -0.025441287 0.12605484 0.1407782 -0.23464002 -0.2724977 -0.062209107
-0.24327463 0.25319588 0.12998633 -0.3466491 0.33570215 -0.1415258 -0.028672658 -0.080113485
0.20386882 -0.16272269 -0.04245022 -0.25260246 -0.17665058 0.3400212 -0.026586074 -0.22372055
-0.18967707 -0.07781304 0.32959127 0.045124903 -0.16893789 -0.17953111 0.28801835 0.029985717
-0.011254985 0.10677302 0.20209444 -0.27346992 -0.23781122 0.1390418 0.1701394 -0.09242858
0.18521442 -0.20136909 -0.20569108 -0.17551468 -0.26907066 0.34371918 0.2875418 -0.15899162
0.17249584 -0.12532628 0.3806058 -0.23541799 0.39208755 0.1969946 0.077788785 -0.13357717
0.3586912 0.23488548 0.37142226 -0.26163897 -0.22586578 -0.097652435 -0.03636122 -0.29824835
-0.02604136 0.036193095 0.23986192 0.316717 0.09365288 0.32219005 -0.3050705 -0.22804673
-0.124414966 -0.18603262 -0.15373783 0.0072824904 0.023188122 -0.0362501 -0.17023417 0.2932362
-0.10536308 0.20018104 -0.24076062 0.16071321 0.13076721 -0.021821132 -0.018369403 0.11783252
0.22552724 0.2799332 -0.30901435 0.28774977 0.15166341 0.082627796 0.052934676 0.1963231
-0.041875374 0.14287482 -0.24029095 -0.19902687 0.17843148 -0.31929323 0.34532395 0.06576994
-0.034190897 -0.27832338 0.07667904 0.3176237 -0.17210464 -0.044821598 0.34578642 0.1904691
0.35411412 -0.16558184 0.052463833 0.18171418 -0.07494323 -0.27282575 0.2971511 -0.3396516
-0.2038391 -0.022392027 0.32568437 -0.09691428 -0.29366368 -0.025654966 -0.24662359 0.18867561
-0.23823757 0.1367457 0.36631772 0.22186302 0.014602844 0.16346389 -0.31212804 0.14823149
-0.031063808 -0.33631137 -0.30650485 -0.23003232 -0.27395564 0.31592607 0.28051746 0.1897203
0.2967096 -0.02837351 -0.34592795 0.06856348 0.05923265 -0.1733185 0.23268445 -0.14490806
0.051051736 -0.22246704 -0.22013874 0.02836633 0.4145096 0.34152722 -0.07777282 0.121543996
-0.25727847 -0.18218167 0.29470405 0.051195413 0.095430724 0.0317017 -0.13608083 0.27736378
0.36203468 0.13669729 0.3643703 0.11193901 0.29212737 -0.21766539 0.11642584 -0.24075706
-0.027544897 -0.20784834 0.14974979 -0.32381812 -0.080918424 -0.13371132 0.22052073 -0.2470639
-0.18066715 0.26826537 0.14107889 0.280455 0.2973389 -0.20814471 0.08656151 -0.26467782
-0.076793246 -0.048796967 -0.12758912 0.07946958 0.08910145 0.081846565 0.18718456 -0.030465836
0.30536997 0.0056261546 0.24610716 0.2693965 0.34580007 -0.1788332 -0.115195885 -0.27949032
00000000: 6af5 283e 4466 90be 9075 1fbe 303a 16be
00000010: af5b b53e 713e a23e 3f03 65be a0fe 393c
00000020: 8ecb 3ebe c5ff a5be fc3b 013e 44ee 973d
00000030: df90 aebe 6935 2e3d 4e40 68be 5f11 df3d
00000040: 5602 b33e de9e 773d 0583 9dbe 0454 17be
00000050: 3ec2 043e b369 aebd 27a1 38be 9550 89be
00000060: c530 223d 8985 8f3e 542e 863c 97a7 9abe
00000070: 8eb9 3fbe d9cb 583e c36f 8dbe cb77 873d
00000080: dffb 413e 3ef6 f13b 9648 a03e c344 353e
00000090: 9adb c23e b4b5 a1be 6d91 56be ded2 453e
000000a0: 2ad0 f7bc 5c8a 4d3e 9477 a5bd 2b94 9bbd
000000b0: 8b0f 55be 0aac 3d3d fdcf 06be 866b c4bd
000000c0: 83be 293e 0e69 8e3e 3f6a d0bc 8514 013e
000000d0: 2928 103e 7945 70be d284 8bbe face 7ebd
000000e0: fc1c 79be e4a2 813e 231b 053e fe7b b1be
000000f0: 27e1 ab3e 24ec 10be ece2 eabc 8a12 a4bd
00000100: fdc2 503e c7a0 26be 48e0 2dbd 1c55 81be
00000110: e4e3 34be 4217 ae3e 0acb d9bc 0017 65be
00000120: b53a 42be 715c 9fbd 30c0 a83e e4d4 383d
00000130: 0efe 2cbe 01d7 37be 2477 933e 9ba4 f53c
00000140: d466 38bc d0ab da3d d8f1 4e3e 4004 8cbe
00000150: c984 73be f960 0e3e 0639 2e3e 324b bdbd
00000160: d9a8 3d3e b333 4ebe afa0 52be 1fba 33be
00000170: a1c3 89be f6fb af3e ae38 933e b3ce 22be
00000180: c0a2 303e 8855 00be c3de c23e 6a11 71be
00000190: b3bf c83e f4b8 493e ba4f 9f3d 74c8 08be
000001a0: 5fa6 b73e d285 703e 0f2b be3e 8bf5 85be
000001b0: 5c49 67be 00fe c7bd 81ef 14bd 02b4 98be
000001c0: b154 d5bc 363f 143d 5d9e 753e bb28 a23e
000001d0: 15cd bf3d 18f6 a43e 3332 9cbe 1585 69be
000001e0: 46cd febd 567f 3ebe 736d 1dbe f5a1 ee3b
000001f0: 04f5 bd3c fc7a 14bd de51 2ebe 0e23 963e
00000200: 99c8 d7bd 42fc 4c3e f489 76be 0192 243e
00000210: d7e7 053e 3bc2 b2bc 6e7b 96bc 2d52 f13d
00000220: 9df0 663e 6853 8f3e 2137 9ebe f053 933e
00000230: a74d 1b3e c338 a93d 08d2 583d ec08 493e
00000240: 8385 2bbd c74d 123e d50e 76be b3cd 4bbe
00000250: beb6 363e 677a a3be 4dce b03e 64b2 863d
00000260: c10b 0cbd 6780 8ebe e709 9d3d 939f a23e
00000270: 333c 30be da96 37bd eb0a b13e 550a 433e
00000280: 724e b53e 498e 29be 51e4 563d 4813 3a3e
00000290: d67b 99bd d1af 8bbe 3024 983e d1e6 adbe
000002a0: 32bb 50be 7c6f b7bc 1ac0 a63e fe7a c6bd
000002b0: 165b 96be 5d2a d2bc e58a 7cbe 2e34 413e
000002c0: 8df4 73be 1107 0c3e ff8d bb3e 0f30 633e
000002d0: c440 6f3c 1463 273e 3fcf 9fbe ffc9 173e
000002e0: 8779 febc 0131 acbe 34ee 9cbe 988d 6bbe
000002f0: ea43 8cbe 10c1 a13e fc9f 8f3e 0a46 423e
00000300: 52ea 973e 906f e8bc 781d b1be 036b 8c3d
00000310: ef9d 723d 687a 31be d544 6e3e c762 14be
00000320: a01b 513d 66ce 63be 0d6c 61be 8160 e83c
00000330: 9a3a d43e a8dc ae3e 5b47 9fbd 0fec f83d
00000340: 01ba 83be d58d 3abe 73e3 963e 48b2 513d
00000350: 2f71 c33d a4d9 013d c658 0bbe a002 8e3e
00000360: 9c5c b93e 60fa 0b3e be8e ba3e 4840 e53d
00000370: b891 953e ade3 5ebe ac70 ee3d 0589 76be
00000380: d6a5 e1bc 32d6 54be 0258 193e 7dcb a5be
00000390: 8fb8 a5bd 9feb 08be 30d0 613e 52fe 7cbe
000003a0: cf00 39be 145a 893e fc76 103e cc97 8f3e
000003b0: ce3c 983e e323 55be 2947 b13d da83 87be
000003c0: c745 9dbd 54df 47bd b9a6 02be f2c0 a23d
000003d0: d27a b63d 2c9f a73d 4fad 3f3e 7d93 f9bc
000003e0: 7459 9c3e 9b5b b83b 8403 7c3e 57ee 893e
000003f0: b50c b13e 0d20 37be d2eb ebbd 5b19 8fbe

inference_net.h_proj.bias f4 [64]
-0.066677645 0.055894967 0.17193009 -0.30511892 -0.16048276 -0.31146365 0.33372915 -0.17889346
-0.11070665 0.15290326 -0.15016885 0.0671188 0.2690835 0.18418585 0.023417357 -0.22349346
-0.1927649 -0.060045216 0.3491576 0.08007813 0.14591785 0.012491573 0.019710133 0.28448093
0.08181462 0.19462049 0.08829195 0.21379317 0.35313144 -0.12397962 -0.03644196 0.112055875
0.20342855 0.3001215 -0.1730259 0.05502995 0.23554222 0.16948092 0.2976307 0.017973451
-0.31998217 0.050387103 -0.13618648 0.021397552 -0.22612876 -0.08397177 0.01864528 -0.06479206
-0.16088027 0.25292304 -0.22198947 0.19695136 -0.053211376 0.30821154 -0.096860245 0.32209998
0.21355452 0.25358206 -0.34233257 -0.09256111 -0.2901357 -0.33321735 -0.23087244 0.2724375
00000000: 4a8e 88bd 1ff2 643d 710e 303e 8c38 9cbe
00000010: 9855 24be 2a78 9fbe 8cde aa3e d92f 37be
00000020: 2bba e2bd ac92 1c3e ddc5 19be 9575 893d
00000030: 50c5 893e 379b 3c3e c2d5 bf3c 78db 64be
00000040: 2964 45be f9f1 75bd c9c4 b23e 0100 a43d
00000050: 7d6b 153e 74a9 4c3c 2577 a13c 7ca7 913e
00000060: 6c8e a73d 984a 473e 69d2 b43d 99ec 5a3e
00000070: a5cd b43e 07e9 fdbd 2a44 15bd 8d7d e53d
00000080: 934f 503e 86a9 993e b42d 31be 1667 613d
00000090: fb31 713e 688c 2d3e 0d63 983e 0f3d 933c
000000a0: b4d4 a3be b562 4e3d 7874 0bbe eb49 af3c
000000b0: 4c8e 67be 64f9 abbd fcbd 983c b3b1 84bd
000000c0: ccbd 24be 217f 813e 3551 63be 9ead 493e
000000d0: 2cf4 59bd e7cd 9d3e aa5e c6bd 4aea a43e
000000e0: 09ae 5a3e 82d5 813e 3746 afbe ae90 bdbd
000000f0: ab8c 94be 779b aabe d369 6cbe ee7c 8b3e
