gpcdx_rca/outputs/lorenz96/model_best.pt (torch, 389666 bytes, 26 tensors)

A_ref_mean f4 [20, 20]
000000 00 00 00 00 00 00 00 00 00 00 00 00 00 00 00 00
       0.0 0.0 0.0 0.0
000010 00 00 00 00 00 00 00 00 00 00 00 00 00 00 00 00
       0.0 0.0 0.0 0.0
000020 00 00 00 00 00 00 00 00 00 00 00 00 00 00 00 00
       0.0 0.0 0.0 0.0
000030 00 00 00 00 00 00 00 00 00 00 00 00 00 00 00 00
       0.0 0.0 0.0 0.0
000040 00 00 00 00 00 00 00 00 00 00 00 00 00 00 00 00
       0.0 0.0 0.0 0.0
000050 00 00 00 00 00 00 00 00 00 00 00 00 00 00 00 00
       0.0 0.0 0.0 0.0
000060 00 00 00 00 00 00 00 00 00 00 00 00 00 00 00 00
       0.0 0.0 0.0 0.0
000070 00 00 00 00 00 00 00 00 00 00 00 00 00 00 00 00
       0.0 0.0 0.0 0.0
000080 00 00 00 00 00 00 00 00 00 00 00 00 00 00 00 00
       0.0 0.0 0.0 0.0
000090 00 00 00 00 00 00 00 00 00 00 00 00 00 00 00 00
       0.0 0.0 0.0 0.0
0000a0 00 00 00 00 00 00 00 00 00 00 00 00 00 00 00 00
       0.0 0.0 0.0 0.0
0000b0 00 00 00 00 00 00 00 00 00 00 00 00 00 00 00 00
       0.0 0.0 0.0 0.0
0000c0 00 00 00 00 00 00 00 00 00 00 00 00 00 00 00 00
       0.0 0.0 0.0 0.0
0000d0 00 00 00 00 00 00 00 00 00 00 00 00 00 00 00 00
       0.0 0.0 0.0 0.0
0000e0 00 00 00 00 00 00 00 00 00 00 00 00 00 00 00 00
       0.0 0.0 0.0 0.0
0000f0 00 00 00 00 00 00 00 00 00 00 00 00 00 00 00 00
       0.0 0.0 0.0 0.0
000100 00 00 00 00 00 00 00 00 00 00 00 00 00 00 00 00
       0.0 0.0 0.0 0.0
000110 00 00 00 00 00 00 00 00 00 00 00 00 00 00 00 00
       0.0 0.0 0.0 0.0
000120 00 00 00 00 00 00 00 00 00 00 00 00 00 00 00 00
       0.0 0.0 0.0 0.0
000130 00 00 00 00 00 00 00 00 00 00 00 00 00 00 00 00
       0.0 0.0 0.0 0.0
000140 00 00 00 00 00 00 00 00 00 00 00 00 00 00 00 00
       0.0 0.0 0.0 0.0
000150 00 00 00 00 00 00 00 00 00 00 00 00 00 00 00 00
       0.0 0.0 0.0 0.0
000160 00 00 00 00 00 00 00 00 00 00 00 00 00 00 00 00
       0.0 0.0 0.0 0.0
000170 00 00 00 00 00 00 00 00 00 00 00 00 00 00 00 00
       0.0 0.0 0.0 0.0
000180 00 00 00 00 00 00 00 00 00 00 00 00 00 00 00 00
       0.0 0.0 0.0 0.0
000190 00 00 00 00 00 00 00 00 00 00 00 00 00 00 00 00
       0.0 0.0 0.0 0.0
0001a0 00 00 00 00 00 00 00 00 00 00 00 00 00 00 00 00
       0.0 0.0 0.0 0.0
0001b0 00 00 00 00 00 00 00 00 00 00 00 00 00 00 00 00
       0.0 0.0 0.0 0.0
0001c0 00 00 00 00 00 00 00 00 00 00 00 00 00 00 00 00
       0.0 0.0 0.0 0.0
0001d0 00 00 00 00 00 00 00 00 00 00 00 00 00 00 00 00
       0.0 0.0 0.0 0.0
0001e0 00 00 00 00 00 00 00 00 00 00 00 00 00 00 00 00
       0.0 0.0 0.0 0.0
0001f0 00 00 00 00 00 00 00 00 00 00 00 00 00 00 00 00
       0.0 0.0 0.0 0.0
000200 00 00 00 00 00 00 00 00 00 00 00 00 00 00 00 00
       0.0 0.0 0.0 0.0
000210 00 00 00 00 00 00 00 00 00 00 00 00 00 00 00 00
       0.0 0.0 0.0 0.0
000220 00 00 00 00 00 00 00 00 00 00 00 00 00 00 00 00
       0.0 0.0 0.0 0.0
000230 00 00 00 00 00 00 00 00 00 00 00 00 00 00 00 00
       0.0 0.0 0.0 0.0
000240 00 00 00 00 00 00 00 00 00 00 00 00 00 00 00 00
       0.0 0.0 0.0 0.0
000250 00 00 00 00 00 00 00 00 00 00 00 00 00 00 00 00
       0.0 0.0 0.0 0.0
000260 00 00 00 00 00 00 00 00 00 00 00 00 00 00 00 00
       0.0 0.0 0.0 0.0
000270 00 00 00 00 00 00 00 00 00 00 00 00 00 00 00 00
       0.0 0.0 0.0 0.0
000280 00 00 00 00 00 00 00 00 00 00 00 00 00 00 00 00
       0.0 0.0 0.0 0.0
000290 00 00 00 00 00 00 00 00 00 00 00 00 00 00 00 00
       0.0 0.0 0.0 0.0
0002a0 00 00 00 00 00 00 00 00 00 00 00 00 00 00 00 00
       0.0 0.0 0.0 0.0
0002b0 00 00 00 00 00 00 00 00 00 00 00 00 00 00 00 00
       0.0 0.0 0.0 0.0
0002c0 00 00 00 00 00 00 00 00 00 00 00 00 00 00 00 00
       0.0 0.0 0.0 0.0
0002d0 00 00 00 00 00 00 00 00 00 00 00 00 00 00 00 00
       0.0 0.0 0.0 0.0
0002e0 00 00 00 00 00 00 00 00 00 00 00 00 00 00 00 00
       0.0 0.0 0.0 0.0
0002f0 00 00 00 00 00 00 00 00 00 00 00 00 00 00 00 00
       0.0 0.0 0.0 0.0
000300 00 00 00 00 00 00 00 00 00 00 00 00 00 00 00 00
       0.0 0.0 0.0 0.0
000310 00 00 00 00 00 00 00 00 00 00 00 00 00 00 00 00
       0.0 0.0 0.0 0.0
000320 00 00 00 00 00 00 00 00 00 00 00 00 00 00 00 00
       0.0 0.0 0.0 0.0
000330 00 00 00 00 00 00 00 00 00 00 00 00 00 00 00 00
       0.0 0.0 0.0 0.0
000340 00 00 00 00 00 00 00 00 00 00 00 00 00 00 00 00
       0.0 0.0 0.0 0.0
000350 00 00 00 00 00 00 00 00 00 00 00 00 00 00 00 00
       0.0 0.0 0.0 0.0
000360 00 00 00 00 00 00 00 00 00 00 00 00 00 00 00 00
       0.0 0.0 0.0 0.0
000370 00 00 00 00 00 00 00 00 00 00 00 00 00 00 00 00
       0.0 0.0 0.0 0.0
000380 00 00 00 00 00 00 00 00 00 00 00 00 00 00 00 00
       0.0 0.0 0.0 0.0
000390 00 00 00 00 00 00 00 00 00 00 00 00 00 00 00 00
       0.0 0.0 0.0 0.0
0003a0 00 00 00 00 00 00 00 00 00 00 00 00 00 00 00 00
       0.0 0.0 0.0 0.0
0003b0 00 00 00 00 00 00 00 00 00 00 00 00 00 00 00 00
       0.0 0.0 0.0 0.0
0003c0 00 00 00 00 00 00 00 00 00 00 00 00 00 00 00 00
       0.0 0.0 0.0 0.0
0003d0 00 00 00 00 00 00 00 00 00 00 00 00 00 00 00 00
       0.0 0.0 0.0 0.0
0003e0 00 00 00 00 00 00 00 00 00 00 00 00 00 00 00 00
       0.0 0.0 0.0 0.0
0003f0 00 00 00 00 00 00 00 00 00 00 00 00 00 00 00 00
       0.0 0.0 0.0 0.0

A_ref_var f4 [20, 20]
000000 00 00 80 3f 00 00 80 3f 00 00 80 3f 00 00 80 3f
       1.0 1.0 1.0 1.0
000010 00 00 80 3f 00 00 80 3f 00 00 80 3f 00 00 80 3f
       1.0 1.0 1.0 1.0
000020 00 00 80 3f 00 00 80 3f 00 00 80 3f 00 00 80 3f
       1.0 1.0 1.0 1.0
000030 00 00 80 3f 00 00 80 3f 00 00 80 3f 00 00 80 3f
       1.0 1.0 1.0 1.0
000040 00 00 80 3f 00 00 80 3f 00 00 80 3f 00 00 80 3f
       1.0 1.0 1.0 1.0
000050 00 00 80 3f 00 00 80 3f 00 00 80 3f 00 00 80 3f
       1.0 1.0 1.0 1.0
000060 00 00 80 3f 00 00 80 3f 00 00 80 3f 00 00 80 3f
       1.0 1.0 1.0 1.0
000070 00 00 80 3f 00 00 80 3f 00 00 80 3f 00 00 80 3f
       1.0 1.0 1.0 1.0
000080 00 00 80 3f 00 00 80 3f 00 00 80 3f 00 00 80 3f
       1.0 1.0 1.0 1.0
000090 00 00 80 3f 00 00 80 3f 00 00 80 3f 00 00 80 3f
       1.0 1.0 1.0 1.0
0000a0 00 00 80 3f 00 00 80 3f 00 00 80 3f 00 00 80 3f
       1.0 1.0 1.0 1.0
0000b0 00 00 80 3f 00 00 80 3f 00 00 80 3f 00 00 80 3f
       1.0 1.0 1.0 1.0
0000c0 00 00 80 3f 00 00 80 3f 00 00 80 3f 00 00 80 3f
       1.0 1.0 1.0 1.0
0000d0 00 00 80 3f 00 00 80 3f 00 00 80 3f 00 00 80 3f
       1.0 1.0 1.0 1.0
0000e0 00 00 80 3f 00 00 80 3f 00 00 80 3f 00 00 80 3f
       1.0 1.0 1.0 1.0
0000f0 00 00 80 3f 00 00 80 3f 00 00 80 3f 00 00 80 3f
       1.0 1.0 1.0 1.0
000100 00 00 80 3f 00 00 80 3f 00 00 80 3f 00 00 80 3f
       1.0 1.0 1.0 1.0
000110 00 00 80 3f 00 00 80 3f 00 00 80 3f 00 00 80 3f
       1.0 1.0 1.0 1.0
000120 00 00 80 3f 00 00 80 3f 00 00 80 3f 00 00 80 3f
       1.0 1.0 1.0 1.0
000130 00 00 80 3f 00 00 80 3f 00 00 80 3f 00 00 80 3f
       1.0 1.0 1.0 1.0
000140 00 00 80 3f 00 00 80 3f 00 00 80 3f 00 00 80 3f
       1.0 1.0 1.0 1.0
000150 00 00 80 3f 00 00 80 3f 00 00 80 3f 00 00 80 3f
       1.0 1.0 1.0 1.0
000160 00 00 80 3f 00 00 80 3f 00 00 80 3f 00 00 80 3f
       1.0 1.0 1.0 1.0
000170 00 00 80 3f 00 00 80 3f 00 00 80 3f 00 00 80 3f
       1.0 1.0 1.0 1.0
000180 00 00 80 3f 00 00 80 3f 00 00 80 3f 00 00 80 3f
       1.0 1.0 1.0 1.0
000190 00 00 80 3f 00 00 80 3f 00 00 80 3f 00 00 80 3f
       1.0 1.0 1.0 1.0
0001a0 00 00 80 3f 00 00 80 3f 00 00 80 3f 00 00 80 3f
       1.0 1.0 1.0 1.0
0001b0 00 00 80 3f 00 00 80 3f 00 00 80 3f 00 00 80 3f
       1.0 1.0 1.0 1.0
0001c0 00 00 80 3f 00 00 80 3f 00 00 80 3f 00 00 80 3f
       1.0 1.0 1.0 1.0
0001d0 00 00 80 3f 00 00 80 3f 00 00 80 3f 00 00 80 3f
       1.0 1.0 1.0 1.0
0001e0 00 00 80 3f 00 00 80 3f 00 00 80 3f 00 00 80 3f
       1.0 1.0 1.0 1.0
0001f0 00 00 80 3f 00 00 80 3f 00 00 80 3f 00 00 80 3f
       1.0 1.0 1.0 1.0
000200 00 00 80 3f 00 00 80 3f 00 00 80 3f 00 00 80 3f
       1.0 1.0 1.0 1.0
000210 00 00 80 3f 00 00 80 3f 00 00 80 3f 00 00 80 3f
       1.0 1.0 1.0 1.0
000220 00 00 80 3f 00 00 80 3f 00 00 80 3f 00 00 80 3f
       1.0 1.0 1.0 1.0
000230 00 00 80 3f 00 00 80 3f 00 00 80 3f 00 00 80 3f
       1.0 1.0 1.0 1.0
000240 00 00 80 3f 00 00 80 3f 00 00 80 3f 00 00 80 3f
       1.0 1.0 1.0 1.0
000250 00 00 80 3f 00 00 80 3f 00 00 80 3f 00 00 80 3f
       1.0 1.0 1.0 1.0
000260 00 00 80 3f 00 00 80 3f 00 00 80 3f 00 00 80 3f
       1.0 1.0 1.0 1.0
000270 00 00 80 3f 00 00 80 3f 00 00 80 3f 00 00 80 3f
       1.0 1.0 1.0 1.0
000280 00 00 80 3f 00 00 80 3f 00 00 80 3f 00 00 80 3f
       1.0 1.0 1.0 1.0
000290 00 00 80 3f 00 00 80 3f 00 00 80 3f 00 00 80 3f
       1.0 1.0 1.0 1.0
0002a0 00 00 80 3f 00 00 80 3f 00 00 80 3f 00 00 80 3f
       1.0 1.0 1.0 1.0
0002b0 00 00 80 3f 00 00 80 3f 00 00 80 3f 00 00 80 3f
       1.0 1.0 1.0 1.0
0002c0 00 00 80 3f 00 00 80 3f 00 00 80 3f 00 00 80 3f
       1.0 1.0 1.0 1.0
0002d0 00 00 80 3f 00 00 80 3f 00 00 80 3f 00 00 80 3f
       1.0 1.0 1.0 1.0
0002e0 00 00 80 3f 00 00 80 3f 00 00 80 3f 00 00 80 3f
       1.0 1.0 1.0 1.0
0002f0 00 00 80 3f 00 00 80 3f 00 00 80 3f 00 00 80 3f
       1.0 1.0 1.0 1.0
000300 00 00 80 3f 00 00 80 3f 00 00 80 3f 00 00 80 3f
       1.0 1.0 1.0 1.0
000310 00 00 80 3f 00 00 80 3f 00 00 80 3f 00 00 80 3f
       1.0 1.0 1.0 1.0
000320 00 00 80 3f 00 00 80 3f 00 00 80 3f 00 00 80 3f
       1.0 1.0 1.0 1.0
000330 00 00 80 3f 00 00 80 3f 00 00 80 3f 00 00 80 3f
       1.0 1.0 1.0 1.0
000340 00 00 80 3f 00 00 80 3f 00 00 80 3f 00 00 80 3f
       1.0 1.0 1.0 1.0
000350 00 00 80 3f 00 00 80 3f 00 00 80 3f 00 00 80 3f
       1.0 1.0 1.0 1.0
000360 00 00 80 3f 00 00 80 3f 00 00 80 3f 00 00 80 3f
       1.0 1.0 1.0 1.0
000370 00 00 80 3f 00 00 80 3f 00 00 80 3f 00 00 80 3f
       1.0 1.0 1.0 1.0
000380 00 00 80 3f 00 00 80 3f 00 00 80 3f 00 00 80 3f
       1.0 1.0 1.0 1.0
000390 00 00 80 3f 00 00 80 3f 00 00 80 3f 00 00 80 3f
       1.0 1.0 1.0 1.0
0003a0 00 00 80 3f 00 00 80 3f 00 00 80 3f 00 00 80 3f
       1.0 1.0 1.0 1.0
0003b0 00 00 80 3f 00 00 80 3f 00 00 80 3f 00 00 80 3f
       1.0 1.0 1.0 1.0
0003c0 00 00 80 3f 00 00 80 3f 00 00 80 3f 00 00 80 3f
       1.0 1.0 1.0 1.0
0003d0 00 00 80 3f 00 00 80 3f 00 00 80 3f 00 00 80 3f
       1.0 1.0 1.0 1.0
0003e0 00 00 80 3f 00 00 80 3f 00 00 80 3f 00 00 80 3f
       1.0 1.0 1.0 1.0
0003f0 00 00 80 3f 00 00 80 3f 00 00 80 3f 00 00 80 3f
       1.0 1.0 1.0 1.0

basis.mlp.0.weight f4 [32, 1]
000000 aa 66 55 3f 9f 50 67 3f cb 0c a9 be 61 3e 7d 3f
       0.8335978 0.90357393 -0.33017573 0.9892331
000010 e5 ca 96 be 0b 3a 7d 3e c5 ff 10 bf 79 f1 28 3f
       -0.2945167 0.24729173 -0.56640273 0.6599346
000020 8d 5f 74 3f e6 c9 52 bf 78 ea 70 3f 3c 5f 5e 3e
       0.954583 -0.8233932 0.9410777 0.21716017
000030 a1 0b 4f 3f 2e e6 46 3e e5 00 0d 3f 7f 13 5b be
       0.8087712 0.19423744 0.5507949 -0.21394156
000040 7f 73 57 3f e9 01 6c 3e 6b 10 0d bf 91 fb 9f 3e
       0.8416061 0.23047604 -0.55103177 0.31246617
000050 01 d1 0e bf 9b 20 74 bd c3 c1 f7 be c7 fc 3b 3f
       -0.55787665 -0.059601407 -0.48390016 0.7343258
000060 31 47 5e bf c1 42 0b bf 1e 50 47 be eb eb 34 bf
       -0.8682738 -0.54398733 -0.19464156 -0.7067248
000070 82 9d 29 3e 91 23 8b bf a0 d6 79 3f 46 ac 70 bf
       0.1656399 -1.0870229 0.97593117 -0.9401287

basis.mlp.0.bias f4 [32]
000000 c2 62 46 3f 03 33 08 3e 9f 0d c8 be b8 c3 1c 3f
       0.7749444 0.1330071 -0.39072892 0.61236143
000010 c7 80 8c 3d eb 3c 57 3f fe 21 97 3c 5b c5 cf be
       0.068605 0.8407733 0.018448826 -0.40580258
000020 fa 89 78 3e 64 e5 aa be 81 1c d0 3e 7d b0 6f 3f
       0.24271384 -0.33378136 0.40646747 0.93628675
000030 0a 87 13 3f a8 37 34 bf 1d 11 15 3f 5a 60 ca 3d
       0.5762793 -0.70397425 0.5822924 0.09881659
000040 db 6a 00 3f 3d 76 60 bf a4 e6 8f bf 1d 20 14 bf
       0.5016305 -0.8768042 -1.1242261 -0.578615
000050 81 df 59 bf b2 e9 5a 3f 4a 43 42 3e a9 22 d0 3e
       -0.85106665 0.8551284 0.18970981 0.40651444
000060 ba b9 5b 3e f2 d8 c7 bd 3f 8c 5a 3f 59 d0 41 bf
       0.21457568 -0.09758176 0.8537025 -0.7570854
000070 5e a8 59 3d c6 a3 39 bf d2 df 91 3e 0c 8a cf be
       0.053139083 -0.72515523 0.28491074 -0.4053501

basis.mlp.2.weight f4 [1, 32]
000000 10 57 73 bd 2b ca 8d bd ac be 0b 3e 30 60 80 bd
       -0.0594092 -0.06923326 0.13646954 -0.06268346
000010 50 94 7c 3d 3b 27 33 bd 9d 80 a2 3d 38 fb b1 bd
       0.06166488 -0.043738585 0.07934687 -0.08690494
000020 24 3e 8a bd 68 b6 d7 3d a0 fd 84 bd a0 0f 33 bd
       -0.06750134 0.10532838 -0.06493688 -0.043716073
000030 f5 1e 7c bd 5a a0 80 be af 65 6d bd 2c 5d 30 3d
       -0.06155296 -0.2512234 -0.0579583 0.043057606
000040 f3 b5 80 bd 73 5d a7 be 43 20 5b 3e 29 90 06 be
       -0.06284704 -0.32688484 0.21399026 -0.1314093
000050 bf 8b 28 3e b4 60 d1 3c 82 6b 6a 3d 6a 84 81 bd
       0.16459559 0.025558807 0.057231434 -0.06324084
000060 03 b0 8e 3d 05 4d ba 3d 53 df 76 bd 0f 6f 0c 3e
       0.06967165 0.090967216 -0.060271572 0.1371424
000070 04 d5 81 bd f7 b2 f2 3d 4a 15 89 bd 31 3e db 3d
       -0.06339458 0.11850541 -0.06693514 0.107052214

inference_net.gru.weight_ih_l0 f4 [384, 100]
000000 1e 15 d5 3c 68 80 38 3c 2d 18 7e bd a7 05 0f bd
       0.026011046 0.011261083 -0.062034775 -0.0349175
000010 53 e1 14 3d 71 8c 32 3d 3e 85 ce bc b1 da cf 3c
       0.0363477 0.043590967 -0.02521002 0.025372835
000020 2f d0 53 bd e9 c1 b3 bd 8b ef 57 bc 2c 44 2e bd
       -0.05171221 -0.0877722 -0.01317967 -0.042545483
000030 9e 63 c1 bc 0e dd e4 3d a6 d9 11 3d 90 73 8e 3d
       -0.023607071 0.11174975 0.035607956 0.069556355
000040 aa 2f 3f bd d8 34 21 bd d8 84 ac bc f2 e4 b7 3c
       -0.046676315 -0.039357036 -0.021059439 0.022448037
000050 58 e8 8d bd 00 93 37 bb 0d 45 63 bc 3b 34 95 3c
       -0.06929082 -0.0028011203 -0.013871443 0.018213382
000060 55 07 ca bc ac e1 65 3c 44 2a cd bc c5 11 18 bb
       -0.0246617 0.014030855 -0.025044568 -0.002320395
000070 83 94 b7 3b eb 30 76 3b 4e 50 dc bc c9 b8 e7 3d
       0.005602421 0.0037565778 -0.026893761 0.11314542
000080 83 75 8e 3c 0f a5 ea 3d 0e 7d 90 3d eb 4e 68 bd
       0.017390018 0.11457264 0.07055102 -0.056715887
000090 fb 17 a2 3d 27 68 1e bc cf 7b c7 bc e5 56 60 bd
       0.0791473 -0.009668387 -0.024351029 -0.05477037
0000a0 e3 b3 de bd 1c cf c5 3c 8f 0b 21 bc a2 8e 63 3d
       -0.108741544 0.024146609 -0.009829416 0.055555947
0000b0 0e 2f 34 bd ca 90 a5 3d 1a 91 c3 bd 18 1c 6c bd
       -0.043990187 0.08084257 -0.0954916 -0.05764398
0000c0 2d b6 b4 3a bd 56 7c 3d 50 78 ea 3d 82 c2 fe 3d
       0.0013787203 0.061606158 0.11448729 0.12439443
0000d0 66 7a 23 bd a8 59 82 3c 6d 5e 8c bd bc 49 a5 3c
       -0.03991165 0.015911892 -0.06853948 0.02017676
0000e0 22 69 e3 bc e2 b2 18 3e d7 11 cd 3c 9d 5f e3 3d
       -0.027760092 0.14911988 0.02503292 0.11102221
0000f0 92 57 c0 3c cb ee bf 3c bc c9 43 bd 6e 1d dd 3d
       0.023479257 0.023429295 -0.04779981 0.10796629
000100 52 16 ad 3d 18 14 3e 3d 43 3b 05 bd 2f 00 d3 3d
       0.08451523 0.04640588 -0.03252722 0.103027694
000110 67 57 51 3d fa 7c 0c bc f3 7f 93 3d 20 70 44 3c
       0.051108744 -0.008574719 0.07202139 0.011989623
000120 91 b0 4a bd f7 87 1b bd f9 3e 16 3c c5 f1 5c 3d
       -0.049484793 -0.037971463 0.009170287 0.053941507
000130 89 a4 e9 bc ad 89 78 bd 89 2c 0a bd f7 5c 4c bd
       -0.02852084 -0.060678173 -0.03373388 -0.049893346
000140 a7 f5 6f 3d 97 41 a0 3d e3 47 89 bd 0b 66 1e 3d
       0.05858388 0.0782501 -0.067031644 0.038671535
000150 81 bd 65 3d a2 d8 84 3d 34 a6 92 bb 1d bf 51 3d
       0.056088928 0.06486632 -0.0044753794 0.05120765
000160 fe 4d 49 3d 30 fb 30 3d ea 9d 1b 3b a4 c6 e7 3b
       0.049146645 0.0432083 0.0023745247 0.0070732404
000170 8f 08 18 3d 06 37 f3 3a a3 5e 51 bc 9d fd b0 3d
       0.037117537 0.0018555827 -0.012778911 0.08642123
000180 17 87 d5 3d f1 f1 8a 3c ff b9 ab 3b ba fa 97 3c
       0.10426157 0.01696107 0.0052406783 0.018552173
000190 1c 6a 18 3d 76 a9 5e 3d cd 38 3b 3d 81 c3 9d bd
       0.03721057 0.05436083 0.045708466 -0.07703305
0001a0 94 4f 1f bd 4a d5 b3 3d 35 6b 62 3d ed a6 8b 3c
       -0.03889425 0.08780916 0.05527802 0.01704737
0001b0 72 91 21 bd 57 fa 4d bd 0d 4a 5b bd 3c d9 1c bb
       -0.039445348 -0.05028757 -0.053537417 -0.0023933193
0001c0 e1 5f 6d 3d a9 48 b1 3d e7 be 94 3d df 1d c6 bd
       0.057952765 0.08656437 0.07262974 -0.09673666
0001d0 e8 d2 81 bd 29 a5 55 bc f1 d6 bf 3d 69 b5 c2 3c
       -0.06339055 -0.0130398655 0.09367169 0.023768144
0001e0 0b ee 0c bd 1d 76 99 3c 84 1e 64 bd 50 9c a6 bd
       -0.034406703 0.018733079 -0.055693164 -0.08135283
0001f0 e2 5d 4d 3d 8e 18 02 bb 89 0e ab 3c da 0f 61 bd
       0.05013836 -0.0019851062 0.020880954 -0.054946758
000200 45 db b6 3d 92 7c c3 3d ff b6 35 3d 22 55 2e bd
       0.08928541 0.09545244 0.04436397 -0.042561658
000210 71 08 85 bd 2c fd 5a bd 65 cc a7 3d 60 11 64 3d
       -0.06495751 -0.0534641 0.08193282 0.055680633
000220 35 39 bd 3d 63 a8 93 3d 6f 37 5a 3d 10 78 d9 3c
       0.09239427 0.072098516 0.05327552 0.026546508
000230 ab ff a7 bd 80 0a cc bd 07 58 ce bd 73 80 36 3d
       -0.08203062 -0.0996294 -0.10075384 0.044556092
000240 7d c0 63 bc 00 d7 51 bc 6c 89 2b bd 45 bb ad 3b
       -0.013900873 -0.012807608 -0.041879103 0.0053018653
000250 46 48 e6 bc 43 f0 e3 bc 25 c4 74 3d 15 6a d8 3b
       -0.028110635 -0.027824527 0.05975737 0.006604443
000260 b5 d1 bb 3d 5b 1e 1d 3c f2 b3 15 bd 86 05 66 3b
       0.09170858 0.009589757 -0.036548562 0.0035098507
000270 9b e5 a0 bc 28 c8 81 bb 15 33 73 bd 33 34 96 3d
       -0.019640734 -0.003960628 -0.059374887 0.07334175
000280 32 46 53 bd 57 e5 3b 3d a4 09 20 3d a1 59 81 3d
       -0.051580615 0.045873012 0.039071694 0.063159235
000290 5b cc 80 bd 63 6a c0 3d 4c e4 19 bc 0e 0c 75 3d
       -0.06288978 0.09395292 -0.009392809 0.05982595
0002a0 26 d5 ce 3d f0 bd 14 bb cc 94 0f 3d da 00 00 3d
       0.100992486 -0.002269622 0.035054013 0.031250812
0002b0 4a d2 28 bc d4 2d cf 3d 1d 52 48 bd be eb 96 3d
       -0.010304043 0.10116163 -0.048906434 0.07369183
0002c0 95 ed b2 3d 94 59 dc 3d a7 19 36 3c 86 d4 cb bc
       0.087367214 0.10759273 0.011114514 -0.024881613
0002d0 d6 48 5f 3d 1f b2 a5 3d 07 54 77 bd d4 f6 9d bb
       0.05451282 0.080906145 -0.06038287 -0.004820684
0002e0 46 5d 05 bd ea 26 c2 3a 0a ff 1e bd eb 31 12 bd
       -0.032559656 0.0014812623 -0.038817443 -0.035692137
0002f0 04 54 ec bc fa 5d ab bd 42 5b 5e 3d 35 85 79 3d
       -0.028848656 -0.08367534 0.05428625 0.06091805
000300 c5 57 c2 bc fe ef 82 bc 01 f5 0b bd 38 d7 a3 bd
       -0.023723492 -0.015983578 -0.0341692 -0.08000034
000310 7c 69 e0 bd 02 b7 bd 39 1b 97 9c bd 5e ef 75 bd
       -0.109576195 0.0003618524 -0.076460086 -0.06004273
000320 90 82 0e 3b 0f 77 b0 bc ea 02 b8 bc 38 82 0c 3c
       0.0021745302 -0.021541147 -0.022462327 0.008575968
000330 e3 3e 78 bc 25 da 81 bc bd f1 21 bd 87 e2 85 bd
       -0.015151712 -0.01585109 -0.03953718 -0.06537347
000340 ba 3d bd 3d fd 5c bd bb 56 9f 52 3d 30 64 7d bc
       0.09240289 -0.0057789073 0.051421486 -0.015465781
000350 4e aa 77 3c 35 83 c3 3d d1 8d 85 3d ba 82 85 bd
       0.015116287 0.0954651 0.0652119 -0.06519075
000360 46 52 25 3d 5b bc 9d 3d a1 5a 1b 3c ff 99 4b 3d
       0.040361665 0.077019416 0.009482057 0.04970741
000370 25 c3 b2 3d c3 3d 7c bc 60 42 33 3c 6f 56 9d bd
       0.08728627 -0.0153955845 0.010941118 -0.076825015
000380 53 ea 10 bd a3 5d 82 3d 6a f7 5a 3d 3d 62 1c bd
       -0.03537972 0.06365516 0.05345861 -0.038179625
000390 50 12 3e bd cd 3f f9 bc a6 6b 67 bd 5e e2 f1 bc
       -0.046404183 -0.03042593 -0.056499146 -0.029526886
0003a0 8f f7 8b 3c a9 e2 b4 3d 73 a1 f3 3c a1 46 71 bc
       0.017085819 0.088322945 0.02974007 -0.014726312
0003b0 46 1e fa bc 40 44 87 3d 82 3e 40 bd 58 dd 80 3c
       -0.030532014 0.066048145 -0.046934612 0.015730545
0003c0 0f b7 3c 3d 38 92 08 bd 74 81 be 3b f5 d8 80 3c
       0.046073016 -0.03334257 0.005813772 0.015728453
0003d0 a4 46 90 ba 8b af 3c bd 86 67 9a bd 0e 0f 8c bd
       -0.0011007381 -0.04606585 -0.07539277 -0.06838809
0003e0 24 00 56 bd 86 0f 8c 3d 0b fb 96 bc 37 73 18 bd
       -0.052246228 0.06838898 -0.018430253 -0.037219252
0003f0 5f 63 31 3d 33 b8 60 3d 0e ab b5 3d f1 61 59 3d
       0.04330766 0.054863166 0.08870517 0.05307192

inference_net.gru.weight_hh_l0 f4 [384, 128]
000000 6c ac 38 bc 85 d8 a3 3d 87 ff 60 3c 17 72 d7 bd
       -0.011271577 0.08000282 0.0137327975 -0.10519808
000010 30 36 9a bd c3 b1 36 bd f4 b0 93 bc ef a4 ac 3d
       -0.07529867 -0.04460312 -0.018028714 0.08429896
000020 1c c1 75 3c b3 9a 68 3d c7 f3 66 bd 7f 07 93 3c
       0.014999654 0.056788158 -0.056384828 0.01794791
000030 8e 55 14 3d 51 20 fd bc e4 2c 5f 3d 18 05 40 3d
       0.036214404 -0.030899199 0.05448617 0.046879858
000040 ab a6 af 3d a1 b9 ad bb 74 51 a1 3d 2c ad bf 3b
       0.08576711 -0.0053016697 0.07876864 0.005849501
000050 06 87 f3 bb 68 55 2b bc c4 a6 b8 bd fc 9c 4f bd
       -0.0074318675 -0.010457374 -0.09016183 -0.05068682
000060 79 ac f0 3b 04 15 7c bd fb 15 73 3d 15 02 34 bd
       0.007344779 -0.06154348 0.059347134 -0.043947298
000070 ea 1a 8b bd 96 5e 9a bd e0 e8 85 bd 02 d7 84 bd
       -0.06792243 -0.07537572 -0.06538558 -0.06486322
000080 40 bc b0 bd c3 25 2f 3d a6 df eb bb 0f 2a 82 bd
       -0.08629656 0.04276062 -0.007198292 -0.06355678
000090 90 19 c5 3d 36 65 3b bd 83 2a 12 bd a9 46 29 3d
       0.09624016 -0.04575082 -0.035685074 0.041327152
0000a0 09 a7 cb 3d 04 0d 34 3d 4a cd f4 3d 1b 2e 39 3d
       0.09943969 0.043957725 0.11953218 0.045209985
0000b0 ff 57 90 bd 03 65 b5 3d b5 4b 67 bd 39 57 b6 bc
       -0.07048034 0.08857157 -0.056468684 -0.022258388
0000c0 27 84 60 bd cf 68 b2 3d 7a ce 13 3d d3 4c eb bb
       -0.05481353 0.08711397 0.036085583 -0.007180789
0000d0 83 a4 9d bc a8 ba 1f bd 81 a5 10 3d 76 7c cf 3d
       -0.019243484 -0.03899637 0.035314087 0.10131161
0000e0 32 fd 0b bc 96 e2 24 bb 2e fa ad 3d 33 ce 0a bd
       -0.008544253 -0.002515947 0.084949836 -0.033888053
0000f0 02 62 31 3d 61 7d b7 3c 03 cc 03 3d d0 b5 b3 3b
       0.04330636 0.022398653 0.032176983 0.00548432
000100 2c 40 67 3d c1 11 ab bd 76 52 a4 3c 3b 67 56 3b
       0.056457683 -0.08352996 0.020058852 0.0032715339
000110 f7 a2 64 bb c5 d3 7b 3d e0 a0 9e 3b 4a 07 2d bc
       -0.0034887174 0.061481256 0.004840955 -0.01056082
000120 ec 31 57 3d d1 57 ce bd de 1c 15 3d 11 e8 40 3d
       0.052537844 -0.100753434 0.036404483 0.047096316
000130 7b 95 fb bc 48 d4 2f 3c 68 d9 27 bb 48 a4 0a bc
       -0.030710926 0.010731764 -0.0025611762 -0.008462019
000140 83 bc 94 3c 2c 80 63 bd b1 9f d6 bd 1b 1e 97 3d
       0.018156296 -0.055542156 -0.104796775 0.07378789
000150 40 ff d9 3d 58 29 83 bd 6a 09 37 3d ae 90 1d bd
       0.10644388 -0.0640437 0.044686712 -0.038468055
000160 e7 53 a5 bd f6 5a 16 bc b8 53 44 3d ec 1d 6e bc
       -0.08072644 -0.00917696 0.047931403 -0.014533501
000170 d5 ab 9f 3a 82 ff 6f 3a cf 14 36 3c be 59 ef bc
       0.0012181947 0.00091552 0.01111336 -0.029217597
000180 8e c5 05 bd f2 5d 63 3d 64 00 6e 3d db 5c c0 bb
       -0.032659106 0.055509515 0.05810584 -0.0058704442
000190 6d 24 aa bd 2f 2e aa 3d 1a c3 1f bd 31 5d d1 bc
       -0.08307729 0.0830959 -0.039004423 -0.025557132
0001a0 d6 89 94 3b 70 b7 d2 bc ef 03 66 bd 01 4e 72 bc
       0.004533033 -0.025722235 -0.056156095 -0.014789105
0001b0 65 03 00 3d d0 b6 ce bc 00 a6 2c 3d fb 5b 2f b8
       0.031253237 -0.025233656 0.042150497 -4.1808915e-05
0001c0 43 60 9f bb 7c c8 c1 bd 4c 52 76 3d 49 09 02 bd
       -0.00486377 -0.094620675 0.06013708 -0.031747136
0001d0 9d f3 c7 bc 76 85 82 bd 57 6d 44 3c de 0e 77 bd
       -0.024408156 -0.06373112 0.011988959 -0.060316913
0001e0 7f 2f b3 3d a6 5f cc 3c 45 89 65 3d a6 76 ef bc
       0.087492935 0.024947952 0.056039114 -0.02923138
0001f0 bb d5 ff bb 9c 95 66 3c 27 c8 2a 3d 11 27 7d 3a
       -0.007807461 0.014073756 0.041694786 0.00096570054
000200 9e c9 8d bd 22 a5 59 bd f1 f5 d4 3c ee 0c 37 3c
       -0.06923221 -0.053136 0.02599618 0.011172516
000210 8e 88 83 3c 96 ef b8 bd 7b cd 11 3d e3 75 ef bb
       0.016056325 -0.090300724 0.035596352 -0.0073077544
000220 ac 67 6c bd 13 ef 86 bc e1 36 4a bd 44 d5 26 3e
       -0.057716057 -0.016471421 -0.049368743 0.16292292
000230 20 97 ac bc e9 28 c0 bd 28 29 42 3d 53 c0 88 bd
       -0.021068156 -0.09382803 0.04740253 -0.06677308
000240 03 9f d3 3d d4 4f dc 3c 41 20 b7 3d 49 39 8b bd
       0.103330635 0.026893534 0.08941699 -0.06798036
000250 f1 8e e0 3d c5 8d 1d 3d 9f 44 10 3d ad 9f a7 3c
       0.10964764 0.03846528 0.035221692 0.020461882
000260 ac c2 3b bd fd d9 ea 3d 23 51 f1 bc a2 38 10 bd
       -0.04583995 0.11467359 -0.029457634 -0.03521026
000270 2f 5c 47 3b 47 03 db 3c 18 bb bf bc 1e fc 27 bd
       0.0030419936 0.026734961 -0.023404643 -0.041011922
000280 d9 bf 0f 3b a0 68 e8 bc 12 5a 92 bd a3 49 73 bb
       0.0021934418 -0.028370202 -0.07146086 -0.0037122748
000290 55 b9 2a bd 95 29 c9 bd 00 a0 82 bd 83 fa d2 bc
       -0.041680653 -0.09822384 -0.06378174 -0.025754219
0002a0 10 7a 22 3a f4 76 da 3d f1 c6 43 bd 91 d1 06 bd
       0.00061979983 0.1066722 -0.047797147 -0.0329147
0002b0 64 05 d2 3d ec f5 1b 3d 3b 98 08 bd 07 37 b2 3c
       0.102549344 0.038076326 -0.033348303 0.021754755
0002c0 fe f0 01 bd 2d 2b 79 bc 6b 40 ac bc e8 a3 64 bc
       -0.03172397 -0.015208048 -0.02102681 -0.013955094
0002d0 af b8 f1 3c f4 01 d7 3d ea f2 e4 3c ea 92 0c 3d
       0.02950701 0.104984194 0.027947862 0.034319796
0002e0 67 6f 4f 3d 54 b2 e5 3d 3e ba 64 ba 46 20 cb bd
       0.05064335 0.11215654 -0.0008725262 -0.09918265
0002f0 64 15 27 3c 09 48 96 bc 20 77 58 3d 20 28 6e 3d
       0.010197971 -0.018344896 0.05284798 0.058143735
000300 b2 cc df 3c 33 7a c1 bc 00 2f a4 3d a3 63 73 bd
       0.027319286 -0.02361784 0.08016777 -0.059421193
000310 4f 83 84 3d e4 4d bd bb ab 15 4e bd 1e d5 10 bd
       0.064703576 -0.0057771076 -0.050313633 -0.035359494
000320 72 e4 a3 3d 01 46 73 bd ec 11 ab bd 4f af 99 3d
       0.08002557 -0.059392933 -0.08353028 0.075041406
000330 4b 0d 00 bd ee 70 ce bc 2d 02 a0 3d 58 bb 2f 3c
       -0.031262677 -0.025200333 0.07812915 0.010725819
000340 3e a1 09 3d 7c db 8c 3d 5a fc d3 bd ab 6e 99 bc
       0.03360104 0.06877801 -0.103508666 -0.018729528
000350 78 79 a8 3d 50 9f c5 bd 5c b0 57 bd a4 f8 05 3d
       0.08226293 -0.09649527 -0.052658424 0.032707825
000360 6e 41 c3 bc 87 65 14 3d d3 0f 8a bd 45 4f 26 3c
       -0.02383491 0.036229637 -0.067412995 0.010150735
000370 53 89 58 bd ef 93 d8 bb 9a 11 d1 3c b0 30 18 3d
       -0.052865338 -0.006609432 0.025521088 0.037155807
000380 22 e4 c5 bd fe 3e 56 bd 1b 26 db 3d e6 1d dd 3d
       -0.096626535 -0.052306168 0.107006274 0.10796718
000390 d2 e1 6b bc 0c 8f 98 3d 8f 78 2a bd 6a 6d a5 3d
       -0.0143971015 0.07449159 -0.04161888 0.0807751
0003a0 c9 9b 8e bc c7 e1 6b bd a1 08 f2 3c 66 3a 99 bc
       -0.017408269 -0.057588365 0.02954513 -0.018704604
0003b0 67 c1 96 3d e0 2e de bc 3c 9a 58 3d b0 ce 52 bd
       0.07361107 -0.027121961 0.052881464 -0.051466644
0003c0 31 17 c8 bd 82 2f 7b bd 4a 36 2e 3d 93 fc d7 3d
       -0.097700484 -0.061324604 0.042532243 0.105462216
0003d0 85 4e 37 3c 3f e2 88 bd 6c e0 6f bd 27 fa 9a 3c
       0.011188154 -0.06683778 -0.058563635 0.01891811
0003e0 95 c6 72 3d 40 1b a9 3d d8 a1 56 bd 4b a1 16 bd
       0.059271414 0.08257151 -0.05240044 -0.036774915
0003f0 4b 80 ab 3d 13 94 2f 3d fb a1 01 3d 5e 28 5c bd
       0.08374079 0.042865824 0.031648617 -0.053749435

inference_net.gru.bias_ih_l0 f4 [384]
000000 d1 d2 8d 3d 9f 68 ed bc cd 88 ca 3d 84 d4 c0 3d
       0.06924976 -0.028980551 0.09889374 0.09415534
000010 54 ef 87 bd e3 c9 b4 bd 73 17 ee bc 3f cb 86 3d
       -0.06637445 -0.08827569 -0.029063916 0.06581735
000020 4b fa 22 3c 2f 60 2b 3c f6 8a 12 3d 66 3d 7f 3c
       0.00994737 0.010459944 0.035777055 0.015578603
000030 61 eb 5d 3d 92 63 2d 3c 4a 31 3e 3d b1 15 38 3d
       0.054179553 0.010582821 0.046433724 0.04494256
000040 0c fd 14 bd ef 50 e9 bc d2 a8 ec 3d ce 68 dd 3d
       -0.036374137 -0.028480975 0.115556374 0.108110055
000050 41 c4 8a bd 01 a0 4e bd dd 98 a1 3d 4b dc 16 bc
       -0.06775714 -0.05044556 0.078904845 -0.009207795
000060 6a cb a7 bd 01 e2 db bc 65 f9 7a 3b 84 0e 58 bd
       -0.08193095 -0.026841165 0.0038295623 -0.05274822
000070 7c c6 0b bc 83 0e 10 3d df f3 76 bd 86 1e 07 3c
       -0.008531209 0.03517009 -0.060291167 0.008247023
000080 0f 11 7e bd 17 57 85 3d c3 04 25 3d de 23 71 bd
       -0.062027987 0.06510752 0.040287744 -0.058872096
000090 87 c8 6c 3c 4c ac 9a bd 1a 54 d1 bc 3b dc ad 3d
       0.014452106 -0.07552394 -0.025552798 0.08489271
0000a0 ba f7 48 bd b4 3f 1b 3d 59 c4 76 3d 05 52 20 3d
       -0.049064375 0.03790255 0.060245845 0.03914072
0000b0 1f b0 80 3d 85 3e 60 3d 18 19 29 3c 3c 25 64 bd
       0.062835924 0.054747123 0.010320924 -0.055699572
0000c0 31 a4 25 3d 6a 3e 68 bd ad 30 17 bd c1 68 2a 3d
       0.04043979 -0.056700148 -0.036911655 0.041603807
0000d0 9f 76 25 bc 84 07 85 3d 50 51 5c 3d 4a 8b b3 3d
       -0.010099082 0.06495574 0.053788483 0.08766802
0000e0 4e 60 30 3d 33 5c 72 3d ee 86 03 bd 45 42 8b 3d
       0.043060593 0.05916996 -0.0321111 0.06799749
0000f0 9d 0e 1c bd 77 a2 e6 bc 0f 28 f4 bc 77 d7 18 3d
       -0.038099874 -0.028153641 -0.029804258 0.03731486
000100 e0 72 95 3d be 9f 94 bd 35 03 8c 3d a7 b7 17 3d
       0.07297301 -0.07257031 0.06836549 0.03704038
000110 e7 fc 83 3d b1 d4 65 3d 6b 03 a4 bd 4c 53 99 3c
       0.06444722 0.05611104 -0.080084644 0.018716477
000120 a7 9b 98 3c f4 3f 46 bd 20 67 23 3d 3c 93 50 bd
       0.018628908 -0.048400834 0.03989327 -0.050921664
000130 8d ed 87 3c 29 98 2b bc 0c 20 10 bd 18 0a 81 3b
       0.016592765 -0.0104732895 -0.035186812 0.003937971
000140 fd 4a b0 bd aa 98 67 3c 07 c4 46 3d f2 45 29 3d
       -0.08608053 0.014135519 0.04852679 0.04132647
000150 7a 4d 85 3d 63 60 44 bd d1 3a 6a bd 74 97 cb bd
       0.06508918 -0.047943484 -0.057184998 -0.09940997
000160 f2 21 86 3d 74 1b f5 bd 97 6e b5 3c 9f 44 cc bc
       0.06549443 -0.11968127 0.02214746 -0.024935065
000170 72 53 21 bd 24 fa 3e 3c 42 39 51 3d de 86 49 bd
       -0.03938622 0.011656318 0.051079996 -0.049200885
000180 4e 8e 99 bd 0d dc 95 bc 19 28 40 bb 7f 78 d8 3b
       -0.074978456 -0.018293405 -0.0029320775 0.006606161
000190 3a 53 91 bd 9e 4b ba 3a 6a f4 f7 3d b6 45 c8 bc
       -0.07095952 0.001421321 0.12107165 -0.024447303
0001a0 59 f6 6c 3d 6e 71 19 bd 57 26 57 3d 3a 1f b0 bd
       0.057852123 -0.03746169 0.052526798 -0.08599706
0001b0 0f 73 2c bd bf cb 82 3d eb 56 5a 3d e0 a7 91 bd
       -0.042101916 0.06386518 0.053305548 -0.07112098
0001c0 c2 7b d0 bd b1 3f d1 3d ad ba 9c 3d 20 60 5d 3d
       -0.10179855 0.10217226 0.07652793 0.05404675
0001d0 02 0a 9f 3d 8a d1 9d 3d 86 28 1c 3d b2 78 0c 3d
       0.07765581 0.07705982 0.038124584 0.03429479
0001e0 8b ec b5 3c 73 bf 8a bd a4 44 0e bd e8 d8 6d bc
       0.022207519 -0.06774797 -0.03473343 -0.0145170465
0001f0 a7 70 8b bd b3 94 63 ba 2c ab 29 bd 63 e9 ac bd
       -0.06808596 -0.00086815207 -0.041423008 -0.084429525
000200 50 97 c8 3c 82 36 4b bd 58 81 db bc 2f ba 26 bc
       0.024486214 -0.04961253 -0.026795074 -0.010176226
000210 ea fb fa bc e5 0c 84 bd fe 86 5f bd 4b b1 c4 bc
       -0.0306377 -0.06447772 -0.054572098 -0.024010321
000220 ca 80 36 bd 08 f7 dd 3b bf 02 d1 bd ea 5b 4b 3c
       -0.044556417 0.006773833 -0.10205602 0.012412051
000230 a6 71 bc bd 3c 6b 8e 3d b9 a6 3b bc 92 5c da bd
       -0.09201364 0.06954047 -0.011453324 -0.10662188
000240 64 9d c9 bc 61 b4 3c bd 1e ff 2c 3a 2c 08 53 3d
       -0.024611183 -0.04607046 0.0006599295 0.051521465
000250 eb ba 79 bd 3a 4c 16 3d 56 5c 92 3c b4 e7 c2 bd
       -0.060969274 0.03669379 0.017866295 -0.0951685
000260 fd f4 e4 bd 74 11 b7 b9 a8 88 7b 3d f7 39 6e 3d
       -0.1117954 -0.00034917484 0.061409622 0.05816075
000270 72 38 02 3e e3 e0 8b 3b 73 d4 11 3d d5 a9 af bd
       0.12716845 0.004268752 0.035602998 -0.08577315
000280 76 2e b4 bd 67 04 5a 3d 47 1b 6f 3d 13 a4 b4 3d
       -0.08797924 0.053226855 0.058375623 0.08820357
000290 d8 d5 2a 3d b6 23 aa 3d f7 6b 11 be c1 a8 7a 3c
       0.041707844 0.083075926 -0.14201342 0.015299023
0002a0 21 ec a0 3c c1 4d b5 3d 8f 1e 7d bc 55 2e 84 bd
       0.019643845 0.08852721 -0.01544918 -0.0645415
0002b0 cc c6 ca 3c 1f 55 22 bd ba 23 37 bd ce 80 35 bd
       0.024752997 -0.03963196 -0.044711806 -0.04431229
0002c0 2a f2 36 bd 6a f6 8a bb 12 fe 26 bd 25 ef a5 bb
       -0.04466454 -0.0042408006 -0.040769644 -0.0050639086
0002d0 73 55 3b bd 40 64 46 3c 05 56 81 bd da ef a5 bd
       -0.045735788 0.012108862 -0.06315235 -0.08102389
0002e0 1a f2 f2 3c b0 86 c3 bd e1 cc 6f bd 0e 8e b0 3c
       0.029656459 -0.09547174 -0.058544997 0.021552112
0002f0 b0 f3 62 3d e3 1b 32 bc a9 0f 9d 3d 76 1c 42 bd
       0.05540818 -0.0108709065 0.076690026 -0.047390424
000300 45 e6 64 bd 0f 6f 78 3c 6f 8f 16 bd 20 a1 14 3d
       -0.055883665 0.015163197 -0.036757883 0.036286473
000310 00 6e e7 bb 8d 3b 3c 3b 77 ca 1f bd a8 44 3e 3d
       -0.0070626736 0.0028722018 -0.039011445 0.046452194
000320 4d 32 1f 3d 07 5a f9 bd 00 81 e2 bd 90 47 53 3d
       0.03886633 -0.121753745 -0.11059761 0.05158192
000330 99 a9 8b 3d 51 7b 62 bd 04 48 e0 3b 0d ae 04 3d
       0.068194576 -0.055293385 0.0068445224 0.03239255
000340 33 77 0e 3d d3 ab 4e bd d4 27 c7 3c 43 ef 8e bd
       0.034781646 -0.050456833 0.024310984 -0.06979229
000350 97 e2 f8 3b f0 b8 86 bd 70 c7 f7 bd 27 f7 b9 3c
       0.007595371 -0.06578243 -0.120985866 0.02270086
000360 70 d2 f0 bd 6e 6f 5d ba 58 12 2f bc cb e1 bb 3c
       -0.11758888 -0.0008447085 -0.010685526 0.022934815
000370 cb ee 83 3d bd c3 03 bd a2 b4 82 3c 53 94 17 bd
       0.064420305 -0.032169092 0.015955273 -0.037006687
000380 32 ce ce 3c 47 cf 40 3d 9c 0d 1c 3d 95 60 a2 bc
       0.025244806 0.047072675 0.038098916 -0.019821445
000390 8a 96 1f bd e0 54 f1 bd a5 66 dd 3c 8e 2e 84 bd
       -0.038961925 -0.11783767 0.027026484 -0.06454192
0003a0 c4 72 0d 3b 96 1e 38 3d 83 08 44 3c 9d 95 b3 3d
       0.0021583298 0.044951044 0.01196492 0.08768771
0003b0 0b 76 17 3b 27 db 7d bd 1b 31 45 3d 5f 58 ac 3c
       0.002311113 -0.061976578 0.048142534 0.021038232
0003c0 62 df 89 bc da f9 3d bd 8e ef df bc 48 5a b2 bd
       -0.01683015 -0.046380855 -0.027335908 -0.08708626
0003d0 06 ca 28 3d eb bb 81 bd b8 bb f8 3b 9a 01 f4 bc
       0.04120829 -0.06334671 0.007590737 -0.02978592
0003e0 ac 1c 10 bc 78 d6 5c 3c f9 f3 8a bc f9 94 98 3c
       -0.008795898 0.013478868 -0.016962038 0.018625723
0003f0 02 28 b2 bd 3f fe 36 3d 30 3c ef bd 56 c2 33 3d
       -0.08699037 0.04467606 -0.11681402 0.043886505

inference_net.gru.bias_hh_l0 f4 [384]
000000 d0 f8 1a 3d 53 35 5f bc 37 ab c9 3d 5f eb 6c 39
       0.037834942 -0.013623553 0.0984711 0.00022594396
000010 3e f5 43 3d 2b 91 2c 3d d3 64 e1 3d 01 29 18 3d
       0.047841303 0.04213063 0.11005559 0.03714848
000020 e3 d3 82 bd 1b 40 3d 3d ef 1b 7f bd 39 ee a7 3d
       -0.063880704 0.046203714 -0.0622825 0.08199734
000030 80 4f 81 bd e8 24 86 3d 91 2b 23 3d 48 ab 98 bc
       -0.063139915 0.06550008 0.03983647 -0.01863636
000040 8a 8d 96 3c 70 6b 1d bc f5 4b 80 3c c4 be 7b 3d
       0.018378038 -0.009608135 0.01566122 0.061461225
000050 7a d0 40 bd 28 82 80 bd 0a 4f 7e 3d 61 ad 21 bd
       -0.04707382 -0.06274825 0.062087096 -0.039471988
000060 06 fd 42 bd cd de 75 3c e4 8f ba 3d d4 9e 4a bd
       -0.047604583 0.015006733 0.09109476 -0.049467877
000070 42 e7 d6 bc e2 26 06 3d 57 ac cb 3c c5 cd 82 3d
       -0.02623332 0.032751925 0.024862451 0.06386904
000080 79 ca 4f 3d cd 9b d1 bb 3f 37 ba bc 5f fb 77 bd
       0.050730202 -0.0063967467 -0.022731422 -0.06054246
000090 90 3f 60 3d d1 88 c8 3c d0 df 2e 3a 95 ee 03 bd
       0.054748118 0.024479302 0.0006670924 -0.03220995
0000a0 87 21 14 bc f1 ed b7 bc 42 92 91 3d 2e 07 52 3b
       -0.009041197 -0.022452326 0.071079746 0.0032047736
0000b0 b7 67 63 3d 72 9b e2 3c 02 d8 40 3d f7 4f 2d bd
       0.055518832 0.027662013 0.047081 -0.04231259
0000c0 56 f4 c4 3c 23 79 33 3d 43 18 71 bd 96 0a 9a 3d
       0.02404229 0.043816697 -0.05886103 0.0752155
0000d0 ea 97 2f 3c a4 93 b9 bc 03 9a 44 3d 2f ed da 3c
       0.0107173715 -0.022653408 0.04799844 0.026724426
0000e0 52 3d a0 3d a6 3d b1 bc f7 e1 76 bd 28 d0 9d ba
       0.07824196 -0.021635842 -0.06027409 -0.0012040185
0000f0 e1 28 d9 3d 3e 1f 2e bd 07 be 09 3c 21 2d 6d 3d
       0.106035 -0.042510264 0.008407122 0.057904366
000100 ca 8b 5a bd 47 3c 39 bd ce 48 e1 3c ad 18 33 bb
       -0.05335597 -0.0452235 0.027500536 -0.002732794
000110 17 13 75 3c 9b 14 c8 3d e0 9b 59 bd 06 16 95 3d
       0.014958165 0.09769555 -0.05312717 0.07279591
000120 b8 b5 40 3d be 57 1a 3d f4 be c7 3c f2 fc 88 3d
       0.0470483 0.037681334 0.024383046 0.066888705
000130 db 52 67 bd 98 f3 d2 3d 1f ac a0 3c a6 99 14 3c
       -0.0564755 0.10300368 0.019613324 0.009069836
000140 c3 c0 42 bd 1b 9f 4d 3c 52 08 6a bb 36 eb 8f bd
       -0.047547113 0.012550141 -0.0035710526 -0.07027285
000150 8b c6 fb bc ac cb 5c 3d 56 06 00 3c 92 0c 97 3b
       -0.030734321 0.053905174 0.007814011 0.004609653
000160 4b ec 45 bd cc 52 0f bd 52 2d 1e bd 44 e6 da 3c
       -0.04832105 -0.03499107 -0.03861744 0.026721127
000170 01 a1 66 3d 81 57 43 bd c3 dc 82 3d 3a 94 4e bd
       0.05630589 -0.047690872 0.06389763 -0.05043433
000180 df 1d a6 bd d4 73 69 bd e4 10 14 bd 08 05 a2 bd
       -0.08111166 -0.056995228 -0.03614892 -0.07911116
000190 98 9c 99 3b 25 bc ad 3d 21 05 b1 3d 0d 6a 03 3b
       0.004687857 0.08483151 0.086435564 0.0020052225
0001a0 be dc 4b 3d 43 bf c0 3d 86 fd 76 bd 1a d9 51 3d
       0.049771063 0.0941148 -0.060300373 0.051232435
0001b0 9c 84 da bd 63 76 e9 bc 19 38 39 bd c7 91 63 3d
       -0.106698245 -0.028498834 -0.045219515 0.055558946
0001c0 f4 52 94 bd 6e e0 0d 3c 7d 8c c8 bc 75 9a 84 3d
       -0.072423846 0.008659465 -0.024481053 0.06474773
0001d0 35 35 f6 ba b8 4e ca bc 9a e5 c4 3b 5f 66 fe bc
       -0.0018784167 -0.02469574 0.006008816 -0.031054674
0001e0 4d 2b 68 bc d1 a0 cb bc 5d 15 3e 3d f4 ff cd bd
       -0.01417048 -0.024856957 0.046407092 -0.10058585
0001f0 c4 fa 5d bd ae b9 0d 3d 2a c0 bd 3d 39 2b 74 bd
       -0.054194227 0.034600906 0.09265168 -0.059611533
000200 90 2b dd 3c 93 b4 b3 bd 13 8f f3 bd 13 b3 a8 3d
       0.026998311 -0.08774676 -0.118925236 0.08237281
000210 53 a2 b4 bc 91 ef 77 bc e9 ca ec bd c7 f5 50 bd
       -0.022050058 -0.015132801 -0.115621395 -0.05101564
000220 82 77 1b bd 2d 40 9d bd 61 88 6e bd aa e3 c3 bb
       -0.03795577 -0.07678256 -0.05823553 -0.0059780674
000230 8d a3 9c bd e1 d6 2b 3d aa bb 26 bd a2 3b 95 bc
       -0.07648382 0.04195297 -0.040706314 -0.018216912
000240 a5 eb 10 3d 21 1d 55 bc f2 db 1b 3d 5a cd 10 3d
       0.035380978 -0.013007433 0.038051553 0.03535209
000250 b5 05 1b 3d cf fa 3e 3a 44 4a 7e 3b aa 6e 17 3d
       0.03784724 0.0007285298 0.003880159 0.03697077
000260 be 5e be bd 17 e3 1f bb e2 e9 ac 3d 27 08 4b 3d
       -0.092954144 -0.002439683 0.08443047 0.04956832
000270 34 50 f9 3d 31 ff 22 3d cb 1e a6 bd 7b 09 b2 bc
       0.12173501 0.03979415 -0.08111342 -0.021733036
000280 70 79 33 bc 0d 18 29 3d 25 8b 30 3d 09 74 14 bc
       -0.010954246 0.041282702 0.04310145 -0.009060868
000290 90 3e 27 3d 75 6f a8 3d db 5d 93 bd 78 b7 2d bc
       0.04083115 0.08224384 -0.07195636 -0.010602824
0002a0 8c 44 92 bd 0e e7 1a bd fc e1 ad 3c 47 6b 11 bb
       -0.071419805 -0.037818007 0.021225922 -0.0022189186
0002b0 02 a8 84 3d 24 07 9f bc 09 a1 b8 bc f9 2e 4e 3d
       0.064773574 -0.019412585 -0.022537725 0.050337765
0002c0 9e d6 b9 3a 42 0f d7 3d 10 3d 89 bb af b4 3d bd
       0.0014178341 0.10500957 -0.0041881874 -0.04631489
0002d0 95 2f 18 bd c8 e0 dc 3d ff 78 8e bd 8a 3d cb bd
       -0.037154753 0.10785061 -0.06956672 -0.09923847
0002e0 78 8c 43 3d 69 69 d6 bc 28 9c 05 bc 80 61 4e 3d
       0.047741383 -0.02617331 -0.008154906 0.050385952
0002f0 9e 13 16 3d 20 5d 9b bd fe 17 45 3b 3c a9 91 3d
       0.036639802 -0.075861216 0.0030074115 0.07112357
000300 a6 6c be bc bb dc 47 3c 90 fc 59 bd 6c e1 c0 bc
       -0.023245167 0.012198622 -0.053219378 -0.02354499
000310 69 86 0b 3c 91 c5 fb 3c 1b 22 71 3d 6a e4 5b bd
       0.008515933 0.030733855 0.058870416 -0.05368463
000320 b1 cb 9a 3d 29 ee 2d bc d1 e9 29 3d c0 2e a1 bd
       0.07558382 -0.010615864 0.04148275 -0.07870245
000330 b3 9d 3e 3a 40 1c cb bd 9a 8d 53 3c 32 63 ba bd
       0.0007271424 -0.09917498 0.012912178 -0.09100951
000340 64 29 46 3d ee 3a d4 3c ed 30 2d bd 34 b0 c7 3c
       0.048379317 0.025907006 -0.042282987 0.024376012
000350 17 46 3b 3d 0d b5 8a 3c ad d1 89 bd ff 76 a3 3d
       0.04572114 0.016932035 -0.067294456 0.07981681
000360 98 5c 2a 3d 2b a9 2d 3c ef 24 4a bb a0 19 f4 bc
       0.04159221 0.010599415 -0.0030844768 -0.029797375
000370 57 01 90 bd be 32 0f be ce 4c 72 3d 0c ad 1f bd
       -0.070315056 -0.139842 0.059155278 -0.03898339
000380 bd b2 f6 bc ed 25 db bc 02 06 6a 3c 1f 7e 4c bd
       -0.030114526 -0.026751483 0.014283659 -0.049924966
000390 74 a2 d3 bd a0 fa f9 bd b5 56 99 bd 9b 37 a5 bd
       -0.1033372 -0.12206006 -0.07487241 -0.080672465
0003a0 b5 ef 2e bd 1e 34 56 bd 6a 79 a2 bd 60 38 22 3d
       -0.04270907 -0.052295797 -0.07933314 0.039604545
0003b0 a3 c5 01 3d 39 18 49 bd 99 18 13 bd 16 38 8d bd
       0.03168262 -0.049095366 -0.03591213 -0.06895463
0003c0 e0 e5 7a bd d1 18 ec bd e0 1c dd 3c 16 73 a0 bd
       -0.061254382 -0.11528171 0.026991308 -0.07834451
0003d0 ec 84 1d bd 43 c2 1b bc 62 ce b9 bd 09 8a c4 bd
       -0.038456842 -0.009506765 -0.090725675 -0.095966406
0003e0 13 e3 11 3d 17 24 bc bd 40 d5 94 bd f9 b4 d5 3d
       0.035616945 -0.09186571 -0.07267237 0.104349084
0003f0 8a cc ce 3c 37 c4 e7 bd e1 40 51 bd da 17 0d bb
       0.025244016 -0.11316722 -0.051087264 -0.002152911

inference_net.h_bottleneck.0.weight f4 [8, 128]
000000 54 6b ea 3c 7e 86 72 3d 58 49 a9 bd 50 3c ef 3b
       0.028615631 0.059210293 -0.08265942 0.007300891
000010 93 e0 aa 3d 1b 5d 18 3d 2a 5d c3 bc 0d 5f 30 bd
       0.083436154 0.037198167 -0.023848135 -0.043059397
000020 7c 82 da 3c 32 97 8d bd f7 52 40 3c 60 42 1b bc
       0.026673548 -0.06913604 0.01173853 -0.009476274
000030 32 94 9b b9 75 70 a4 3d 44 21 9b bd c4 0a 8f bd
       -0.00029674318 0.08029262 -0.07574704 -0.06984475
000040 05 24 9c bd af c7 1e 3d 2f ec 6c bd a2 d9 e3 3b
       -0.07624058 0.038764652 -0.05784243 0.006953434
000050 26 96 9e bb a9 84 c8 bc 39 b8 8a 3d 6f 4b e1 bc
       -0.0048396764 -0.02447732 0.06773419 -0.02750179
000060 c7 81 61 bd ec 1b 97 bd 8e eb 7c bd fc dc 88 3d
       -0.055055406 -0.073783726 -0.06174808 0.066827744
000070 7c 2b 19 bc ba 2b d3 3b d1 72 ac 3d 30 c6 ab 3d
       -0.009348746 0.0064444216 0.08420337 0.08387411
000080 95 ac 80 3c f7 44 24 bd a5 c4 14 bd 33 9b a3 3c
       0.015707294 -0.040104833 -0.036320347 0.019971466
000090 a8 4b 5f 3d a1 29 81 3d f1 9f e5 3c 31 6e c3 bc
       0.05451551 0.06306768 0.028030368 -0.023856254
0000a0 dc f8 07 bd d5 92 66 bd a5 70 a8 bd b7 21 fe bc
       -0.033196315 -0.056292374 -0.0822461 -0.031021936
0000b0 01 27 74 bd 2a fb 5a bd a1 39 a0 bd 2e cb b0 bc
       -0.05960751 -0.053462185 -0.07823492 -0.021581259
0000c0 d5 c1 3b 3d d6 1b 91 3d 69 66 85 3d 96 b2 31 bc
       0.04583915 0.070853874 0.06513674 -0.010845801
0000d0 4b 0a b7 bd e0 61 ce bc df 3a 17 3c 5c e2 2f bd
       -0.0893751 -0.025193155 0.009230345 -0.042940482
0000e0 39 f6 48 bd 29 b5 84 bd 63 da 2f bd 09 ed 3a 3d
       -0.04906294 -0.06479866 -0.04293288 0.04563621
0000f0 26 42 07 bd b3 f7 12 3d 70 15 44 bd 01 30 8f bd
       -0.03302207 0.035880756 -0.047872007 -0.06991578
000100 99 88 70 bd ce 75 b5 3d c9 d1 8d bd 0a e0 79 bd
       -0.05872402 0.0886036 -0.06924779 -0.061004676
000110 cd c7 9b bd df da ab 3c 8f 99 63 bd 2b 45 b2 bc
       -0.07606468 0.02097839 -0.055566367 -0.021761497
000120 00 9d 98 3d a0 a1 04 3c 34 1a 92 3c c1 a7 32 3c
       0.074518204 0.008095175 0.01783476 0.010904253
000130 96 25 8c 3d b3 bd c9 3c d4 be ec bc c5 cf 9d bb
       0.068431064 0.024626588 -0.028899588 -0.004816028
000140 97 7e 01 3d 6e 82 1c 3d 4f fd f4 bb 1b a8 12 3c
       0.031614866 0.038210325 -0.007476486 0.008951212
000150 83 3e 7d 3c 39 8d 68 3c 48 3c 06 3d 66 8a 5c 3d
       0.0154567985 0.014193826 0.032772332 0.053842925
000160 9e 5a 16 3d dc 87 9c bd 83 e9 c7 bc d9 16 8e 3c
       0.036707513 -0.076431006 -0.02440334 0.017344879
000170 a4 90 ad bc 48 d9 18 3c 98 6d 4b 3c ab ac 78 3c
       -0.021187134 0.009329148 0.012416266 0.015177886
000180 e5 db 6c 3d 27 2d 9a bd c4 26 1b 3d df c2 20 3d
       0.057826895 -0.075281434 0.037878767 0.039248344
000190 63 86 37 bc 95 85 79 bc a9 77 f2 bc 77 7e 80 bd
       -0.011201474 -0.015229602 -0.029598074 -0.06274121
0001a0 76 f8 9e bd 80 5c ec 3c 2f e6 fc 3c 71 51 53 bd
       -0.07762234 0.028852701 0.030871479 -0.05159134
0001b0 ab 40 97 3d 95 58 3d bd c2 39 9c 3d 05 26 5a bd
       0.07385381 -0.046227057 0.07628204 -0.053258915
0001c0 9a b1 cc bc 8a 74 33 3d 99 eb 96 bd 86 80 41 bd
       -0.02498703 0.043812312 -0.073691554 -0.04724171
0001d0 61 69 9f bc 54 50 58 bd 1e 42 87 bd 3f b6 8c bc
       -0.019459428 -0.052810982 -0.06604408 -0.017176745
0001e0 c1 7b 08 bc 42 cd 68 bc 14 5b 4f 3c f7 a0 85 bc
       -0.0083302865 -0.0142090935 0.012655992 -0.016312106
0001f0 1b 7b 46 bd 8c ff e4 3b e7 ba 26 bd 30 bb 74 bd
       -0.048457246 0.0069884714 -0.040705588 -0.05974883
000200 5e cf 88 3d b1 1e bc bd f5 03 95 bc 53 a3 91 bc
       0.06680177 -0.091855414 -0.018190363 -0.017778074
000210 c5 f0 b3 bc e9 cf ea 3c d1 0d b2 3d 8f f5 48 bd
       -0.021965394 0.028663592 0.086940415 -0.049062308
000220 9d 7f a6 bc 83 36 a4 bd 10 ab 1d 3d da ad 04 3d
       -0.020324523 -0.0801821 0.038493216 0.03239236
000230 72 ca 58 3d f8 48 37 3d 5a 41 a6 bb bb 72 ba 3b
       0.052927442 0.044747323 -0.0050737085 0.0056899465
000240 ac 97 92 bd 93 ae 80 3d 57 67 62 bd 93 78 f9 bc
       -0.07157835 0.062832974 -0.055274334 -0.030453002
000250 d5 86 9c bd 1f 40 4b bd 75 a2 1d 3d 0b 76 5c 3d
       -0.07642905 -0.049621698 0.03848501 0.053823512
000260 5d d5 b8 3d ae ad dc bc 9d af 90 3d 37 0c 89 3d
       0.09025071 -0.026938286 0.070647456 0.06691783
000270 80 70 18 3d c6 08 b8 3d 9e 07 2e 3c 61 45 78 3d
       0.037216663 0.089860484 0.010621933 0.06061304
000280 60 6d dd 3c 08 f4 a4 3d 33 47 8f bd 8e c1 a8 3d
       0.027029693 0.08054358 -0.06996002 0.082400426
000290 4c 55 bc 3c 41 d5 27 bc bd 08 aa 3d 28 54 73 3d
       0.022989891 -0.010243715 0.08302448 0.05940643
0002a0 61 19 26 bd a1 52 c0 bd ef fc e5 bb 46 de 78 3d
       -0.040551547 -0.0939076 -0.0070186774 0.06075885
0002b0 9a 3f 8f bb 11 00 f0 bc 9b d7 66 bd e9 8d 56 bd
       -0.0043715956 -0.029296907 -0.05635796 -0.05238143
0002c0 09 1f 2f 3b 69 0a 7a 3d db 55 8f bd 09 e7 f0 bc
       0.002672138 0.061045084 -0.069987975 -0.029407041
0002d0 4c 02 84 3c fe db 35 3d a7 46 0e bd e5 21 3f 3c
       0.016114376 0.044399254 -0.034735348 0.011665796
0002e0 9b 45 98 bd e0 4f a3 3d 49 04 89 bd 26 b9 85 3d
       -0.07435151 0.07974219 -0.066902705 0.06529455
0002f0 9f 36 01 bd 14 a9 b3 bc 99 98 bf bd 65 7f 69 3d
       -0.03154623 -0.021931209 -0.093552776 0.05700626
000300 22 2f 28 bc dd f9 6d bd 69 49 6c 3d 57 07 16 bd
       -0.010265144 -0.058099616 0.057687197 -0.036628094
000310 79 6b 9f bd 9d 28 45 bd 66 22 27 bd 91 67 90 bd
       -0.07784171 -0.048134435 -0.04080429 -0.07051004
000320 a2 d9 82 bd 89 c9 fc 3c 8d 5d 24 3d 55 c6 07 bc
       -0.063891664 0.030857818 0.04012828 -0.008287032
000330 f6 d0 84 3c 83 3d d7 bb b2 63 1f 3c 16 2f 8c 3c
       0.016212922 -0.006568612 0.009728359 0.017112296
000340 54 fd cc 3c 2b c1 83 3d 23 7f 3c 3d 01 d1 65 bd
       0.02502314 0.06433328 0.046019685 -0.056107525
000350 d3 6d 7e bd 55 c9 d8 bc 82 76 97 bd 30 17 4e 3d
       -0.062116455 -0.02646319 -0.073956504 0.050315082
000360 a0 94 e1 3c bd 92 79 3d 52 8c b5 3d bb 02 a6 3b
       0.02753669 0.060930956 0.088646546 0.0050662435
000370 68 dd 8c 3c b2 12 22 3d 91 33 12 bd 39 25 bf bc
       0.017195418 0.03956861 -0.03569371 -0.023333179
000380 eb 78 06 3d 60 c5 f4 bc d3 ee 6e bb e4 7a cb bc
       0.03283016 -0.029879272 -0.0036458268 -0.024838872
000390 a2 e5 a4 bd 75 78 34 bd e9 2f 7d bd 69 76 3c bb
       -0.080516115 -0.04406019 -0.06181327 -0.0028757101
0003a0 77 b9 83 3d a4 9c ac 3d 7c 46 2c bd 40 8e ba bd
       0.06431859 0.08428314 -0.042059407 -0.09109163
0003b0 28 43 9e 3d ed 94 91 bb cf 95 9c 3d 97 f0 7e bd
       0.07727653 -0.004442802 0.07645761 -0.062241163
0003c0 de 30 28 3d 50 e0 9a 3d 90 15 4c 3d 3e 73 06 3d
       0.04106223 0.075623155 0.04982525 0.032824747
0003d0 8d e4 21 3d 7b 00 f8 3c fd 93 b2 3c a0 f7 bf bc
       0.039524604 0.030273667 0.021799082 -0.023433506
0003e0 96 99 76 bd 45 c0 9e bd de f2 9b 3d 3f 2c 05 bd
       -0.060205065 -0.07751516 0.076146826 -0.0325129
0003f0 78 7c 28 bb 93 3d 92 bb 08 ea 2c bd f5 39 eb bc
       -0.0025708955 -0.0044629066 -0.042215377 -0.02871416

inference_net.h_bottleneck.0.bias f4 [8]
000000 1e ba 35 3d 0f 17 c6 3c 21 ae 6d 3d f5 13 2d bc
       0.04436695 0.024180917 0.05802739 -0.01056384
000010 b8 0c a9 bd 68 7b 44 3d fe fa 69 3d 70 ff 25 bd
       -0.08254379 0.047969252 0.05712413 -0.040526807
