gpcdx_rca/outputs/nonlinear/model_best.pt (torch, 277218 bytes, 26 tensors)

A_ref_mean f4 [6, 6]
0.0 0.0 0.0 0.0 0.0 0.0 0.0 0.0
0.0 0.0 0.0 0.0 0.0 0.0 0.0 0.0
0.0 0.0 0.0 0.0 0.0 0.0 0.0 0.0
0.0 0.0 0.0 0.0 0.0 0.0 0.0 0.0
0.0 0.0 0.0 0.0
00000000: 0000 0000 0000 0000 0000 0000 0000 0000
00000010: 0000 0000 0000 0000 0000 0000 0000 0000
00000020: 0000 0000 0000 0000 0000 0000 0000 0000
00000030: 0000 0000 0000 0000 0000 0000 0000 0000
00000040: 0000 0000 0000 0000 0000 0000 0000 0000
00000050: 0000 0000 0000 0000 0000 0000 0000 0000
00000060: 0000 0000 0000 0000 0000 0000 0000 0000
00000070: 0000 0000 0000 0000 0000 0000 0000 0000
00000080: 0000 0000 0000 0000 0000 0000 0000 0000

A_ref_var f4 [6, 6]
1.0 1.0 1.0 1.0 1.0 1.0 1.0 1.0
1.0 1.0 1.0 1.0 1.0 1.0 1.0 1.0
1.0 1.0 1.0 1.0 1.0 1.0 1.0 1.0
1.0 1.0 1.0 1.0 1.0 1.0 1.0 1.0
1.0 1.0 1.0 1.0
00000000: 0000 803f 0000 803f 0000 803f 0000 803f
00000010: 0000 803f 0000 803f 0000 803f 0000 803f
00000020: 0000 803f 0000 803f 0000 803f 0000 803f
00000030: 0000 803f 0000 803f 0000 803f 0000 803f
00000040: 0000 803f 0000 803f 0000 803f 0000 803f
00000050: 0000 803f 0000 803f 0000 803f 0000 803f
00000060: 0000 803f 0000 803f 0000 803f 0000 803f
00000070: 0000 803f 0000 803f 0000 803f 0000 803f
00000080: 0000 803f 0000 803f 0000 803f 0000 803f

basis.mlp.0.weight f4 [32, 1]
0.7337041 0.85577595 -0.41018718 0.9352113 -0.28068456 0.28225785 -0.54289806 0.5988297
0.91051775 -0.8105478 0.8962178 0.2922942 0.74616426 0.44333264 0.33795717 -0.21107209
0.7881554 0.50112396 -0.7505609 0.46214867 -0.6886814 -0.16279206 -0.47425112 0.68307704
-0.85084516 -0.52447325 -0.4465756 -0.77748954 0.07041746 -1.0972375 0.9322088 -0.9272321
00000000: 08d4 3b3f 2214 5b3f 0e04 d2be 026a 6f3f
00000010: e3b5 8fbe 1a84 903e 5efb 0abf e74c 193f
00000020: b117 693f 1080 4fbf 886e 653f 96a7 953e
00000030: 9f04 3f3f 7ffc e23e b908 ad3e 4823 58be
00000040: 8dc4 493f a949 003f c224 40bf c09e ec3e
00000050: 6d4d 30bf f6b2 26be 0bd1 f2be 23de 2e3f
00000060: fdd0 59bf e143 06bf 8fa5 e4be 8e09 47bf
00000070: 0737 903d 4772 8cbf 3ca5 6e3f 155f 6dbf

basis.mlp.0.bias f4 [32]
0.8921473 -0.058372967 -0.40604323 0.628566 -0.09644569 1.0408049 -0.19854021 -0.8679923
0.11183683 -0.5536964 0.3614283 1.0829542 0.6188985 -0.8234659 0.8644238 0.044679422
0.51556045 -0.92844856 -0.8383799 -0.8477472 -0.737396 0.863633 0.086824834 0.4106732
0.042182505 -0.31216338 0.8839904 -0.78639 0.25572714 -0.9004354 0.1777626 -0.6280007
00000000: c463 643f 7e18 6fbd e6e4 cfbe b4e9 203f
00000010: 5185 c5bd 1839 853f 204e 4bbe be34 5ebf
00000020: b50a e53d 0cbf 0dbf 210d b93e 3e9e 8a3f
00000030: 2270 1e3f a9ce 52bf e14a 5d3f c501 373d
00000040: c5fb 033f ceae 6dbf 11a0 56bf f605 59bf
00000050: fcc5 3cbf 0d17 5d3f 38d1 b13d c243 d23e
00000060: 90c7 2c3d e1d3 9fbe 324d 623f db50 49bf
00000070: abee 823e ef82 66bf 6607 363e a7c4 20bf

basis.mlp.2.weight f4 [1, 32]
0.0002861941 -0.016012497 0.19205156 0.012062085 0.0341838 -0.15878576 0.05677988 -0.17475101
-0.0038135003 0.11245301 0.00863633 -0.16518424 0.010506267 -0.6116969 -0.036838662 -0.008194728
0.012023714 -0.6899403 0.24228649 -0.38554814 0.2112323 -0.046910793 -0.00015743612 0.011877057
0.019343166 0.08658327 -0.10775783 0.17761584 -0.06276467 0.13943708 -0.00010042528 0.114607014
00000000: 520c 9639 a42c 83bc 2aa9 443e 0da0 453c
00000010: 5004 0c3d bc98 22be 0592 683d eef1 32be
00000020: ebeb 79bb c44d e63d 657f 0d3c 0f26 29be
00000030: 7a22 2c3c 2b98 1cbf 23e4 16bd 2e43 06bc
00000040: 1dff 443c ed9f 30bf f319 783e 9166 c5be
00000050: 484d 583e 8825 40bd 7015 25b9 fd97 423c
00000060: 8f75 9e3c 9252 b13d 23b0 dcbd ede0 353e
00000070: c38a 80bd 98c8 0e3e 699b d2b8 15b7 ea3d

inference_net.gru.weight_ih_l0 f4 [384, 30]
-0.002890792 0.040192727 -0.02059786 -0.011977917 0.023139603 0.013208869 -0.11950432 -0.062389474
-0.080125056 -0.072602846 0.0056549204 -0.043235216 -0.05986758 0.03542559 0.014015043 -0.031724952
-0.15241651 -0.07820435 -0.038181823 0.040250614 -0.023512686 0.00843244 -0.07294578 -0.0044849794
-0.0017318017 0.044399854 -0.019252142 -0.04381912 -0.0009974374 0.026255986 -0.0781327 0.028574899
-0.15069772 -0.024262927 -0.017949892 -0.165864 -0.02531523 -0.080969125 -0.062101137 -0.06950446
-0.1699361 -0.077164434 -0.028690139 0.06815193 -0.18099168 0.051673524 -0.0453209 -0.025141172
-0.027412843 0.06838213 0.009067357 0.032139353 -0.17445539 -0.09577588 -0.11768158 -0.012172365
-0.16730587 -0.021218557 -0.09807866 0.04364314 0.08276272 0.012801611 -0.07506294 0.04787486
0.018924609 -0.089757815 -0.11169455 -0.011095889 -0.07149435 -0.10671931 0.0018277916 0.032079954
-0.09872271 -0.16864519 -0.082061276 -0.035426695 -0.09365852 -0.0664175 -0.06595958 -0.12150485
-0.015115933 0.026553074 -0.11638408 0.02828087 0.0053335335 0.059405036 -0.0059548263 0.038070213
0.020334417 0.0051476783 -0.008863476 -0.068508655 -0.061730284 -0.061863746 -0.0510078 0.010506322
0.08882866 0.016266303 -0.010714273 0.02364098 -0.018369569 0.034318298 0.053272065 -0.025335366
-0.023721252 0.051042758 -0.045499235 -0.04347792 -0.080213524 -0.08098746 -0.32624924 -0.11296207
-0.010841402 0.04315157 0.035476707 -0.1276419 -0.12353611 -0.035378348 0.05352294 0.006861371
-0.0067534773 0.1010938 -0.040206183 -0.15660265 0.04766219 -0.023375005 -0.019472387 -0.1270044
-0.001393527 0.021198047 0.04635741 -0.026686741 -0.13714045 -0.19855757 0.047971725 0.07744673
0.07439974 0.026191585 -0.028240671 0.016734201 -0.20718718 -0.100261904 -0.080929406 -0.02846161
-0.07479666 -0.05124461 -0.07112009 -0.012566913 -0.01939565 -0.063275956 0.008289052 0.015695589
0.007446456 -0.07385756 -0.059315246 -0.030791696 -0.04386626 -0.017425667 -0.084753655 0.045316026
-0.037555944 0.047591243 0.018357944 0.073851 0.013060601 0.120889395 0.04121964 0.064820126
0.03861503 -0.018398331 -0.32802665 -0.011711731 -0.07968317 0.014546885 -0.012577117 0.10982139
0.07847887 0.025755104 0.037885506 -0.05577971 -0.05689042 -0.06555766 -0.11930345 0.016661888
-0.020737983 0.1215014 0.039043136 -0.045959827 -0.012413196 -0.058447972 0.28078106 0.20901044
0.010318197 0.028663358 -0.046517774 -0.004738063 -0.10800792 -0.013359033 -0.052431818 -0.09321029
-0.03264814 0.002416047 0.018640226 0.004421965 -0.049053263 -0.10864215 -0.017281486 0.020075848
0.06779699 -0.0139296735 -0.03242482 -0.005287802 0.010714565 0.0964816 0.02345721 -0.074222565
-0.017290978 0.018650865 0.049913254 -0.044703525 0.12984468 0.064592056 0.0231295 -0.09917729
-0.23827751 0.050146997 0.004429311 -0.11854408 0.022560632 -0.2905404 0.094277486 -0.062063154
0.044888284 0.16016291 0.0840982 -0.057884686 -0.056608994 0.063709505 -0.0049965284 0.057592023
0.07755206 -0.032161232 0.03945612 0.025270877 -0.055145785 -0.16949889 -0.17433211 -0.094696485
-0.07132647 0.06109603 -0.14002237 -0.19103658 -0.022972958 -0.034447193 0.07277501 -0.021203035
00000000: 7173 3dbb 21a1 243d d8bc a8bc 063f 44bc
00000010: 448f bd3c 036a 583c aebe f4bd 1b8c 7fbd
00000020: 9b18 a4bd cdb0 94bd e94c b93b 6917 31bd
00000030: b537 75bd 6c1a 113d 5a9f 653c 06f2 01bd
00000040: 1313 1cbe 9a29 a0bd 8b64 1cbd d4dd 243d
00000050: ad9d c0bc 3828 0a3c 9964 95bd bcf6 92bb
00000060: 9ffd e2ba 9fdc 353d abb6 9dbc ad7b 33bd
00000070: 72bc 82ba cb16 d73c 0904 a0bd e815 ea3c
00000080: 8150 1abe 0cc3 c6bc a70b 93bc 41d8 29be
00000090: e361 cfbc 24d3 a5bd c35d 7ebd 5b58 8ebd
000000a0: bb03 2ebe 6308 9ebd 9507 ebbc 3d93 8b3d
000000b0: e255 39be 9ea7 533d 68a2 39bd dcf4 cdbc
000000c0: e690 e0bc ee0b 8c3d 408f 143c 8ea4 033d
000000d0: 6fa4 32be 2526 c4bd 0a03 f1bd 996e 47bc
000000e0: 3b52 2bbe 8ad2 adbc 77dd c8bd 26c3 323d
000000f0: 807f a93d d9bd 513c 99ba 99bd 6e18 443d
00000100: c807 9b3c f2d2 b7bd 1dc0 e4bd 88cb 35bc
00000110: a16b 92bd a78f dabd 8292 ef3a 4566 033d
00000120: 222f cabd 53b1 2cbe be0f a8bd 951b 11bd
00000130: 0ad0 bfbd e605 88bd d115 87bd 89d7 f8bd
00000140: d1a8 77bc d585 d93c c75a eebd 48ad e73c
00000150: ecc4 ae3b b252 733d b420 c3bb 83ef 1b3d
00000160: 5d94 a63c dbad a83b 1d38 11bc 444e 8cbd
00000170: e5d8 7cbd d764 7dbd 8eed 50bd b522 2c3c
00000180: cdeb b53d e940 853c eb8a 2fbc baaa c13c
00000190: c77b 96bc 5891 0c3d cf33 5a3d 1d8c cfbc
000001a0: 1253 c2bc 3612 513d 685d 3abd e715 32bd
000001b0: fd46 a4bd c1dc a5bd 240a a7be a858 e7bd
000001c0: 23a0 31bc b3bf 303d 0650 113d 8fb4 02be
000001d0: 8000 fdbd e3e8 10bd df3a 5b3d 5ad5 e03b
000001e0: 464c ddbb 440a cf3d 3daf 24bd 725c 20be
000001f0: 6e39 433d f07c bfbc 8e84 9fbc 710d 02be
00000200: 02a7 b6ba 87a7 ad3c 44e1 3d3d 279e dabc
00000210: 8c6e 0cbe ad52 4bbe 007e 443d 649c 9e3d
00000220: e45e 983d bc8f d63c fb58 e7bc 2a16 893c
00000230: e028 54be 1d56 cdbd 51be a5bd 5328 e9bc
00000240: fe2e 99bd dee5 51bd 69a7 91bd 74e5 4dbc
00000250: a0e3 9ebc d396 81bd cece 073c 0994 803c
00000260: 6601 f43b a242 97bd 8bf4 72bd de3e fcbc
00000270: 1cad 33bd 46c0 8ebc 5393 adbd 4c9d 393d
00000280: 43d4 19bd 09ef 423d 6663 963c 313f 973d
00000290: 22fc 553c dc94 f73d edd5 283d 6ac0 843d
000002a0: cb2a 1e3d 19b8 96bc 1cf3 a7be 8fe2 3fbc
000002b0: ee30 a3bd 0f56 6e3c 4110 4ebc 09ea e03d
000002c0: 88b9 a03d 5efc d23c d52d 1b3d 4479 64bd
000002d0: ee05 69bd 1843 86bd 5e55 f4bd 837e 883c
000002e0: b4e2 a9bc bad5 f83d b2eb 1f3d 5f40 3cbd
000002f0: b860 4bbc 2467 6fbd 89c2 8f3e d506 563e
00000300: a80d 293c 6bcf ea3c 6c89 3ebd c141 9bbb
00000310: 4233 ddbd d8df 5abc bfc2 56bd 09e5 bebd
00000320: 0eba 05bd 8b56 1e3b 63b3 983c 22e6 903b
00000330: 13ec 48bd c77f debd e791 8dbc 1b76 a43c
00000340: 26d9 8a3d 4939 64bc e3cf 04bd 4c45 adbb
00000350: 258c 2f3c 2598 c53d 5629 c03c 0002 98bd
00000360: cfa5 8dbc b3c9 983c d771 4c3d 0b1b 37bd
00000370: 01f6 043e d748 843d 147a bd3c 771d cbbd
00000380: 05ff 73be f066 4d3d c123 913b 3dc7 f2bd
00000390: 13d1 b83c b6c1 94be 8e14 c13d ef35 7ebd
000003a0: c7dc 373d bf01 243e ad3b ac3d 7e18 6dbd
000003b0: d5de 67bd 217a 823d ebb9 a3bb 9de5 6b3d
000003c0: 9dd3 9e3d 7fbb 03bd be9c 213d df04 cf3c
000003d0: 8ce0 61bd 1e91 2dbe 1e84 32be 3bf0 c1bd
000003e0: 9d13 92bd d53f 7a3d 0662 0fbe 189f 43be
000003f0: c931 bcbc 8018 0dbd 100b 953d fdb1 adbc

inference_net.gru.weight_hh_l0 f4 [384, 128]
0.06260451 -0.017320018 -0.036403324 -0.026006822 0.06877669 0.036999732 -0.024036659 -0.052979056
0.09882116 -0.13920134 0.053416178 0.044942953 0.04227434 -0.0028693879 0.067554645 0.07060676
0.0017916013 0.098826416 -0.020794062 0.11109909 0.021388048 -0.072889455 -0.07346497 0.09635607
-0.025705952 -0.09309694 -0.09004724 -0.04337526 0.030203214 -0.102492556 0.03250458 0.01035155
-0.0053619295 0.04780201 0.04305249 -0.047768716 -0.11140456 -0.03909126 0.15630874 -0.08244445
-0.103489615 0.029798293 0.073962554 -0.0735558 0.04302192 -0.022672761 -0.035265002 0.049546435
0.08738703 -0.012296376 -0.09098164 0.098123305 0.0067669987 0.01525902 -0.07345464 0.04017076
-0.085723825 -0.0069350926 -0.050906416 0.029616974 0.12983465 -0.00667147 -0.09213434 0.040023617
0.05275268 0.11698585 0.07549922 0.05342949 -0.016557785 -0.0187447 0.043104444 0.0045019127
0.13837524 0.060372163 -0.12328346 -0.04510122 -0.04138754 0.026732083 -0.013788895 0.10719457
-0.07523005 0.08853466 0.05190236 0.03323062 0.020155372 0.024847671 -0.06927242 -0.09492626
0.06373006 -0.07152271 -0.100100026 -0.0947076 0.11124038 -0.09189816 0.10005481 0.043371942
-0.001298192 -0.03728293 -0.06337381 -0.082475 0.052490234 -0.040258966 0.04391075 0.056238066
-0.074570276 0.02320577 -0.11028442 0.062090106 -0.041501287 -0.08440171 -0.09223113 -0.030442499
-0.06434499 -0.018630298 0.07773557 0.00092271814 0.11608034 0.00461052 -0.00032210484 -0.02091527
-0.054960504 -0.028958248 0.044901937 0.12542595 -0.035199247 0.04603279 0.032918517 0.026019428
0.1202649 0.058870263 -0.17491923 -0.049717937 0.08332296 -0.15140614 -0.03778162 0.20936704
-0.062261466 -0.029311324 0.01003926 0.03518831 -0.043366153 0.0635775 0.044966653 -0.16921222
-0.13146934 -0.12152952 -0.17351468 0.08697028 -0.07149114 0.015175295 0.08855965 -0.007499099
-0.062431943 -0.017539607 0.1379791 0.108783446 -0.030663438 0.09063725 0.07831367 0.0813451
-0.0648757 0.08021413 -0.08327219 0.07332153 -0.10713519 0.0037027502 -0.08106524 -0.14827096
-0.005702088 -0.034013215 0.004120685 0.08277526 0.098397285 0.14367847 -0.15418887 -0.0983072
0.07188316 0.13838732 0.021705981 0.06223958 -0.059685234 -0.10112417 0.03380116 0.04253216
-0.06109025 0.053755015 -0.18079987 -0.018272419 0.08192156 -0.075180955 -0.101269 0.00524012
-0.0824395 -0.076497056 0.0046035075 -0.0050733266 -0.071841866 -0.06409473 -0.020528294 0.022320835
-0.022267684 -0.043545935 0.10788809 0.03003307 0.08862019 -0.12312797 0.078925535 0.033154413
0.079800695 0.0029548479 0.032619283 0.03007251 -0.050494198 -0.011981817 -0.053666238 -0.054830845
0.014528864 -0.08063628 0.09179649 -0.10429771 0.1319416 0.13467504 -0.004522269 0.023082117
0.0413672 -0.080957815 0.08915359 0.05347101 -0.10743326 0.17625779 0.13172953 0.084920436
0.07385594 0.041697234 0.13692126 0.06254459 -0.11842697 -0.122970395 -0.040767923 0.03917815
0.17899047 -0.0016111116 -0.029413935 0.025294233 0.04916232 0.029101642 0.04491498 -0.0049671195
-0.11363972 0.19872607 -0.024682265 -0.0382341 0.042013463 0.026302064 0.03498396 -0.053638518
00000000: cb36 803d b6e2 8dbc a71b 15bd 420c d5bc
00000010: cbda 8c3d 088d 173d 87e8 c4bc 9100 59bd
00000020: c062 ca3d cc8a 0ebe ecca 5a3d 1a16 383d
00000030: dc27 2d3d 570c 3cbb 175a 8a3d 479a 903d
00000040: 2ad4 ea3a 8165 ca3d 4f58 aabc eb87 e33d
00000050: fd35 af3c 1147 95bd cd74 96bd 5556 c53d
00000060: 4a95 d2bc 9ca9 bebd b06a b8bd 42aa 31bd
00000070: bb6c f73c 9ee7 d1bd 8623 053d 8c99 293c
00000080: 20b3 afbb 0acc 433d cf57 303d 21a9 43bd
00000090: 1328 e4bd 281e 20bd 660f 203e a3d8 a8bd
000000a0: 5df2 d3bd 8d1b f43c ae79 973d 6ca4 96bd
000000b0: c137 303d 3abc b9bc 0972 10bd 34f1 4a3d
000000c0: f9f7 b23d bd76 49bc 9554 babd dff4 c83d
000000d0: b3bd dd3b f800 7a3c 636f 96bd 188a 243d
000000e0: f98f afbd c63f e3bb 3f83 50bd 4c9f f23c
000000f0: 60f3 043e 599c dabb eeb0 bcbd ceef 233d
00000100: 3213 583d 4796 ef3d 569f 9a3d e2d8 5a3d
00000110: 31a4 87bc 7c8e 99bc 498e 303d c884 933b
00000120: 3db2 0d3e cd48 773d 0a7c fcbd 0fbc 38bd
00000130: fb85 29bd 3efd da3c d1ea 61bc d488 db3d
00000140: 3612 9abd a951 b53d 9297 543d d51c 083d
00000150: e11c a53c 588d cb3c b3de 8dbd b368 c2bd
00000160: e884 823d 807a 92bd 3e01 cdbd 0ff6 c1bd
00000170: ffd1 e33d 1a35 bcbd 89e9 cc3d c7a6 313d
00000180: 1828 aaba fcb5 18bd 21ca 81bd a7e8 a8bd
00000190: 0000 573d 96e6 24bd c2db 333d e359 663d
000001a0: 4db8 98bd 071a be3c ccdc e1bd 3252 7e3d
000001b0: 41fd 29bd ceda acbd ade3 bcbd 8c62 f9bc
000001c0: 4ec7 83bd 919e 98bc d433 9f3d 91e2 713a
000001d0: 88bb ed3d d813 973b 2ee0 a8b9 8056 abbc
000001e0: 441e 61bd d939 edbc 18eb 373d a96f 003e
000001f0: 162d 10bd e18c 3c3d 91d5 063d b226 d53c
00000200: 724d f63d f221 713d 071e 33be 09a5 4bbd
00000210: 3aa5 aa3d 360a 1bbe e6c0 1abd 5064 563e
00000220: e105 7fbd 4d1e f0bc b57b 243c 9e21 103d
00000230: b5a0 31bd ec34 823d f42e 383d f845 2dbe
00000240: e69f 06be 78e4 f8bd d5ad 31be 791d b23d
00000250: f269 92bd cda1 783c c35e b53d 00bb f5bb
00000260: a3b8 7fbd 39af 8fbc 654a 0d3e dbc9 de3d
00000270: e431 fbbc 06a0 b93d eb62 a03d 4398 a63d
00000280: 8ddd 84bd 4e47 a43d 9c8a aabd 9929 963d
00000290: b269 dbbd d7a9 723b 8805 a6bd 58d4 17be
000002a0: 95d8 babb 7151 0bbd d006 873b 1386 a93d
000002b0: 8484 c93d 7320 133e b0e3 1dbe 4955 c9bd
000002c0: 7a37 933d 68b5 0d3e bed0 b13c eeee 7e3d
000002d0: 8178 74bd 301a cfbd 1673 0a3d 3436 2e3d
000002e0: c539 7abd 382e 5c3d 9a23 39be 0ab0 95bc
000002f0: 7ec6 a73d 79f8 99bd 1f66 cfbd 50b5 ab3b
00000300: 0ad6 a8bd 7daa 9cbd 05d9 963b 263e a6bb
00000310: d421 93bd 1944 83bd f42a a8bc 2fda b63c
00000320: b86a b6bc 395d 32bd 6ef4 dc3d ea07 f63c
00000330: 817e b53d 842a fcbd b6a3 a13d eccc 073d
00000340: 8c6e a33d 1fa6 413b cc9b 053d a05a f63c
00000350: 01d3 4ebd 624f 44bc 21d1 5bbd 4f96 60bd
00000360: 790a 6e3c a224 a5bd ccff bb3d 0a9a d5bd
00000370: b31b 073e 41e8 093e 8b2f 94bb b516 bd3c
00000380: a770 293d 36cd a5bd 2896 b63d 6b04 5b3d
00000390: f805 dcbd ec7c 343e 1be4 063e c4ea ad3d
000003a0: c841 973d b8ca 2a3d 1635 0c3e 6117 803d
000003b0: d789 f2bd e7d7 fbbd 44fc 26bd 4579 203d
000003c0: 4749 373e ef2b d3ba 7ef5 f0bc da35 cf3c
000003d0: 6e5e 493d 9166 ee3c c5f8 373d 38c3 a2bb
000003e0: f1bb e8bd d97e 4b3e 7632 cabc 5c9b 1cbd
000003f0: 4f16 2c3d 6d77 d73c 574b 0f3d 10b4 5bbd

inference_net.gru.bias_ih_l0 f4 [384]
0.0897296 0.033617485 0.037947334 -0.030750731 0.053190567 0.18233961 -0.022750033 -0.06572709
-0.001039148 -0.050766755 0.061654255 0.035301417 -0.13449311 0.1067743 -0.07390198 0.07593905
-0.09344978 0.080589704 -0.06420521 0.086788155 0.02608138 0.040244464 0.17438942 0.08937798
-0.036402386 0.09936838 0.07844143 0.028085405 0.036524378 -0.059937794 -0.085204765 -0.061547004
0.025557462 -0.09957739 0.15190385 0.10157027 -0.039198764 0.08113224 -0.0072481125 0.009125573
-0.031546075 0.0031417145 0.012106429 -0.061386243 0.025726557 -0.011561366 -0.13187334 0.0013116607
-0.09511339 -0.049063824 0.092517905 -0.05444339 0.038790688 -0.061960816 -0.044760607 0.036400918
0.12325067 0.010626182 -0.06880968 0.09136914 0.024373103 -0.099181086 -0.1089922 -0.054921277
-0.07360911 0.09481877 0.041028194 0.06952842 0.09575503 -0.03743941 0.050947774 -0.05765689
-0.0969081 0.04069562 0.013545824 0.13325869 -0.017972723 0.051073775 0.057125703 -0.035725668
0.006399725 -0.08595541 -0.042101484 -0.020359352 -0.02707588 0.044127453 0.002581805 0.038158488
0.07241041 -0.026548449 -0.0628696 0.015615082 -0.083229326 0.041189335 -0.06093588 0.11163721
0.023343256 -0.082245834 0.013401839 -0.077396825 -0.09058441 -0.049322035 -0.08489505 0.106477104
0.010713614 0.09437772 -0.07268585 -0.028768292 -0.02408143 0.092539184 -0.06488707 0.015767124
0.018765612 0.044810824 0.09873463 0.0870285 -0.04622032 0.036017984 0.05089306 0.0960439
-0.034332417 0.03889801 -0.088658735 0.0029810562 -0.021212915 -0.022427054 0.023381826 -0.08192736
0.1458454 -0.068923876 0.032029472 0.014834699 0.07399656 0.00072406494 -0.03345842 0.109129995
-0.047270153 -0.030848892 -0.039186645 0.0068462803 0.055893645 0.0505883 0.116969556 -0.10547709
0.021819236 -0.018449923 0.04835985 0.010523786 -0.12862879 -0.016519738 -0.014867554 0.05528253
-0.03107729 0.051725358 -0.022942588 0.0008760959 0.058449347 0.06196388 0.12287619 -0.036699884
0.008242172 -0.09209314 -0.1316757 0.1119721 0.025106698 0.02174285 -0.081970915 -0.029092172
0.037020776 -0.061553463 -0.027339343 0.031977832 -0.041634228 0.1199426 0.063990496 0.025440918
-0.0301186 0.03959302 0.00036863185 -0.052323185 -0.050982222 0.05421293 0.06434465 0.09592476
0.07385625 0.0628944 -0.063542455 0.004489065 -0.022952996 0.07498367 0.017698664 0.01706049
0.12496482 -0.035860542 0.03283545 0.060033027 -0.008958811 -0.08128024 0.13220362 0.1282655
0.09629293 -0.014616239 -0.06431009 -0.09633142 0.07177707 -0.037690435 0.0010437282 -0.09236715
0.038117357 0.039662722 -0.043673526 -0.015192386 0.09549817 -0.0139190685 0.022542823 -0.0049600336
-0.18996635 0.008103466 0.07486347 0.050843995 0.041537795 -0.118052445 -0.0733335 0.015325906
-0.090448536 2.5418316e-05 0.030896533 -0.054107167 -0.041281972 -0.2046624 0.0755224 0.008063825
0.057569228 0.007862872 -0.048154917 -0.03895628 -0.040644374 -0.09336794 -0.05103799 -0.07542137
-0.035161056 -0.08510438 0.012600679 -0.03294894 0.0756291 0.058522727 -0.054109782 0.042665914
0.053189732 0.04261256 0.087701626 0.05544987 0.06651988 0.04394516 -0.015827036 0.024997475
00000000: 27c4 b73d 7db2 093d aa6e 1b3d f5e8 fbbc
00000010: 5ade 593d 3cb7 3a3e 475e babc ed9b 86bd
00000020: 0534 88ba cdf0 4fbd 2c89 7c3d 3898 103d
00000030: 90b8 09be 7cac da3d ec59 97bd ef85 9b3d
00000040: 9962 bfbd 370c a53d 057e 83bd fdbd b13d
00000050: 9ea8 d53c 61d7 243d 2493 323e cd0b b73d
00000060: ab1a 15bd a681 cb3d e7a5 a03d 5d13 e63c
00000070: 969a 153d 5581 75bd d67f aebd b618 7cbd
00000080: e25d d13c 3bef cbbd af8c 1b3e 1304 d03d
00000090: e28e 20bd a928 a63d 9381 edbb 6d83 153c
000000a0: 7536 01bd 39e5 4d3b 0b5a 463c 2470 7bbd
000000b0: 80c0 d23c e26b 3dbc ce09 07be 08ec ab3a
000000c0: cfca c2bd 26f7 48bd 077a bd3d 0800 5fbd
000000d0: fce2 1e3d a0ca 7dbd e656 37bd 2119 153d
000000e0: d96a fc3d 7019 2e3c 17ec 8cbd be1f bb3d
000000f0: 1aaa c73c 741f cbbd 4d37 dfbd 22f5 60bd
00000100: 60c0 96bd 5830 c23d 2e0d 283d eb64 8e3d
00000110: 371b c43d 115a 19bd 9dae 503d a229 6cbd
00000120: c177 c6bd 73b0 263d 4eef 5d3c f774 083e
00000130: 883b 93bc bc32 513d a4fc 693d 1455 12bd
00000140: c9b4 d13b 6409 b0bd 9b72 2cbd a8c8 a6bc
00000150: 3cce ddbc fdbe 343d 8033 293b 134c 1c3d
00000160: e94b 943d 227c d9bc c7c1 80bd 67d6 7f3c
00000170: 2374 aabd 26b6 283d e797 79bd 0da2 e43d
00000180: 5b3a bf3c 8170 a8bd 6393 5b3c 3a82 9ebd
00000190: 5284 b9bd e705 4abd 75dd adbd ab10 da3d
000001a0: 2788 2f3c 1b49 c13d 52dc 94bd 7bab ebbc
000001b0: 6b46 c5bc 2f85 bd3d 83e3 84bd 0e2a 813c
000001c0: 57ba 993c 8e8b 373d 6235 ca3d 003c b23d
000001d0: 8551 3dbd 9887 133d 3e75 503d aab2 c43d
000001e0: 26a0 0cbd 8553 1f3d b692 b5bd d35d 433b
000001f0: b5c6 adbc f1b8 b7bc 3e8b bf3c 88c9 a7bd
00000200: 7f58 153e f627 8dbd 5631 033d 3d0d 733c
00000210: 828b 973d 2dcf 3d3a b20b 09bd 8c7f df3d
00000220: 599e 41bd d1b6 fcbc 2d82 20bd c356 e03b
00000230: bcf0 643d ad35 4f3d bc8d ef3d 5f04 d8bd
00000240: 41be b23c 4b24 97bc fa14 463d f56b 2c3c
00000250: 44b7 03be 6754 87bc 0b97 73bc ef6f 623d
00000260: cd95 febc f8dd 533d 18f2 bbbc cda9 653a
00000270: 9568 6f3d d6cd 7d3d 83a6 fb3d 9e52 16bd
00000280: 2d0a 073c 549b bcbd ffd5 06be a151 e53d
00000290: 90ac cd3c 101e b23c 5ee0 a7bd b552 eebc
000002a0: 19a3 173d 7c1f 7cbd c2f6 dfbc 30fb 023d
000002b0: a788 2abd 77a4 f53d 730d 833d 7969 d03c
000002c0: 48bb f6bc 4a2c 223d ee44 c139 d650 56bd
000002d0: bcd2 50bd 610e 5e3d 21c7 833d 3374 c43d
000002e0: f241 973d c7ce 803d 8c22 82bd 0219 933b
000002f0: ec07 bcbc 0a91 993d cafc 903c 71c2 8b3c
00000300: 8eed ff3d 81e2 12bd 777e 063d 31e5 753d
00000310: fac7 12bc 4176 a6bd 6360 073e 0858 033e
00000320: 3a35 c53d f378 6fbc 02b5 83bd 6849 c5bd
00000330: dbff 923d 4961 1abd b5cd 883a fd2a bdbd
00000340: f220 1c3d 6175 223d 03e3 32bd 7ce9 78bc
00000350: 8b94 c33d ce0c 64bc baab b83c c787 a2bb
00000360: 8a86 42be 66c4 043c 0552 993d cb41 503d
00000370: 8923 2a3d 7bc5 f1bd e02f 96bd 8219 7b3c
00000380: 153d b9bd 6b39 d537 ba1a fd3c 7a9f 5dbd
00000390: 4917 29bd 0593 51be 7dab 9a3d 221e 043c
000003a0: b6cd 6b3d 47d3 003c 173e 45bd 9f90 1fbd
000003b0: b77a 26bd b137 bfbd 360d 51bd 8576 9abd
000003c0: 0a05 10bd 354b aebd 1473 4e3c 78f5 06bd
000003d0: 6ee3 9a3d 87b5 6f3d 38a2 5dbd 74c2 2e3d
000003e0: 7add 593d 828a 2e3d e99c b33d 671f 633d
000003f0: 933b 883d d7ff 333d b3a7 81bc 81c7 cc3c

inference_net.gru.bias_hh_l0 f4 [384]
0.038228508 -0.090841286 0.033315577 0.061608262 -0.0407134 0.08517396 -0.011195613 -0.071432
0.043231964 -0.019934483 -0.010133736 -0.0694538 -0.06503254 0.12581064 -0.110496655 0.08976014
-0.06439703 -0.025985597 -0.07760985 0.02036002 -0.03819815 -0.043378167 0.102442585 0.04511399
0.022584371 0.039480392 0.059997667 -0.09469932 0.07633816 0.08785844 -0.052963324 -0.064823724
0.15439223 -0.013365728 0.0886986 0.024633387 -0.07970645 0.094669014 -0.072431624 0.019691622
-0.024140459 0.0040709353 0.033398997 -0.17398424 0.03784819 0.13442385 -0.053108077 -0.019090807
0.008583692 0.002836551 0.14601369 -0.0068922983 0.031116348 0.06275869 0.10274652 0.0118762655
0.13577534 -0.06457182 -0.057747994 0.1110602 0.08482743 -0.07573454 -0.05776749 0.020232478
-0.10131943 0.031446617 0.0014422255 0.001276402 0.09384063 0.03441037 -0.023464726 -0.015950656
-0.05654924 0.08466277 0.032932572 0.084790275 -0.14201231 -0.0429526 0.008747017 0.04362206
0.07827827 0.0503654 -0.0895547 -0.073659815 0.07894376 -0.055618852 -0.013619587 0.075545155
0.019039039 0.02845542 0.052662022 -0.040961858 -0.007680125 -0.09199286 0.073452555 0.09569778
-0.009377055 -0.13641289 -0.040170655 0.0030979034 0.020026537 0.08802374 -0.06749672 0.052188564
-0.026273718 0.09586071 -0.047774076 -0.036454212 0.08018602 0.060424324 -0.04475612 0.07467454
-0.027978184 0.048673853 0.015224723 0.14318937 0.12804203 -0.04649489 0.1252649 0.030982086
-0.0387774 0.031233279 -0.044429384 0.027720353 0.08035886 -0.09955187 0.026831789 -0.045542337
0.015588121 -0.022378074 0.08299582 0.012154229 0.048841786 -0.038237892 -0.030158605 0.046969455
0.057340097 0.08151018 0.07469319 -0.07510524 -0.00717481 -0.04084592 0.11689654 -0.045979112
-0.056509316 -0.0030788176 0.061710093 -0.020514376 -0.17094919 0.068689406 -0.023267388 0.069751024
-0.06813459 -0.03906041 0.022620335 0.10964907 0.01567056 -0.026050339 -0.022577068 -0.0727731
0.026083667 0.035849165 -0.10103703 0.08823167 -0.033800796 0.039641313 -0.10279201 0.028883783
0.083362 0.104878224 -0.07738203 0.01640833 -0.05082346 0.009982652 0.031041814 -0.07866991
-0.022970706 -0.0072633824 0.051069655 0.035134554 -0.045569446 -0.02573672 -0.02300702 0.025220782
0.077759966 0.109462455 -0.082345024 -0.03614498 -0.09004186 -0.008771482 -0.043662637 -0.07599412
0.07033902 0.053703234 0.13908415 -0.0391426 -0.07479493 -0.08292248 0.013586255 -0.007350686
-0.047727343 -0.0055271187 0.012118053 -0.035704784 -0.016567387 -0.033655036 0.124186136 0.03381393
0.12655169 0.054455824 -0.08551458 -0.0013912035 -0.0071696485 0.08047136 0.08155025 -0.067540094
-0.16112861 -0.042672966 -0.031885087 0.01142367 -0.09842415 -0.1103313 0.044785243 0.019213142
0.035629142 0.07008873 0.053358443 0.0068042353 0.024942666 -0.17952488 0.05849057 0.116270736
0.016216611 -0.10172516 -0.01290187 0.037995003 0.08353509 0.04672408 -0.05172038 -0.11023224
0.0028249568 0.032259367 0.030114286 0.041402936 0.04727491 0.06903438 -0.16159359 -0.021835675
0.048090525 -0.1048085 0.0731265 0.016231183 0.05847435 0.04705765 -0.071692534 0.03160591
00000000: 7f95 1c3d ff0a babd ea75 083d f258 7c3d
00000010: 18c3 26bd af6f ae3d ce6d 37bc f14a 92bd
00000020: 0014 313d a44d a3bc f807 26bc cb3d 8ebd
00000030: c82f 85bd 81d4 003e 124c e2bd 2ad4 b73d
00000040: 97e2 83bd bfdf d4bc eaf1 9ebd 0fca a63c
00000050: aa75 1cbd 4ead 31bd 6bcd d13d 72c9 383d
00000060: dc02 b93c 31b6 213d 1dc0 753d b8f1 c1bd
00000070: 2e57 9c3d 20ef b33d 12f0 58bd 4dc2 84bd
00000080: ff18 1e3e edfb 5abc 9da7 b53d f5cb c93c
00000090: 233d a3bd d4e1 c13d 0857 94bd 5350 a13c
000000a0: 36c2 c5bc 7b65 853b 63cd 083d ed28 32be
000000b0: b406 1b3d 68a6 093e db87 59bd 5364 9cbc
000000c0: 9da2 0c3c 6ee5 393b 9d84 153e cad8 e1bb
000000d0: b6e7 fe3c a187 803d c46c d23d ab94 423c
000000e0: b108 0b3e 3b3e 84bd 2989 6cbd 8873 e33d
000000f0: 01ba ad3d b61a 9bbd 9b9d 6cbd 95be a53c
00000100: 9080 cfbd 2bce 003d 0f09 bd3a f24c a73a
00000110: 842f c03d e3f1 0c3d 1939 c0bc f3aa 82bc
00000120: 2da0 67bd ad63 ad3d 4ee4 063d 86a6 ad3d
00000130: ad6b 11be 11ef 2fbd a64f 0f3c 0cad 323d
00000140: 5c50 a03d f34b 4e3d 7468 b7bd f5da 96bd
00000150: 44ad a13d 98d0 63bd b024 5fbc 6bb7 9a3d
00000160: c2f7 9b3c 571b e93c 22b4 573d 9fc7 27bd
00000170: 8fa9 fbbb c166 bcbd 4b6e 963d 33fd c33d
00000180: 38a2 19bc d2af 0bbe fc89 24bd 3206 4b3b
00000190: b10e a43c ca45 b43d b83b 8abd adc3 553d
000001a0: fb3b d7bc 9f52 c43d c0ae 43bd 0351 15bd
000001b0: 9138 a43d 7f7f 773d 3152 37bd f7ee 983d
000001c0: 8132 e5bc 3c5e 473d 1e71 793c 3ca0 123e
000001d0: 731d 033e 6d71 3ebd 7145 003e 25ce fd3c
000001e0: 0dd5 1ebd efdc ff3c 96fb 35bd cb15 e33c
000001f0: 3093 a43d dae1 cbbd 57ce db3c 9a8a 3abd
00000200: 5165 7f3c 3952 b7bc b6f9 a93d 8822 473c
00000210: 530e 483d 569f 1cbd 2e0f f7bc 0b63 403d
00000220: 73dd 6a3d cfee a63d bef8 983d c7d0 99bd
00000230: ab1a ebbb 0d4e 27bd 7467 ef3d 9854 3cbd
00000240: 5076 67bd fdc5 49bb b9c3 7c3d c40d a8bc
00000250: 4e0d 2fbe 08ad 8c3d 409b bebc a0d9 8e3d
00000260: 268a 8bbd cffd 1fbd 484e b93c b18f e03d
00000270: 8c5f 803c 8567 d5bc 8bf3 b8bc 100a 95bd
00000280: 6aad d53c 93d6 123d 81ec cebd ceb2 b43d
00000290: b472 0abd ee5e 223d 9e84 d2bd af9d ec3c
000002a0: b2b9 aa3d 65ca d63d 787a 9ebd c36a 863c
000002b0: 432c 50bd 478e 233c 674b fe3c b11d a1bd
000002c0: 102d bcbc ab01 eebb 6a2e 513d 40e9 0f3d
000002d0: 07a7 3abd d0d5 d2bc 3879 bcbc d09b ce3c
000002e0: 9e40 9f3d da2d e03d 82a4 a8bd c20c 14bd
000002f0: de67 b8bd 43b6 0fbc 98d7 32bd cea2 9bbd
00000300: e70d 903d ecf7 5b3d 136c 0e3e fe53 20bd
00000310: 162e 99bd 43d3 a9bd e298 5e3c 06de f0bb
00000320: bf7d 43bd d51c b5bb cc8a 463c 2e3f 12bd
00000330: 54b8 87bc ddd9 09bd 4d55 fe3d 7a80 0a3d
00000340: c496 013e 120d 5f3d 4522 afbd 0b59 b6ba
00000350: 5fef eabb 2bce a43d d103 a73d 7652 8abd
00000360: e6fe 24be d9c9 2ebd f099 02bd 582a 3b3c
00000370: 9a92 c9bd 60f5 e1bd bb70 373d e164 9d3c
00000380: ddef 113d ae8a 8f3d 628e 5a3d 10f6 de3b
00000390: 9054 cc3c 5fd5 37be cf93 6f3d 5a1f ee3d
000003a0: b3d8 843c 4855 d0bd 5d62 53bc a6a0 1b3d
000003b0: 7214 ab3d c061 3f3d c0d8 53bd 71c1 e1bd
000003c0: e922 393b 6622 043d 3cb2 f63c 2096 293d
000003d0: 56a3 413d e661 8d3d ca78 25be bbe0 b2bc
000003e0: 92fa 443d d7a5 d6bd 59c3 953d 42f7 843c
000003f0: cd82 6f3d 86bf 403d 89d3 92bd 3375 013d

inference_net.h_bottleneck.0.weight f4 [8, 128]
-0.0019648722 0.060458135 0.040073186 0.025098125 -0.017324539 -0.045368217 -0.08187427 -0.0132555105
0.010134026 0.031492 -0.015373923 -0.059698343 -0.09282837 0.03929108 -0.013404951 0.029552875
0.03391158 -0.060767174 -0.012798983 -0.075612895 0.010246208 -0.020102821 -0.03697472 -0.038996093
0.029679107 0.027665814 -0.0025432254 0.05078197 -0.021169689 -0.022015989 -0.030073041 0.0035009063
0.0062906547 -0.059986956 -0.09173933 0.074337415 0.08071109 -0.0029782339 0.00013556895 -0.028794184
0.01895021 -0.039234534 -0.101627566 -0.0017518719 -0.08628244 0.02461307 -0.017055886 -0.010519769
0.013917161 -0.011537537 0.067877874 0.08151839 0.04897564 -0.027189799 0.111103706 0.047573335
-0.031838402 -0.011369537 -0.087342605 0.08763849 -0.011668388 0.0761484 -0.0646243 -0.04985608
-0.042274088 0.11251952 -0.067828044 -0.004513015 0.049048275 0.006989441 -0.041251544 -0.07719204
0.010683682 -0.00022858928 0.06587438 0.08959603 -0.034561306 -0.05627625 -0.019247226 -0.08087606
0.0919403 -0.049000174 -0.061291445 -0.064148545 0.048204154 0.025844112 -0.010116301 -0.0052297553
-0.06051288 -0.0041531334 0.022795163 0.08928772 0.03858399 -0.099724956 0.01917436 0.017795263
-0.083112285 -0.0005252475 -0.020743283 0.06699654 0.03288245 -0.052893724 -0.041000552 -0.029502397
-0.071325116 0.026141275 -0.015457827 0.030426387 -0.101388946 -0.019218087 0.011365819 -0.044244617
-0.020333024 0.037197534 0.030612137 0.03845843 -0.05348554 -0.036079656 -0.013730653 -0.106405035
-0.03082016 -0.022216953 0.023778806 -0.054282587 -0.02363719 -0.04484767 -0.010207353 -0.041810352
0.053588938 -0.026023554 -0.03672378 0.008764553 0.013724633 0.03097668 0.048908137 0.015548509
0.06878588 -0.0597246 -0.065535665 0.014283294 0.06801863 0.0209848 -0.03397672 0.0352052
0.03268259 -0.021515729 -0.0047952333 0.013991522 -0.07410492 -0.06285316 0.09024703 -0.04282987
0.04936119 0.036443822 0.03614365 0.0027476626 -0.07386441 0.039815996 0.00289095 0.07244681
-0.03600105 0.0060747545 0.077461466 0.01586263 -0.050506525 -0.04063959 0.007863642 -0.039289296
-0.011094904 0.060418494 0.09016694 -0.07339294 0.04018016 -0.0153158605 -0.086686864 -0.060576987
0.04589486 -0.07005565 -0.1040715 0.010616482 0.102120906 -0.008014133 -0.14171232 -0.05290186
0.09877307 0.104212776 0.075495414 -0.06101363 0.08100344 -0.0018391514 -0.054702684 0.045634393
-0.03864307 0.010967226 -0.007868536 0.07496959 -0.10336806 0.07993062 0.016087832 0.043991778
-0.017960217 0.045337368 0.042327844 0.025029486 -0.02149301 0.041783158 0.109893024 -0.031524457
0.035755213 0.041615665 0.05991458 0.040536147 -0.05586355 -0.004689027 -0.030027818 -0.044909827
-0.040140115 0.015815688 0.024572453 -0.06563285 0.07963065 -0.045794982 0.048631597 -0.057924204
-0.053588107 -0.062472098 -0.011222285 0.06092367 0.08263103 -0.12686203 0.048968423 0.023715528
0.04757441 -0.07749674 -0.0291926 -0.03200985 -0.041869286 0.038814336 -0.061726123 0.039952837
-0.013043073 -0.009206875 0.017957037 0.03000876 0.022384265 -0.06859325 -0.023572683 0.011280141
0.014335035 0.07687916 0.022183875 -0.041246507 0.011572544 -0.012528048 -0.033729035 -0.0055982503
00000000: 16c5 00bb f3a2 773d c823 243d 959a cd3c
00000010: 31ec 8dbc 06d4 39bd b3ad a7bd a42d 59bc
00000020: 3009 263c c1fd 003d e8e2 7bbc 4086 74bd
00000030: cd1c bebd afef 203d 71a0 5bbc df18 f23c
00000040: dee6 0a3d 00e7 78bd d3b2 51bc efda 9abd
00000050: b6df 273c acae a4bc ce72 17bd 5eba 1fbd
00000060: 9921 f33c 6ba3 e23c 3eac 26bb c100 503d
00000070: 0e6c adbc e05a b4bc bd5b f6bc 766f 653b
00000080: d621 ce3b e2b4 75bd d4e1 bbbd 373e 983d
00000090: db4b a53d 792e 43bb 8327 0e39 c8e1 ebbc
000000a0: 793d 9b3c 64b4 20bd 1d22 d0bd 119f e5ba
000000b0: d9b4 b0bd 59a1 c93c c9b8 8bbc 1c5b 2cbc
000000c0: ce04 643c f007 3dbc 8e03 8b3d 1df3 a63d
000000d0: ae9a 483d 24bd debc 578a e33d 42dc 423d
000000e0: fc68 02bd 4b47 3abc aee0 b2bd cf7b b33d
000000f0: c42c 3fbc b1f3 9b3d bf59 84bd e435 4cbd
00000100: 9827 2dbd a270 e63d 6ee9 8abd eae1 93bb
00000110: d8e6 483d ae07 e53b 61f7 28bd dc16 9ebd
00000120: 9c0a 2f3c 78b1 6fb9 26e9 863d 207e b73d
00000130: 2890 0dbd ed81 66bd 5cac 9dbc 59a2 a5bd
00000140: 324b bc3d 68b4 48bd bd0c 7bbd 5060 83bd
00000150: b871 453d 08b7 d33c d7be 25bc 5e5e abbb
00000160: 5bdc 77bd 0217 88bb ecbc ba3c 7bdc b63d
00000170: 3f0a 1e3d 993c ccbd 8c13 9d3c 5fc7 913c
00000180: c636 aabd c3b0 09ba d1ed a9bc 7b35 893d
00000190: bfaf 063d 17a7 58bd 32f0 27bd 03af f1bc
000001a0: e712 92bd 3a26 d63c d342 7dbc c240 f93c
000001b0: 02a5 cfbd 406f 9dbc b337 3a3c d839 35bd
000001c0: 7191 a6bc 715c 183d 4ec6 fa3c 9686 1d3d
000001d0: a713 5bbd 43c8 13bd 88f6 60bc e2ea d9bd
000001e0: 8f7a fcbc 5400 b6bc c5cb c23c 6b57 5ebd
000001f0: c8a2 c1bc 31b2 37bd be3c 27bc 5541 2bbd
00000200: 1380 5b3d 592f d5bc ad6b 16bd 3399 0f3c
00000210: 48dd 603c cec2 fd3c e653 483d 2cbf 7e3c
00000220: 9ddf 8c3d c8a1 74bd 9037 86bd 7a04 6a3c
00000230: 5a4d 8b3d 51e8 ab3c 2c2b 0bbd 5433 103d
00000240: 2ede 053d c141 b0bc 5521 9dbb b23c 653c
00000250: 52c4 97bd 28b9 80bd 6fd3 b83d 606e 2fbd
00000260: f62e 4a3d 1e46 153d 5d0b 143d 2112 343b
00000270: 3946 97bd 1916 233d 1876 3d3b fe5e 943d
00000280: d675 13bd bc0e c73b 1ea4 9e3d 59f2 813c
00000290: eedf 4ebd b375 26bd 81d6 003c d0ed 20bd
000002a0: 66c7 35bc 6279 773d 72a9 b83d 0a4f 96bd
000002b0: f493 243d 60ef 7abc e288 b1bd 931f 78bd
000002c0: 40fc 3b3d 5679 8fbd 7023 d5bd c1f0 2d3c
000002d0: c424 d13d b64d 03bc 091d 11be 9faf 58bd
000002e0: 8949 ca3d 826d d53d 579d 9a3d 6ee9 79bd
000002f0: 22e5 a53d ae0f f1ba ec0f 60bd 21eb 3a3d
00000300: 3248 1ebd e1af 333c 08eb 00bc a889 993d
00000310: a2b2 d3bd aab2 a33d a1ca 833c b930 343d
00000320: 4e21 93bc adb3 393d f65f 2d3d a30a cd3c
00000330: 1c12 b0bc d124 2b3d 980f e13d ca1f 01bd
00000340: 0f74 123d 3075 2a3d fe68 753d 3b09 263d
00000350: 2ed1 64bd 69a6 99bb e6fc f5bc 5ef3 37bd
00000360: f669 24bd e78f 813c 2b4c c93c 846a 86bd
00000370: 6515 a33d 8593 3bbd ed31 473d ee41 6dbd
00000380: 347f 5bbd bee2 7fbd addd 37bc 198b 793d
00000390: 753a a93d 1fe8 01be 1d93 483d 1147 c23c
000003a0: 62dd 423d 9cb6 9ebd 5225 efbc c31c 03bd
000003b0: 217f 2bbd c8fb 1e3d 88d4 7cbd 96a5 233d
000003c0: 9db2 55bc 6fd8 16bc a31a 933c eed4 f53c
000003d0: 355f b73c 9e7a 8cbd 801b c1bc 57d0 383c
000003e0: 7fdd 6a3c d272 9d3d f5ba b53c 19f2 28bd
000003f0: c59a 3d3c 7142 4dbc 7527 0abd 8771 b7bb

inference_net.h_bottleneck.0.bias f4 [8]
0.08307417 -0.026597783 0.063083276 -0.039806426 -0.019820414 0.079682656 0.027227132 -0.05617954
00000000: ca22 aa3d 98e3 d9bc ce31 813d 100c 23bd
00000010: 6c5e a2bc a930 a33d 6f0b df3c 841c 66bd

inference_net.e_out.weight f4 [6, 16]
-1.1282899 -1.3607329 0.6177171 0.14940064 1.5159734 1.0028458 -1.1259379 -1.768567
1.153606 0.94094145 1.2642529 -0.21528116 -0.41272762 0.042040054 0.51921725 -0.7840699
-0.82378197 1.1367186 -0.9954658 1.155995 -0.44051573 -0.5306483 0.5761798 1.0014603
1.7374208 -0.5564327 -0.14252606 0.497017 -0.32524866 -0.9400333 -1.2394689 0.7453226
1.0846837 1.9470656 0.14772403 -0.38815984 0.37906995 0.17002639 -0.18454298 -0.07901038
-1.2861298 0.29365987 -1.0981836 1.2536935 0.60591435 2.172717 1.0567615 0.4839886
-0.59483427 -0.41510618 3.6771767 1.2560217 1.5884163 0.47886804 -0.50430566 0.5430723
0.5556366 0.54603523 0.78359926 -0.17580001 0.4592113 1.0016103 -0.5352005 -0.49562788
-0.38249287 -0.020067872 -0.47085774 -0.4447206 2.0702229 -0.4831861 -0.73460716 0.082139276
0.13564506 -1.9538009 0.5238856 -1.0972673 -0.5247638 0.8778437 0.70199007 -0.672933
-1.1955453 1.483667 0.09834509 -0.20533814 -0.66309476 -2.012095 2.1414118 -0.069500856
1.1687616 -2.8597467 -0.1600367 0.7095737 -0.9683732 -0.07198725 -1.1708828 0.8496838
00000000: ce6b 90bf 7f2c aebf b522 1e3f 7bfc 183e
00000010: 6b0b c23f 405d 803f bc1e 90bf 6760 e2bf
00000020: 5da9 933f 8ae1 703f 0ad3 a13f aa72 5cbe
00000030: 0951 d3be 3132 2c3d 6ceb 043f ceb8 48bf
00000040: 60e3 52bf ff7f 913f d9d6 7ebf a5f7 933f
00000050: 478b e1be 91d8 07bf 8580 133f da2f 803f
00000060: ce63 de3f 6072 0ebf 5af2 11be 0379 fe3e
00000070: fe86 a6be 06a6 70bf eba6 9ebf 76cd 3e3f
00000080: ead6 8a3f 7239 f93f f844 173e e3bc c6be
00000090: 7515 c23e 661b 2e3e d6f8 3cbe 32d0 a1bd
000000a0: e79f a4bf 965a 963e 4891 8cbf 0779 a03f
000000b0: 341d 1b3f cc0d 0b40 f643 873f 5bcd f73e
000000c0: 0f47 18bf cc88 d4be dd56 6b40 52c5 a03f
000000d0: 3a51 cb3f 312e f53e 2d1a 01bf c906 0b3f
000000e0: 333e 0e3f f7c8 0b3f f699 483f eb04 34be
000000f0: be1d eb3e c434 803f e602 09bf f0c2 fdbe
00000100: 1bd6 c3be 6165 a4bc 4414 f1be 6bb2 e3be
00000110: 887e 0440 2b64 f7be 370f 3cbf a338 a83d
00000120: 8ae6 0a3e 2616 fabf 5e1d 063f 4173 8cbf
00000130: ec56 06bf 5dba 603f 9fb5 333f 5645 2cbf
00000140: a107 99bf cde8 bd3f 2769 c93d 2944 52be
00000150: 94c0 29bf 2ac6 00c0 e40c 0940 7756 8ebd
00000160: fb99 953f 1706 37c0 a9e0 23be 9fa6 353f
00000170: 4ee7 77bf 0d6e 93bd 7ddf 95bf e184 593f

inference_net.e_in.weight f4 [6, 16]
0.9141859 -0.89826155 -0.034296893 0.32517773 0.44460925 1.3410033 -0.26908857 1.8423376
-1.9649181 0.31800723 -0.737743 1.0488747 0.5784326 1.2793336 0.95398414 -3.3959792
0.13897173 1.5279497 -2.0283685 0.8903854 2.3021016 1.7247876 -1.2540928 0.52412254
0.47230658 0.5036978 -0.40283105 -0.537426 -0.6637675 0.64297885 -1.1066053 -1.7507511
-1.1224777 0.87733656 -0.17336158 -0.3218423 0.014059883 0.8934718 -1.2998998 0.4929474
-1.5233114 -1.0975198 0.68467313 -1.5596513 0.9714452 0.4566618 -0.34724823 -0.9469817
1.1965964 1.5509931 0.8358513 0.8993322 0.8295357 -0.4772149 -2.059366 1.1729053
-0.7008465 -1.0821242 -0.12340367 -1.5028538 -0.026459878 -1.3191657 -0.9664003 -0.2567973
-1.0779072 -1.0090542 0.4007985 1.3797612 0.67929184 1.6777761 -1.5883079 -0.19476487
-0.40273833 1.0923295 -0.6304075 -0.4707771 1.4614099 -0.3555253 0.41276512 0.3891165
0.62421924 0.8683221 -0.4261635 -0.19847277 1.2918565 -1.7572832 1.8331882 -1.0908518
1.3823359 -1.5198878 -1.2296458 0.29283777 -0.76284695 0.2508538 0.31315985 0.4775126
00000000: 1608 6a3f 78f4 65bf e67a 0cbd b27d a63e
00000010: d3a3 e33e ffa5 ab3f fac5 89be b8d1 eb3f
00000020: 7082 fbbf d8d1 a23e badc 3cbf 8741 863f
00000030: 2914 143f 34c1 a33f 4e38 743f b957 59c0
00000040: 9b4e 0e3e db93 c33f cad0 01c0 4cf0 633f
00000050: a255 1340 d7c5 dc3f 1d86 a0bf e52c 063f
00000060: 2bd2 f13e 57f2 003f df3f cebe c094 09bf
00000070: abec 29bf 439a 243f 3ea5 8dbf 9d18 e0bf
00000080: 59ad 8fbf 2199 603f b385 31be 84c8 a4be
00000090: 6c5b 663c 91ba 643f 1e63 a6bf 9a63 fc3e
000000a0: defb c2bf 877b 8cbf bd46 2f3f a7a2 c7bf
000000b0: a2b0 783f 93cf e93e 85ca b1be 656d 72bf
000000c0: 122a 993f f186 c63f 5afa 553f a33a 663f
000000d0: 745c 543f 8355 f4be a7cc 03c0 c321 963f
000000e0: ad6a 33bf 0c83 8abf 10bb fcbd 835d c0bf
000000f0: 63c2 d8bc 6cda a8bf 0366 77bf f07a 83be
00000100: ddf8 89bf b028 81bf 7635 cd3e 049c b03f
00000110: 12e6 2d3f 5ec1 d63f ac4d cbbf 7170 47be
00000120: b833 cebe 74d1 8b3f 6362 21bf b209 f1be
00000130: 7b0f bb3f 6a07 b6be f355 d33e 473a c73e
00000140: d5cc 1f3f 5b4a 5e3f 1a32 dabe 723c 4bbe
00000150: 8e5b a53f a8ee e0bf e9a5 ea3f 08a1 8bbf
00000160: 62f0 b03f af8b c2bf 0965 9dbf d5ee 953e
00000170: f049 43bf e96f 803e 7d56 a03e 887c f43e

inference_net.e_lag.weight f4 [5, 16]
0.026993925 1.2816514 0.22087285 1.6099694 0.85759777 0.1494972 -0.08552296 -1.4168388
-0.7516852 0.8750774 0.5433069 2.3276553 0.91938096 0.6827923 0.6786879 -0.5671658
-0.027217641 0.2973255 0.23559593 -0.57625735 0.6892835 -0.17687197 0.5344659 0.11983869
0.79890555 -1.2578623 -0.23640648 0.064582214 -1.4100585 -0.31133714 0.25478202 0.8145613
1.3257287 1.3707525 -1.2780422 -0.6636519 -0.3216523 -1.1738979 0.54073566 0.64751947
1.3430536 0.74208575 -0.10146789 -0.34776443 2.5459864 0.50095093 0.9661902 0.38542467
-1.7524527 0.880945 0.23717074 -0.3756776 -0.39646658 -0.28767362 0.060235627 0.5006284
-0.09433469 -0.7996635 0.70802516 -0.053476613 1.2222414 1.4205914 0.97351605 -1.0273453
-1.1137453 -0.91211134 1.643242 -0.40073666 2.7881715 0.37486574 1.1725107 -1.1215158
-0.2297946 0.5679588 0.91997045 -0.09258038 0.82716113 0.41057462 -0.4587529 -0.41702953
00000000: 5d22 dd3c 270d a43f 7e2c 623e 7a13 ce3f
00000010: 878b 5b3f cb15 193e a926 afbd f95a b5bf
00000020: 716e 40bf 1305 603f 2916 0b3f 4ef8 1440
00000030: 8d5c 6b3f 7acb 2e3f 7dbe 2d3f c731 11bf
00000040: 88f7 debc 0c3b 983e 0f40 713e 9a85 13bf
00000050: e274 303f ed1d 35be c2d2 083f fd6d f53d
00000060: 1385 4c3f a201 a1bf 8a14 72be ae43 843d
00000070: cc7c b4bf 9567 9fbe ca72 823e 1787 503f
00000080: 7ab1 a93f d174 af3f e396 a3bf 17e5 29bf
00000090: 9caf a4be 4942 96bf a76d 0a3f d6c3 253f
000000a0: 2ee9 ab3f 55f9 3d3f 66ce cfbd 2e0e b2be
000000b0: 71f1 2240 523e 003f 3e58 773f 6256 c53e
000000c0: 5f50 e0bf 9d85 613f e3dc 723e d058 c0be
000000d0: abfd cabe f549 93be a2b9 763d 2f29 003f
000000e0: 8c32 c1bd bfb6 4cbf 2341 353f 4b0a 5bbd
000000f0: 6872 9c3f f0d5 b53f 5938 793f 0d80 83bf
00000100: 358f 8ebf 2180 69bf c155 d23f 5b2d cdbe
00000110: 6771 3240 67ee bf3e d514 963f d48d 8fbf
00000120: 474f 6bbe bf65 113f 2f83 6b3f c89a bdbd
00000130: d5c0 533f d636 d23e a9e1 eabe e584 d5be

inference_net.h_proj.weight f4 [64, 8]
0.29810482 -0.30815458 -0.085186854 -0.07841353 -0.2049756 -0.12637296 -0.030263223 0.07520297
0.3787819 0.20544812 -0.44139045 -0.22044715 0.12195283 -0.0863883 0.35642156 0.035281
0.09732164 -0.17469046 0.2064654 0.08178822 0.1526383 -0.09608431 0.2726086 0.27744946
-0.34254098 0.025934353 -0.23632754 0.34616923 0.16854666 -0.3683564 -0.012857856 -0.022039857
-0.12293027 0.20437156 0.10490159 -0.07074465 0.0671328 0.3128052 0.0967147 0.096682124
-0.2016 0.0107658375 0.19893102 0.13020387 0.38087347 0.29550993 0.0009948437 0.21493419
-0.004894043 -0.08156007 0.003453935 0.16928393 -0.06685548 0.30871 -0.08798531 0.3722727
0.15802413 -0.29380545 -0.1177831 0.07693403 0.19893976 0.14712946 0.21607836 -0.16011548
0.23966406 -0.18067306 0.16590557 0.12308764 -0.0075614434 -0.22429276 0.25416195 -0.06879333
0.05679389 0.34315014 0.08081187 0.07921164 0.14849566 0.0038990874 -0.1710138 -0.10954294
-0.31055993 -0.13491414 -0.10484558 0.3335189 0.11163197 0.2949582 0.3851532 0.18420255
0.29787996 -0.13946009 -0.22117676 0.11429107 -0.1546978 0.1964613 0.08124572 0.10783145
0.073838085 0.0230608 -0.055642385 -0.24626996 0.008719598 0.13224415 0.31699428 -0.012828644
0.2108919 0.015531834 -0.072706535 0.34101263 0.32520038 0.03704519 -0.06139652 0.17865764
-0.22470956 -0.21158653 -0.04092217 0.12826717 0.33669338 0.08525311 0.044016737 -0.28836396
-0.13667253 0.3529255 0.12258828 0.3990909 0.25505254 -0.019064354 0.15519866 0.044506162
-0.12084111 -0.13357885 -0.049446452 -0.39336672 0.31720093 0.21479852 0.27234158 0.046554174
0.1389808 -0.011444686 -0.2645633 0.016427018 0.08156944 0.07002576 -0.10950559 0.12953988
0.11700608 -0.09767 0.12836336 -0.19604944 -0.25483817 0.17247345 -0.10842796 0.17194027
0.045657843 -0.09804463 -0.22333622 -0.11199706 0.13454646 0.21149363 0.19168125 -0.16714315
-0.21495073 -0.17884308 -0.11572271 0.109622225 0.1300173 0.12390363 0.062425505 0.004997504
-0.13211289 -0.016604139 0.20857766 -0.16042392 0.26495755 0.06815919 -0.22839795 0.25464603
0.03441942 0.037593126 -0.099283576 -0.048329648 -0.1059686 0.23736109 -0.36196828 0.18254331
-0.17689104 0.2535513 -0.29151738 -0.07216653 0.13284366 -0.15142822 -0.1769664 -0.002467163
-0.19795488 0.3073514 -0.22342485 0.26258686 0.11843452 0.02978594 0.24501142 -0.023197487
-0.20219348 -0.22660601 0.41976106 -0.029360855 -0.037205204 0.06366474 -0.0066896426 -0.15553324
0.117994115 -0.09558651 -0.059218764 -0.06561709 0.0016166152 0.039780334 0.117944665 -0.34373277
0.020302104 0.29859164 -0.14843018 0.10408683 0.18510546 -0.20187762 -0.33662298 0.010278457
-0.22401121 0.22254454 -0.16381252 0.07972986 0.1846218 0.019590084 0.28574106 0.24236572
-0.44193736 -0.21208619 -0.14049986 0.23689817 0.347179 -0.19115184 0.42556527 0.18326837
-0.33470497 -0.05121275 0.18140627 -0.14558968 -0.23790479 -0.28735304 -0.17659491 0.11668204
-0.019006059 0.06064453 0.44083124 0.13669011 -0.024440315 -0.17215917 -0.23065189 0.02994138
00000000: 32a1 983e 70c6 9dbe 7276 aebd 4697 a0bd
00000010: 20e5 51be ea67 01be 94ea f7bc 0404 9a3d
00000020: b4ef c13e fe60 523e eefd e1be e6bc 61be
00000030: 68c2 f93d 59ec b0bd e37c b63e cf82 103d
00000040: 9150 c73d 0ee2 32be aa6b 533e 9580 a73d
00000050: 374d 1c3e dac7 c4bd 5b93 8b3e db0d 8e3e
00000060: 8861 afbe 4874 d43c d9ff 71be 183d b13e
00000070: 7f97 2c3e 3699 bcbe c2a9 52bc ee8c b4bc
00000080: dec2 fbbd c746 513e a5d6 d63d 92e2 90bd
00000090: ec7c 893d 0128 a03e 5b12 c63d 4701 c63d
000000a0: 3b70 4ebe 3263 303c 93b4 4b3e 2a54 053e
000000b0: d901 c33e 144d 973e 6a65 823a b517 5c3e
000000c0: 355e a0bb f708 a7bd 6a5b 623b c458 2d3e
000000d0: 87eb 88bd 3d0f 9e3e a431 b4bd 879a be3e
000000e0: 14d1 213e ab6d 96be 4438 f1bd 978f 9d3d
000000f0: ddb6 4b3e 1ba9 163e a543 5d3e 50f5 23be
00000100: 7f6a 753e 5c02 39be 26e3 293e 5f15 fc3d
00000110: fcc5 f7bb 00ad 65be 8421 823e 84e3 8cbd
00000120: b6a0 683d 60b1 af3e b280 a53d b639 a23d
00000130: 3f0f 183e d587 7f3b 3e1e 2fbe 0d58 e0bd
00000140: b601 9fbe ef26 0abe 48b9 d6bd fdc2 aa3e
00000150: 4d9f e43d c304 973e cd32 c53e 989f 3c3e
00000160: b983 983e a0ce 0ebe 297c 62be 7011 ea3d
00000170: 1a69 1ebe 272d 493e 2864 a63d bcd6 dc3d
00000180: 6c38 973d 01ea bc3c 45e9 63bd 312e 7cbe
00000190: a5dc 0e3c 036b 073e 134d a23e 3c2f 52bc
000001a0: 0cf4 573e 3c79 7e3c 2ae7 94bd 3599 ae3e
000001b0: aa80 a63e b2bc 173d eb7a 7bbd 07f2 363e
000001c0: 431a 66be 24aa 58be 019e 27bd 7858 033e
000001d0: 1363 ac3e 2f99 ae3d e54a 343d 71a4 93be
000001e0: e2f3 0bbe a7b2 b43e 900f fb3d a455 cc3e
000001f0: 3f96 823e d92c 9cbc 66ec 1e3e 184c 363d
00000200: 8b7b f7bd e5c8 08be 5d88 4abd 5d67 c9be
00000210: 2968 a23e 25f4 5b3e 5b70 8b3e 97af 3e3d
00000220: fc50 0e3e 7e82 3bbc d774 87be f491 863c
00000230: e10d a73d aa69 8f3d 7744 e0bd 1aa6 043e
00000240: e2a0 ef3d 3507 c8bd af71 033e 2fc1 48be
00000250: 267a 82be e19c 303e 7a0f debd 1c11 303e
00000260: b803 3b3d 9fcb c8bd 40b2 64be b75e e5bd
00000270: 8cc6 093e c991 583e 1748 443e 9327 2bbe
00000280: 0b1c 5cbe a422 37be 0700 edbd 9e81 e03d
00000290: 4123 053e 30c1 fd3d e3b1 7f3d 1ac2 a33b
000002a0: 9a48 07be 6705 88bc 6295 553e 2b46 24be
000002b0: 84a8 873e 0c97 8b3d 27e1 69be f760 823e
000002c0: 61fb 0c3d 40fb 193d 3055 cbbd 4ff5 45bd
000002d0: 1106 d9bd c90e 733e e853 b9be a2ec 3a3e
000002e0: ed22 35be 7ad1 813e c441 95be 0ccc 93bd
000002f0: 2b08 083e 0010 1bbe ae36 35be 20b0 21bb
00000300: afb4 4abe 2a5d 9d3e 7cc9 64be c971 863e
00000310: cc8d f23d a501 f43c 46e4 7a3e a808 bebc
00000320: cf0b 4fbe 680b 68be ecea d63e 2d86 f0bc
00000330: 7c64 18bd a962 823d ca34 dbbb 1b44 1fbe
00000340: e6a6 f13d dcc2 c3bd 608f 72bd 4162 86bd
00000350: 9be4 d33a b4f0 223d f98c f13d befd afbe
00000360: 9950 a63c 01e1 983e 15fe 17be 7a2b d53d
00000370: 498c 3d3e 02b9 4ebe d959 acbe f966 283c
00000380: 3263 65be b7e2 633e 78be 27be 6949 a33d
00000390: 7f0d 3d3e 627b a03c a74c 923e b82e 783e
000003a0: 9d45 e2be 1f2d 59be 32df 0fbe 6f95 723e
000003b0: 72c1 b13e 4fbd 43be b1e3 d93e b4aa 3b3e
000003c0: 735e abbe 76c4 51bd 91c2 393e 7615 15be
000003d0: 509d 73be f01f 93be 4cd5 34be fef6 ee3d
000003e0: 98b2 9bbc 6666 783d a2b4 e13e 7ef8 0b3e
000003f0: 0e37 c8bc 7e4a 30be 0230 6cbe a047 f53c

inference_net.h_proj.bias f4 [64]
0.2356236 -0.07209287 -0.009810538 -0.27008045 0.13429423 -0.23972175 -0.11506511 -0.27233973
0.15382078 -0.19931358 0.12929644 0.09172367 0.21275881 0.081745744 0.24583706 0.25417972
-0.07574465 -0.23845354 -0.099441715 -0.03876803 0.13589998 0.30747738 0.30755424 0.23639621
-0.035612617 0.18080787 0.09166096 -0.026680855 0.3612209 0.07748106 0.24108009 -0.1609141
-0.32467854 0.26636216 0.20878741 0.27271026 0.31521383 0.012141215 0.2778973 0.092022665
0.20700835 -0.09987864 0.21464562 0.25520888 -0.19129296 0.042672846 -0.08884876 0.2975184
0.30925262 0.13533539 0.052083686 0.1968912 0.3569308 -0.19571522 0.10953544 -0.10434401
-0.25093964 0.36761466 0.028773328 0.22517608 0.3496445 -0.288836 0.13115606 0.2815028
00000000: 5047 713e 6da5 93bd 61bc 20bc fc47 8abe
00000010: 6d84 093e 9e79 75be 42a7 ebbd 1d70 8bbe
00000020: 3283 1d3e dc18 4cbe 4966 043e 9fd9 bb3d
00000030: 72dd 593e 506a a73d b6bc 7b3e d823 823e
00000040: 0320 9bbd 2a2d 74be 19a8 cbbd 3acb 1ebd
00000050: 5d29 0b3e ad6d 9d3e c077 9d3e d911 723e
00000060: 89de 11bd b325 393e beb8 bb3d cf91 dabc
00000070: f2f1 b83e 64ae 9e3d b3dd 763e aac6 24be
00000080: 443c a6be 9f60 883e 5ecc 553e aea0 8b3e
00000090: b563 a13e f2eb 463c 8e48 8e3e 6176 bc3d
000000a0: fff9 533e 2c8d ccbd 10cc 5b3e bdaa 823e
000000b0: 4de2 43be b9c9 2e3d 57f6 b5bd 5554 983e
000000c0: 5c56 9e3e 5c95 0a3e b455 553d d99d 493e
000000d0: a2bf b63e 9269 48be 1e54 e03d 50b2 d5bd
000000e0: 297b 80be fd37 bc3e 0bb6 eb3c 8f94 663e
000000f0: 9b04 b33e 50e2 93be c64d 063e 2321 903e
